results/Exp1_Net256/AgentSphereBehavior.onnx (onnx, 352432 bytes, 8 tensors)

action_model._continuous_distribution.log_sigma f4 [1, 2]
0	0xbd23bd35	-0.039975364
1	0xbceb12e8	-0.028695539

action_model._continuous_distribution.mu.bias f4 [2]
0	0x3bd0871a	0.0063637616
1	0xbab341f8	-0.0013676276

action_model._continuous_distribution.mu.weight f4 [2, 256]
0	0xbc60fe89	-0.013732561
1	0xbb9889f5	-0.0046551176
2	0xbd2eb2a9	-0.042650852
3	0xbc62c7e8	-0.013841607
4	0xbd0f8099	-0.03503475
5	0x3b96abb0	0.0045981035
6	0xbd0739d1	-0.033014122
7	0x3cf5d8c3	0.030010587
8	0x3b640da8	0.0034798179
9	0xbcfbd622	-0.030741755
10	0xbb564fb8	-0.0032701325
11	0x3c52c2f5	0.012863864
12	0xbd34b735	-0.044120032
13	0xbc5df906	-0.013548141
14	0x3b049377	0.0020229497
15	0xbcb0c4d4	-0.02157823
16	0x3bd691a5	0.006548124
17	0x3c252908	0.010080583
18	0xbc4c7caf	-0.012480899
19	0xbcefd593	-0.029276645
20	0xbd274df1	-0.040845815
21	0x3ca5dbb6	0.020246368
22	0x3d207516	0.03917416
23	0x3c1ccfcf	0.00957103
24	0xbc19193c	-0.009344395
25	0xba263baf	-0.0006341291
26	0x3b4a3057	0.0030851567
27	0x3d1f53c1	0.038898233
28	0xbca4ea07	-0.020131124
29	0xba796b77	-0.00095146097
30	0xbce2cd86	-0.027685892
31	0xbbc8e81a	-0.0061311843
32	0xbd3b6d41	-0.04575849
33	0xbcab5f28	-0.020919397
34	0xbd6110a3	-0.054947507
35	0x3b93242e	0.004490397
36	0xbac13418	-0.0014740257
37	0xbcd019bd	-0.025402898
38	0x3c7997c2	0.015233936
39	0xbcafc7d5	-0.021457592
40	0xbc66b1c0	-0.014080465
41	0x3cab877e	0.020938631
42	0x3b9159ef	0.0044357697
43	0xbd136dea	-0.035993494
44	0x3d0fa49e	0.0350691
45	0xb9a2716f	-0.00030983562
46	0xbbb852d5	-0.0056251087
47	0xbcb8ad33	-0.022543525
48	0xbd101aeb	-0.03518192
49	0x3c4ec60d	0.012620461
50	0xbd13cf77	-0.036086526
51	0xbd3ee97a	-0.04660938
52	0x3c2ae947	0.010431594
53	0x3d055a35	0.03255673
54	0x3cc7e485	0.024400959
55	0xbd1b0ddc	-0.037855014
56	0xbc0b04f2	-0.008485066
57	0x3be632d8	0.007025104
58	0xbc885b1e	-0.01664501
59	0xbc496e59	-0.012294375
60	0x3aeade34	0.0017919005
61	0x3bc539e4	0.006018864
62	0x3c0e45f8	0.008683674
63	0xbd25f97d	-0.040521134
64	0xbd395639	-0.045248244
65	0xbcfebe78	-0.031096682
66	0xbc0ad67b	-0.008473988
67	0x3c32b64e	0.010907723
68	0x3c014e7f	0.00789225
69	0xbbdf98b7	-0.006823625
70	0x3cc4c28b	0.024018547
71	0xbc9abbda	-0.018888403
72	0xb8f2b676	-0.00011573445
73	0x3a333d6b	0.000683746
74	0xbcebfd85	-0.028807411
75	0xbd520aa9	-0.051279698
76	0xbc34737c	-0.011013862
77	0xbd01544c	-0.031574532
78	0xbc847602	-0.016169552
79	0xbc9c546d	-0.019083226
80	0xbccbcfb4	-0.024879314
81	0xbbb1e62f	-0.0054290514
82	0xbd28e42b	-0.041233223
83	0x3c107a74	0.008818258
84	0x3c5272c8	0.012844749
85	0x3c059b9c	0.008154776
86	0x3b7b5e7b	0.0038355875
87	0xbc04a804	-0.008096699
88	0xbc5a017c	-0.013306018
89	0x3b9b27ea	0.0047349827
90	0xbc275192	-0.010212319
91	0xbcdcd19a	-0.026955415
92	0xbc44d965	-0.0120147215
93	0xbcd9a5ed	-0.026568377
94	0xbcf5e645	-0.030017028
95	0xbcbccf3a	-0.023048032
96	0xbd16dafa	-0.036829926
97	0x3cc00ea6	0.023444485
98	0xbc9bfb32	-0.019040678
99	0x3c47b3e6	0.012188887
100	0x3c12a533	0.008950519
101	0xbd147a1a	-0.036249258
102	0x3c67cb53	0.014147597
103	0xbd44e8ee	-0.0480737
104	0x3be1c30d	0.006889707
105	0xbaf9f04c	-0.0019068806
106	0xbc26c509	-0.010178813
107	0x3c40ffa0	0.011779696
108	0xbaee12e2	-0.0018163587
109	0xbc1a80e8	-0.009430148
110	0x3c821e51	0.015883597
111	0x3bca6383	0.0061764135
112	0xbd65e162	-0.056123145
113	0xbbf2104f	-0.007387198
114	0xbd3cb1ab	-0.046067875
115	0x3cb44438	0.022005185
116	0x3b2626fa	0.0025352822
117	0xbc9108bb	-0.017704358
118	0x3c4cce14	0.012500305
119	0xbcd40a9c	-0.025883965
120	0xbd2c2e81	-0.042036537
121	0xbd2f3708	-0.04277709
122	0x3b9be887	0.004757944
123	0xbc70533a	-0.01466828
124	0x3cab102e	0.020881739
125	0x3b852b1d	0.0040639774
126	0xbca4b954	-0.020107903
127	0xbd3dbe20	-0.046323895
128	0x3cdc3999	0.026882933
129	0xbc3b3db9	-0.01142829
130	0x3c88af9d	0.016685301
131	0xbd532e47	-0.051557805
132	0xbcf92a13	-0.03041557
133	0xbd16743d	-0.036731947
134	0x3b8b2b2f	0.0042470912
135	0x3c3bda4e	0.011465622
136	0xbd059cb7	-0.032620158
137	0xb9ff10ce	-0.0004864991
138	0xbbcb8cf0	-0.0062118694
139	0xbd2a595c	-0.041589126
140	0xbce02ad8	-0.02736418
141	0xbce66017	-0.028121991
142	0x3cd1d0d2	0.025612269
143	0x3c5dec2b	0.013545076
144	0xbc773eec	-0.015090685
145	0xbc484bc4	-0.012225095
146	0xbd0eb2f5	-0.034838635
147	0xbce6db73	-0.028180813
148	0xbcb77852	-0.02239624
149	0x3c5f7e6c	0.013640981
150	0xbb591b1e	-0.0033127735
151	0x3c841422	0.016122881
152	0xbd0b578c	-0.034019038
153	0x3c2a083d	0.010377941
154	0xbc28f0c3	-0.010311308
155	0x3bec7d35	0.0072170743
156	0xbc7b199e	-0.015325932
157	0xbceaf87b	-0.028682938
158	0xbbc4593b	-0.0059920824
159	0x3c59be4e	0.013290001
160	0xbc92239b	-0.017839244
161	0xbcbde74c	-0.02318158
162	0x3c3ae6ed	0.011407596
163	0x3ca41d73	0.020033574
164	0xbc8d06f8	-0.017215237
165	0xbd0115c6	-0.031514905
166	0xbcd19f86	-0.025588762
167	0xbd4494d5	-0.0479935
168	0x3b0bb18e	0.0021315548
169	0x3c9e2ef3	0.019309497
170	0xbccd26e4	-0.025042959
171	0xbd0e39e5	-0.03472318
172	0xbced1fd7	-0.028945846
173	0xbcd5163d	-0.02601158
174	0xbc2d6ab7	-0.010584525
175	0x3ca8e4cc	0.020616911
176	0x3be4b5a3	0.0069796606
177	0x3b395abf	0.0028282849
178	0xbc733639	-0.014844471
179	0x3cc383f4	0.023866631
180	0xbd09f6d7	-0.03368267
181	0xbd2af3ba	-0.041736342
182	0xbb28271e	-0.0025658081
183	0xbbfc1373	-0.007692748
184	0xbd2563aa	-0.04037825
185	0xbd153a8b	-0.036432784
186	0xbc2081c1	-0.009796561
187	0x3a85a441	0.0010196046
188	0x3bb0e8a7	0.005398828
189	0xbd24d840	-0.040245295
190	0x39a0dddd	0.0003068288
191	0x3c3ed93e	0.011648474
192	0xbd008861	-0.03138006
193	0xbd3f388b	-0.046684783
194	0x3b4a37c5	0.0030855995
195	0xbd5062a7	-0.050875332
196	0x3c2341be	0.009964405
197	0x3b771873	0.0037703782
198	0xbcfcb47b	-0.030847779
199	0xbd374d69	-0.04475156
200	0x3c4196d5	0.011815746
201	0xbb74e174	-0.0037365826
202	0xbc4c8e2e	-0.01248507
203	0x3c873053	0.016502535
204	0xbc4546ff	-0.012040853
205	0xbc314b8a	-0.010821233
206	0xbd272ea2	-0.040815957
207	0x3c3cf480	0.011532903
208	0x3c2941b0	0.0103306025
209	0x3c1a6400	0.009423256
210	0xbc6e25c5	-0.014535372
211	0x3ccab84b	0.02474608
212	0xbccbb48e	-0.024866369
213	0xbd40b4c8	-0.047047406
214	0x3b7e3353	0.0038787916
215	0xbc1f6295	-0.009728094
216	0xbad6734c	-0.0016361265
217	0x3cb7b5f3	0.022425627
218	0x3b8aca45	0.004235538
219	0xbd37a86e	-0.04483836
220	0xbc29fab2	-0.010374712
221	0xbca848f5	-0.020542601
222	0xbc5aca36	-0.013353875
223	0xbcc07b1a	-0.0234962
224	0x3cc040f0	0.023468465
225	0x3c86034d	0.016358996
226	0xbc17a979	-0.009256714
227	0xbb6afaba	-0.003585501
228	0xbaf59f92	-0.0018739572
229	0xbc2985d2	-0.010346847
230	0xbcacd349	-0.021096842
231	0xbcd57fbd	-0.026061887
232	0xbba0918b	-0.0049001626
233	0x3c8b7859	0.01702516
234	0xbd134011	-0.03594977
235	0xbb855077	-0.00406843
236	0xbd06c52c	-0.03290288
237	0xbc890397	-0.016725345
238	0xbd27820b	-0.040895503
239	0xbca93892	-0.020656858
240	0xbc6f32b8	-0.014599495
241	0xbc373220	-0.011181384
242	0x3c9425ad	0.018084371
243	0x3cbba606	0.022906315
244	0x3d39a8ab	0.04532687
245	0xbb9a1901	-0.0047026877
246	0xbd5cb2a3	-0.0538813
247	0xbbcff584	-0.0063464064
248	0xbd342ff4	-0.043991044
249	0xbd315c14	-0.043300703
250	0x3bd92186	0.0066263108
251	0xbc89d860	-0.016826808
252	0x3c90219b	0.01759415
253	0x3cfbf482	0.030756239
254	0xbd08a5df	-0.033361312
255	0xbcce45e6	-0.025179815

action_model._discrete_distribution.branches.0.weight f4 [1, 256]
0	0x3a04218b	0.00050403987
1	0xb9a92d53	-0.0003226796
2	0x3b250af7	0.0025183538
3	0xbc137920	-0.009001046
4	0x3c38386f	0.011243924
5	0xbbbd4ca3	-0.005776958
6	0x3bd5b103	0.0065213456
7	0xbb6f447a	-0.003650932
8	0xbaf7033b	-0.0018845567
9	0xbc2a400e	-0.010391248
10	0xbafa8af7	-0.0019114901
11	0x3bf4f9c2	0.0074760625
12	0x3b898321	0.00419654
13	0xbaeccdb8	-0.001806668
14	0x3b4aa55d	0.0030921318
15	0xbac961fa	-0.0015364282
16	0x3be7d8cf	0.007075406
17	0xbbc2823a	-0.0059359344
18	0x3c0a4393	0.0084389625
19	0x3acb7115	0.0015521372
20	0xbb68bb2a	-0.003551195
21	0x3bee2f42	0.007268817
22	0x3bd04fa8	0.006357152
23	0xba400f1c	-0.000732647
24	0x3b1a0998	0.0023504253
25	0x3bae53da	0.0053200545
26	0x3b8eee4a	0.0043619024
27	0xba9f1328	-0.0012136446
28	0x3bd629af	0.006535731
29	0x3a376b83	0.00069969165
30	0xbb896297	-0.004192661
31	0xbb97cde3	-0.004632698
32	0x3b40f79c	0.0029444462
33	0x3bc2bad3	0.0059426813
34	0xbb9fd561	-0.0048777317
35	0xbb8927dc	-0.00418566
36	0x3b8e5bb5	0.0043444284
37	0x3b8977c7	0.004195187
38	0xbb1688f4	-0.0022969814
39	0x3bf07cdb	0.0073391027
40	0x3c0091c6	0.007847255
41	0xba9f1528	-0.0012137042
42	0xbb201015	-0.0024423648
43	0x393e7a47	0.00018165364
44	0xbbdcbcbf	-0.0067363675
45	0xbaf626da	-0.0018779889
46	0x3b911668	0.00442772
47	0xbbd40bc7	-0.0064711305
48	0xbc0a7678	-0.008451097
49	0xbbe8a48a	-0.0070996927
50	0xbb852890	-0.0040636733
51	0x3bdfd2ea	0.006830563
52	0x3b37f767	0.0028071047
53	0xbb3cecb7	-0.0028827616
54	0xbca080d4	-0.01959268
55	0x3c1b1b24	0.00946692
56	0xbb9e80ae	-0.004837117
57	0x3a2845f9	0.0006419118
58	0xbc2525e7	-0.010079837
59	0x3b079c03	0.0020692355
60	0x3ab86b07	0.0014069983
61	0xbb959f40	-0.004566103
62	0xbb5fb600	-0.003413558
63	0xbb17a374	-0.0023138197
64	0xbc7da58b	-0.015481363
65	0x3b660dd8	0.0035103466
66	0x3ba896bc	0.005144922
67	0x3c0cfe64	0.008605573
68	0xbbd446da	-0.0064781727
69	0xbbac7e14	-0.005264053
70	0x3985a63f	0.000254916
71	0x3c679a7b	0.014135952
72	0xbb515c4f	-0.003194589
73	0xb98a6411	-0.00026395966
74	0x3c0f4280	0.008743882
75	0xbb740e50	-0.0037239976
76	0x390543b1	0.00012709085
77	0x3c4e63d0	0.012597039
78	0x3bf849e5	0.0075771683
79	0xbc0f95f4	-0.008763779
80	0x3a51dc32	0.0008005529
81	0x3b0db022	0.0021619876
82	0x3b72ebbb	0.0037066776
83	0xbb39abef	-0.002833124
84	0x3aa06fd2	0.0012240356
85	0xbb850497	-0.004059385
86	0x3b067cab	0.0020521085
87	0xbbfaabeb	-0.0076498888
88	0x3c450427	0.012024916
89	0xbac73382	-0.0015197846
90	0xbb699ad7	-0.003564527
91	0xbb07c9c0	-0.0020719618
92	0x3c1b7ef8	0.009490721
93	0xbbc1b0a9	-0.005910952
94	0x3bc14005	0.0058975243
95	0x3ab0e529	0.001349603
96	0xbc0a83bb	-0.008454259
97	0xbc623c7f	-0.013808369
98	0x3bed6045	0.0072441422
99	0x3ab5b9f8	0.0013864627
100	0x3be13c60	0.0068736523
101	0xbb2e8642	-0.0026630317
102	0x3af2ad1b	0.0018514724
103	0x3c18f659	0.009336078
104	0x3beaa5c7	0.0071608755
105	0x3b6f8513	0.0036547824
106	0xbb210717	-0.0024570876
107	0x3a9e9317	0.001209828
108	0xba1989ea	-0.00058570376
109	0xbab2c2a7	-0.0013638333
110	0x3b487904	0.003058971
111	0x3c45b39e	0.01206675
112	0xbb7a7c1b	-0.0038220945
113	0xbb6a7253	-0.003577371
114	0xbba90bde	-0.0051588854
115	0x3bacfd62	0.005279229
116	0xbbd63402	-0.0065369615
117	0x3bbd0435	0.005768324
118	0xbba10b9f	-0.0049147154
119	0x39aa7b73	0.00032516904
120	0x3aa41323	0.001251791
121	0x3c39b5a4	0.01133481
122	0xbc389193	-0.011265176
123	0x3bc8d0f2	0.006128424
124	0xba2596a9	-0.00063167006
125	0x3c6ac44b	0.014329026
126	0xbc0dc0a8	-0.00865189
127	0x3a020a63	0.0004960654
128	0x3af00817	0.0018312958
129	0xb9eede55	-0.00045560548
130	0x3a675135	0.00088240515
131	0x3ababd2d	0.0014247053
132	0xbc2c7bd8	-0.0105275735
133	0xbbac5c93	-0.005260059
134	0xbb111e1f	-0.0022143198
135	0xbbe99892	-0.0071287835
136	0x3b965169	0.0045873416
137	0xbaf44665	-0.0018636702
138	0xbae8c04b	-0.0017757503
139	0xbc3bacc6	-0.011454767
140	0xbafde232	-0.001936978
141	0x3a615055	0.0008595039
142	0xba3f37a1	-0.0007294361
143	0x3ac261cf	0.0014830175
144	0xbaa24363	-0.0012379702
145	0xbc8c03fb	-0.017091742
146	0xbbb0a352	-0.005390563
147	0x3ba8a8e4	0.0051470865
148	0xbbf0deab	-0.007350763
149	0xbbab4d73	-0.0052277385
150	0xba49feab	-0.000770549
151	0xbbe457fb	-0.006968496
152	0x3afb2fa5	0.001916398
153	0xbb7798d5	-0.0037780304
154	0x3bdcd7c0	0.0067395866
155	0xbbb257d5	-0.0054425993
156	0xbc3e9753	-0.011632758
157	0x3baa8b28	0.005204577
158	0x3b846fcb	0.004041647
159	0x39acb062	0.00032937812
160	0xbb3a8173	-0.0028458505
161	0x3bc9baf6	0.0061563207
162	0xbb9f3871	-0.0048590233
163	0xba995183	-0.0011697266
164	0xba2df733	-0.0006636262
165	0x3b42367c	0.0029634526
166	0xbc2e8e22	-0.010654004
167	0x3c34ac9f	0.011027484
168	0x3c8993ac	0.016794048
169	0x3bddd673	0.006769949
170	0x3be9f0f5	0.00713932
171	0xbb0daccc	-0.0021617888
172	0x3a3b70c7	0.0007150289
173	0x3ac585ed	0.001506982
174	0xbb79f4c5	-0.0038140279
175	0xba7787d8	-0.00094425445
176	0x3c2687e0	0.010164231
177	0x3ba72006	0.005100253
178	0xbbf5a712	-0.007496723
179	0xbc2872c3	-0.010281268
180	0x3b9a88c9	0.004716013
181	0x3a065c5f	0.00051254587
182	0x3b828c75	0.003984029
183	0x3b05c5dd	0.0020412125
184	0x3bbb2633	0.005711341
185	0xbb9b8a51	-0.004746713
186	0xbb4dd5e0	-0.0031407997
187	0xbc4140a4	-0.011795197
188	0x3a84fbde	0.0010145863
189	0xbb3e77bb	-0.0029063064
190	0x3ba8b745	0.0051488006
191	0x3b57fd08	0.0032957215
192	0xbc128013	-0.008941668
193	0x3b78062d	0.0037845478
194	0xbbd955d0	-0.006632544
195	0xb9a8cd60	-0.00032196473
196	0x38a1cf37	7.715675e-05
197	0xba9ae5e3	-0.0011817779
198	0x3a710e93	0.0009195592
199	0xbb9265ab	-0.004467686
200	0x3b639d78	0.003473131
201	0xbb652a43	-0.0034967817
202	0x3b027b7c	0.0019910028
203	0xbc0b9ba2	-0.0085209925
204	0xbc259b48	-0.010107823
205	0x39229145	0.00015503641
206	0xbb1926c4	-0.0023369053
207	0x3b33f314	0.0027458118
208	0xbc0b2ded	-0.008494836
209	0x3b0231c2	0.0019866084
210	0x3ab44442	0.0013753253
211	0xbb25016d	-0.0025177852
212	0x3b3d6cf5	0.0028904055
213	0xbb96b63f	-0.004599362
214	0xbc25ec04	-0.010127071
215	0x3b14c99d	0.0022703179
216	0x3b88975c	0.004168434
217	0xbb669f8f	-0.003519032
218	0x3b754475	0.0037424837
219	0x3ae776af	0.0017659272
220	0xbb3115f9	-0.0027021153
221	0xbb66a12f	-0.0035191288
222	0xba835920	-0.0010021068
223	0xbb3cba0c	-0.0028797416
224	0xbbace702	-0.0052765617
225	0xbb1d2c3f	-0.0023982672
226	0x3b99c385	0.004692497
227	0xbaf58d9a	-0.0018734217
228	0x3bc42727	0.0059861126
229	0xbc000483	-0.007813576
230	0x3b48e7a6	0.0030655651
231	0xbbbdf3e3	-0.005796896
232	0xbcb00b94	-0.021489896
233	0x3be3cd37	0.0069519538
234	0xbc34b683	-0.011029842
235	0xbb3ec2fa	-0.0029107914
236	0xbbe72805	-0.0070543312
237	0xbc4328d6	-0.0119115915
238	0xbba4e537	-0.0050322074
239	0x3aa29072	0.0012402667
240	0x3c0007ca	0.007814357
241	0x3c22d22b	0.009937803
242	0xbbb3540f	-0.005472667
243	0x3bca194b	0.006167566
244	0xbbbaa813	-0.0056963055
245	0x3c21a91f	0.009866982
246	0x3bb57a3e	0.005538254
247	0xbba83ffd	-0.005134581
248	0xbbb8a0de	-0.0056344112
249	0xb9209373	-0.00015313718
250	0xbb1a82b6	-0.0023576445
251	0x3ba85bc5	0.005137893
252	0xbb883920	-0.0041572005
253	0xbbcb1c45	-0.0061984384
254	0x3ba2b285	0.004965129
255	0xbad67db5	-0.0016364368

network_body._body_endoder.seq_layers.0.bias f4 [256]
0	0xbca23987	-0.019802822
1	0xbafa321a	-0.0019088418
2	0xba6c4fd4	-0.0009014581
3	0xbb9d0022	-0.0047912756
4	0xbc91cdd1	-0.017798336
5	0x3af5f466	0.0018764853
6	0xbc8008a8	-0.015629128
7	0x3a9a2f16	0.00117633
8	0x3d9aa9d5	0.07551924
9	0xbbc5875c	-0.006028099
10	0x3c5da482	0.013527991
11	0xbc12e67a	-0.008966083
12	0xbccfaeb2	-0.025351856
13	0x3c5b49dd	0.01338431
14	0x3ba2a4b4	0.004963482
15	0xbcb992b2	-0.022652958
16	0x3ba9282c	0.0051622596
17	0x392740ac	0.00015950453
18	0x3baaf838	0.0052175783
19	0x3c18fb92	0.009337323
20	0x3cc60987	0.024174465
21	0xbba2d5d8	-0.00496934
22	0xbc0e120c	-0.008671295
23	0xbc44b12e	-0.012005134
24	0xbc49913e	-0.012302695
25	0xbba716a9	-0.005099137
26	0xbc3e22a1	-0.011604936
27	0x3c3db9e5	0.011579965
28	0xbc65cbb3	-0.014025616
29	0xb9c6dbb5	-0.00037929197
30	0xbc3fc2ef	-0.011704191
31	0xbb75e2ce	-0.003751922
32	0x3c4b8fd6	0.01242443
33	0x3a88d8e7	0.0010440618
34	0x3c725d13	0.014792698
35	0xbb96a622	-0.0045974413
36	0x3bbd62c9	0.0057795984
37	0xba930312	-0.0011216125
38	0xbc4317a6	-0.011907494
39	0xbcc8db0a	-0.024518508
40	0x3b4f903b	0.0031671661
41	0xbc95b8b1	-0.018276544
42	0xbc42854c	-0.011872601
43	0x3b8d715a	0.004316491
44	0x3cea6e1e	0.028616961
45	0x3b3e0427	0.0028994174
46	0xbc2f99c1	-0.01071781
47	0x3c22f81e	0.009946851
48	0x3c632f1e	0.013866214
49	0x3c92755d	0.017878229
50	0xbc5447ba	-0.012956554
51	0xbae349d2	-0.0017340726
52	0x3d3b6651	0.045751873
53	0x3cf3c7ac	0.029758297
54	0xbca8fdb8	-0.020628795
55	0x3b41ad9a	0.0029552937
56	0xbb90bbe3	-0.004416929
57	0xbbc9160d	-0.006136662
58	0xbc4b1f89	-0.012397655
59	0x3d36ad79	0.04459903
60	0xbc5b5e11	-0.013389126
61	0xbcd22479	-0.025652157
62	0x3c214f3e	0.009845553
63	0xbc8cfa52	-0.017209206
64	0xbce67e02	-0.028136257
65	0xbc38562a	-0.011251012
66	0xbcf5da86	-0.030011427
67	0x3d51ccb7	0.051220622
68	0x3c678617	0.014131091
69	0xbc510749	-0.012758085
70	0x3d2f414c	0.04278688
71	0x3b6fd20c	0.0036593704
72	0xbd11982e	-0.03554552
73	0xbbcb958f	-0.006212897
74	0xbcb41c46	-0.021986138
75	0xbcbffd85	-0.023436317
76	0x3cc61060	0.02417773
77	0xbd4932f8	-0.049120873
78	0x3cc20726	0.02368505
79	0xbb4d07ff	-0.0031285284
80	0x3bef2641	0.0072982614
81	0x3c09e639	0.008416706
82	0xbbad3b94	-0.0052866433
83	0xbc05547c	-0.008137818
84	0xbc69600a	-0.014244089
85	0x3b098e6b	0.0020989429
86	0x3b4bc011	0.0031089822
87	0xbc0281d0	-0.00796552
88	0x3d2d5e6f	0.042326387
89	0x3c282993	0.010263818
90	0xbd296768	-0.04135838
91	0xbb396099	-0.0028286336
92	0xbc1a6038	-0.009422354
93	0xbcaa90e8	-0.02082105
94	0xbb8d17e5	-0.004305827
95	0x3c9a3959	0.018826174
96	0xbcdd2837	-0.026996715
97	0x3bc38a2f	0.0059674005
98	0x3d024546	0.031804346
99	0x3c6337fc	0.013868328
100	0x3b2d4f68	0.0026445035
101	0xbd3e319b	-0.046434026
102	0x3c03fcea	0.008055905
103	0xbd0ef84f	-0.034904774
104	0xbcbb3427	-0.022852017
105	0xbbee1b8e	-0.0072664684
106	0x3d37b057	0.044845905
107	0x3b96ba51	0.0045998474
108	0xbce1f82b	-0.027584156
109	0xbc18e59a	-0.009332085
110	0xbc074bf0	-0.008257851
111	0xbc3686c2	-0.011140527
112	0x3c5f4bfc	0.013628956
113	0xbbf9f63c	-0.0076282304
114	0xbc6bed50	-0.014399841
115	0xbbd7cec6	-0.0065859286
116	0x3c526ce7	0.012843347
117	0x3d0fc99d	0.035104383
118	0x3d38240c	0.044956252
119	0xbc435747	-0.011922664
120	0xbc16b20b	-0.009197722
121	0xbd0479ce	-0.032342725
122	0x3c9f1511	0.019419225
123	0x3ab4492e	0.0013754719
124	0x3caa20e1	0.020767631
125	0x3b10d434	0.002209914
126	0xbc8be125	-0.01707513
127	0xbba3fb04	-0.0050042886
128	0xbca73f16	-0.020415824
129	0x3c35659d	0.01107159
130	0xbc5f2c33	-0.013621378
131	0xbc447331	-0.011990354
132	0x3c27e076	0.010246387
133	0x3d02eba6	0.031963013
134	0xbc9d8dbf	-0.019232629
135	0xba29e6b4	-0.0006481216
136	0x3c85903b	0.016304126
137	0x3d337eb0	0.04382199
138	0x3c68235e	0.014168588
139	0x3c8f637a	0.017503489
140	0xbbebc372	-0.0071949298
141	0x3d153658	0.03642878
142	0x3cf13cc2	0.029447917
143	0x3bdc8ef7	0.00673091
144	0xbce93d8b	-0.028471729
145	0x3d3d36f6	0.046194993
146	0xbccb8e1d	-0.024848038
147	0xbc260dc3	-0.010135117
148	0x3c5e0511	0.013551013
149	0xbcbbca96	-0.022923749
150	0xbcd98e6d	-0.026557172
151	0xbc22ec4f	-0.009944036
152	0x3a8baeb1	0.001065692
153	0xbbb6d5ad	-0.0055796714
154	0xbc3b2f3c	-0.011424836
155	0x3c844a6a	0.016148765
156	0x3cdb45e3	0.026766723
157	0xbc2b81b2	-0.0104679335
158	0xbc2a976d	-0.010412079
159	0xbad0ea54	-0.0015938976
160	0xbcde1acf	-0.027112393
161	0xbbd5db74	-0.006526405
162	0xbbd6499b	-0.006539536
163	0xbba3deca	-0.0050009238
164	0x3c9b37dd	0.018947536
165	0xbc23edf0	-0.010005459
166	0xbc89d029	-0.016822891
167	0x3cf8c45d	0.03036707
168	0x3c8cc351	0.017182978
169	0xbc432a31	-0.011911915
170	0x3d2d99b1	0.0423829
171	0x3d262e64	0.040571585
172	0xbc733f4f	-0.014846637
173	0x3a4ec616	0.00078877935
174	0xbd105514	-0.035237387
175	0xba61c53c	-0.0008612459
176	0x3d52e628	0.051489025
177	0xbcdffced	-0.027342284
178	0x3bfcf01f	0.0077190544
179	0xbb53a3f8	-0.0032293778
180	0xbb23cef7	-0.0024995187
181	0xbc40feda	-0.011779511
182	0x3c3e6470	0.011620626
183	0xbc63cec1	-0.013904274
184	0xbaf36b75	-0.0018571453
185	0xbc398165	-0.011322354
186	0x3d5eee78	0.05442664
187	0xbc92a518	-0.017900988
188	0x3da51ac7	0.08061748
189	0xbbe41d20	-0.00696148
190	0xbba6729b	-0.00507958
191	0xbcd8186d	-0.026378835
192	0x3c937d96	0.01800422
193	0x3ce928bc	0.028461806
194	0x3c42e6af	0.01189582
195	0xbce5aab3	-0.028035497
196	0x3b7240e4	0.0036964947
197	0x3b7fc715	0.0039028574
198	0x3d03e87a	0.03220413
199	0xbb9f4ecb	-0.004861688
200	0xbba2706f	-0.004957251
201	0x3c79a89e	0.015237955
202	0x3bd77483	0.0065751686
203	0x3c38445d	0.011246768
204	0x3ca0fbd3	0.01965133
205	0xbb115a4d	-0.0022179068
206	0x3b7129de	0.0036798636
207	0xbbd32cfd	-0.006444572
208	0x3d1ab2e9	0.03776828
209	0xbc1440d3	-0.009048658
210	0xbc85daac	-0.016339622
211	0xbb83c067	-0.004020739
212	0x3c3c2037	0.01148229
213	0xbc1c2397	-0.00952997
214	0xbbebe798	-0.007199239
215	0x3d34235b	0.04397903
216	0xbc9cf2c0	-0.019158721
217	0x3c833014	0.016014136
218	0x3bb83b4a	0.005622302
219	0xbc22ae54	-0.009929258
220	0xbd115250	-0.03547889
221	0x3c0750e5	0.008259033
222	0x3caa1246	0.020760667
223	0x3ab3c085	0.0013713992
224	0xbcc7449d	-0.02432471
225	0xbcc633c6	-0.02419461
226	0xba83d6c3	-0.0010058511
227	0x3c6f5862	0.014608474
228	0xbd199f54	-0.037505463
229	0xbcb5b475	-0.022180775
230	0xbbe622f9	-0.007023212
231	0xbc1ca02d	-0.009559673
232	0xbd4c9a43	-0.049951803
233	0x3c37ec2f	0.011225744
234	0x3b9bd68d	0.004755801
235	0x3bda8533	0.0066687106
236	0xbc3a5f1e	-0.011375217
237	0x3dc2e2fc	0.0951595
238	0x3c9a18be	0.018810626
239	0x3c763e39	0.0150294835
240	0x3c348001	0.011016847
241	0x3cc3e7bc	0.02391421
242	0xb71a7470	-9.2062255e-06
243	0xbcba25ff	-0.022723196
244	0x3c70468d	0.014665258
245	0xbc833c6f	-0.016020028
246	0x3bf575dc	0.0074908566
247	0x3cf55a21	0.029950203
248	0x3da9f47f	0.08298587
249	0xbd1916a8	-0.037375122
250	0xbbfb29d5	-0.007664899
251	0x3baa5c64	0.005199002
252	0xbcd089cc	-0.025456332
253	0xbbfe3e40	-0.0077588856
254	0xbc9cf68d	-0.019160533
255	0xbb7ba418	-0.0038397368

network_body._body_endoder.seq_layers.0.weight f4 [256, 80]
0	0xbc4aa9a9	-0.012369552
1	0xbdfce126	-0.12347631
2	0xbda03050	-0.07821715
3	0xbd862265	-0.06549529
4	0x3db3b0ac	0.08773932
5	0xbe3408f6	-0.17581543
6	0x3e1e4433	0.15455703
7	0xbdfd9174	-0.123812586
8	0x3d96b7d5	0.07359282
9	0x3dc31009	0.09524543
10	0xbd81e321	-0.063421495
11	0xbd05886f	-0.032600816
12	0xbd0cee6a	-0.034407057
13	0xbe82da81	-0.2555733
14	0xbd16c380	-0.036807537
15	0xbd5e8950	-0.05433017
16	0x3c0667ca	0.008203456
17	0x3d382306	0.044955276
18	0xbd706cc4	-0.058697477
19	0x3d54c556	0.051946007
20	0x3d61970a	0.055075683
21	0xbc8a268d	-0.016864086
22	0x3e14861f	0.14504288
23	0x3e2eaf7f	0.17059134
24	0x3c5f3d5d	0.01362547
25	0x3e7fd528	0.24983656
26	0xbdc194a9	-0.09452183
27	0x3e45c162	0.19312051
28	0x3d9af12e	0.075655326
29	0xbe3754c3	-0.17903428
30	0xbd217608	-0.039419204
31	0xbd65ea54	-0.056131676
32	0x3d95bbc8	0.07311207
33	0xbdbb3a0a	-0.091419294
34	0xbce6ca5c	-0.028172664
35	0xbe59372b	-0.21212451
36	0x3e043e64	0.12914425
37	0xbd63a728	-0.055579334
38	0x3d0e778c	0.034781978
39	0xbe3e7c8b	-0.18602197
40	0xbac056fa	-0.0014674359
41	0x3d4f0faf	0.050552066
42	0xbd25916f	-0.0404219
43	0xbe877ce2	-0.26462466
44	0x3dde1ec2	0.1084571
45	0xbdd6e822	-0.104934946
46	0xbe372ba7	-0.17887746
47	0x3d6d992e	0.05800741
48	0xbd1eb5f8	-0.038747758
49	0x3d85e777	0.06538289
50	0x3c54ecec	0.01299594
51	0xbe39335b	-0.18085997
52	0x3d779b99	0.060451124
53	0xbcbd3a91	-0.023099216
54	0x3d2253f6	0.039630853
55	0x3e683a3e	0.22678468
56	0x3e30efdf	0.17279004
57	0xbdc5f057	-0.09664982
58	0xbd8411ee	-0.06448732
59	0xbe9218e1	-0.28534606
60	0x3d1709ff	0.036874767
61	0xbe539c60	-0.20665121
62	0x3e22756b	0.15865104
63	0xbd248a61	-0.04017103
64	0xbc0d05c0	-0.008607328
65	0xbd4e5520	-0.05037415
66	0xbe14c08d	-0.14526577
67	0xbe30cb77	-0.17265116
68	0xbd5e6507	-0.054295566
69	0x3e14baa7	0.14524327
70	0x3d0882b2	0.033327766
71	0x3deb9966	0.11503868
72	0xbddc45ab	-0.107554756
73	0x3c53fff5	0.012939443
74	0x3d507423	0.050892007
75	0xbdc80709	-0.09766967
76	0xbddab883	-0.10679724
77	0x3a527aec	0.0008029181
78	0xbd86be9f	-0.06579327
79	0xbd8c99e4	-0.0686529
80	0x3e2fa38f	0.17152236
81	0xbd0654ea	-0.032795824
82	0x3d43c3af	0.04779404
83	0xbc7e38ef	-0.015516504
84	0xbc85b873	-0.016323304
85	0xbdd432dd	-0.10361264
86	0x3dc62ea4	0.09676865
87	0xbdbf17b3	-0.09330692
88	0xbd9bc05e	-0.076050505
89	0x3c453ed5	0.012038906
90	0xbe2f7d90	-0.17137742
91	0xbe442c73	-0.19157581
92	0xbbc9067d	-0.0061348067
93	0x3e186fa6	0.1488634
94	0x3db9ba07	0.09068685
95	0x3dd3b118	0.10336512
96	0x3e23484c	0.15945548
97	0x3df2747b	0.11838623
98	0xbd2f0dea	-0.04273788
99	0x3c18e9b9	0.009333068
100	0x3bf56a11	0.0074894507
101	0xbd9041b3	-0.07043781
102	0x3d28e30b	0.04123215
103	0xbcaddc92	-0.02122334
104	0xbde9fbe1	-0.11424995
105	0xbd64af1d	-0.055831064
106	0xbdcf3eed	-0.10119424
107	0x3d2bb67d	0.04192208
108	0x3d8f93e8	0.07010633
109	0xbe193c0d	-0.14964314
110	0x3d82fddb	0.06396075
111	0xbe5ae7fc	-0.21377558
112	0x3cfd5dc1	0.030928494
113	0xbd99d39b	-0.07511064
114	0x3e2c920f	0.16852592
115	0x3e71359f	0.23555611
116	0xbdf5b30a	-0.119970396
117	0xbc7d69ab	-0.015467088
118	0x3dd07f10	0.10180485
119	0x3e040540	0.12892628
120	0x3db40d95	0.08791653
121	0xbe4a20f9	-0.1973914
122	0x3d85e7f8	0.06538385
123	0x3c323911	0.0108778635
124	0xbdfd9d6d	-0.12383542
125	0x3de9b12d	0.11410747
126	0xbd594141	-0.053040747
127	0x3d41ba0c	0.04729657
128	0xbe1050d2	-0.1409333
129	0xbd32cd71	-0.043652955
130	0x3e0790be	0.13238809
131	0x3d9a6130	0.07538068
132	0x3cb6fb66	0.022336673
133	0x3cfecb69	0.031102853
134	0xbd7129c3	-0.058877718
135	0x3dd98a80	0.1062212
136	0xbd993d73	-0.07482424
137	0xbe1d964a	-0.15389362
138	0xbd7583e3	-0.05994023
139	0x3e39f609	0.18160261
140	0x3d8529f0	0.065021396
141	0x3d1056ac	0.035238907
142	0xbc9304c1	-0.017946603
143	0xbdd31f85	-0.10308746
144	0x3d648332	0.05578918
145	0x3d83ff21	0.06445146
146	0x3e8303a9	0.2558873
147	0xbbfe559f	-0.0077616717
148	0xbcbb775e	-0.022884067
149	0x3da725c9	0.08161504
150	0x3d42f20c	0.047594115
151	0xbcd8e08d	-0.026474262
152	0xbda88aa9	-0.08229572
153	0x3db287fc	0.08717343
154	0xbc5a9a76	-0.01334249
155	0xbdc5556d	-0.09635434
156	0x3e06aebe	0.13152596
157	0xbde85b64	-0.113455564
158	0x3e1e1906	0.15439233
159	0x3baa2066	0.0051918505
160	0xbe044215	-0.12915833
161	0xbda9359f	-0.082621805
162	0xbdf61c8e	-0.12017165
163	0xbe9826fd	-0.29717246
164	0x3dd2f19d	0.1029999
165	0x3e4c2960	0.19937658
166	0xbdd94ce3	-0.10610368
167	0x3e0dd7cf	0.13851856
168	0xbd2c6723	-0.042090546
169	0xbc3d54ee	-0.011555893
170	0x3d3fdfc0	0.046844244
171	0xbcdebf99	-0.02719097
172	0x3e11aa38	0.1422509
173	0x3d8a0adb	0.06740352
174	0x3cf4d22c	0.029885374
175	0xbe6f4ef0	-0.23369956
176	0x3e0e24ba	0.13881198
177	0xbddd4f37	-0.10806125
178	0x3cf49ba1	0.029859366
179	0xbd956822	-0.072952524
180	0x3db00664	0.08594969
181	0xbe728fee	-0.23687717
182	0x3e68b94a	0.22726932
183	0xbd8d0722	-0.06886126
184	0x3e81ce44	0.2535268
185	0x3e095996	0.1341308
186	0xbe760413	-0.24024992
187	0x3e751af9	0.2393607
188	0x3cb9a754	0.022662796
189	0xbdee46a7	-0.116345696
190	0xbdf45dc2	-0.119319454
191	0xbe1f681e	-0.15567061
192	0xbba7bbf7	-0.0051188427
193	0x3bbacdcf	0.005700804
194	0xbd0364d7	-0.03207859
195	0x3df41f60	0.11920047
196	0xb9b99afa	-0.00035401416
197	0xbe2c159e	-0.16805121
198	0x3e9ce1a6	0.30640906
199	0xbe2a5129	-0.16632523
200	0x3e29f13b	0.16595928
201	0xbc229199	-0.0099224085
202	0xbcad293d	-0.021137828
203	0xbe15647b	-0.14589112
204	0x3db384bb	0.08765551
205	0xbdde0956	-0.108416244
206	0xbd568431	-0.05237216
207	0x3d8e2de1	0.069423445
208	0xbcca2c82	-0.024679426
209	0xbe104f46	-0.1409274
210	0xbd49e722	-0.04929269
211	0x3d75749d	0.059925664
212	0xbe12300c	-0.14276141
213	0xbdcb3470	-0.09922111
214	0x3dad458a	0.08460529
215	0xbe0369cc	-0.12833327
216	0x3e70be0b	0.23509996
217	0xbdc98999	-0.09840698
218	0xbc3a6fa3	-0.011379155
219	0xbcc8aed9	-0.024497436
220	0x3dd144b4	0.10218182
221	0x3e33606c	0.17517251
222	0xbc0a448f	-0.008439197
223	0xbdb3560a	-0.08756645
224	0x3d18429b	0.037172895
225	0xbe00b04f	-0.12567256
226	0xbdc1ea1f	-0.09468483
227	0x3d848059	0.06469793
228	0x3d34d602	0.044149406
229	0x3dd30eac	0.10305533
230	0x3d80b345	0.06284193
231	0xbdf68031	-0.12036169
232	0xbdf422b0	-0.119206786
233	0x3dca57eb	0.0988005
234	0x3c6016e5	0.0136773335
235	0xbe54e992	-0.20792225
236	0x3e17d348	0.14826691
237	0xbdde104a	-0.10842951
238	0x3dee6f21	0.1164229
239	0xbe0789fe	-0.13236234
240	0xbce2070e	-0.027591255
241	0x3e3e5f7f	0.18591116
242	0x3d336b75	0.04380365
243	0x3db3b783	0.087752365
244	0x3d94498c	0.072405905
245	0xbd04edb0	-0.03245324
246	0xbdbae3bb	-0.091254674
247	0xbe5b2235	-0.21399768
248	0xbb625801	-0.0034537318
249	0x3cfa92f0	0.030587643
250	0xbcc35bf7	-0.023847563
251	0xbc206d04	-0.009791616
252	0x3e1c3664	0.15255123
253	0x3dca8719	0.09889049
254	0xbd04a85e	-0.03238713
255	0x39952c46	0.0002845248

network_body._body_endoder.seq_layers.2.bias f4 [256]
0	0xbb92d54a	-0.0044809924
1	0xbc519afc	-0.012793299
2	0x3b463555	0.003024419
3	0xbb07cd12	-0.0020721597
4	0xbbb088c2	-0.0053873966
5	0x3bc27cb7	0.0059352773
6	0x3bd5e8e3	0.0065280064
7	0x3c75992d	0.014990133
8	0xbbf5ce30	-0.007501386
9	0x39ef8a86	0.0004568884
10	0xba3a5208	-0.00071075605
11	0xbb8b0423	-0.0042424365
12	0x3987fe7b	0.0002593881
13	0xbbf299a3	-0.007403569
14	0xbb12a29c	-0.0022374755
15	0xbb3145d5	-0.002704968
16	0x3b35023d	0.0027619742
17	0x3ad38ebe	0.0016140563
18	0xbba4f4e8	-0.005034078
19	0xbb48300d	-0.0030546219
20	0x3c324560	0.010880798
21	0x3b8d1d23	0.004306452
22	0x3c80fed9	0.01574652
23	0x3aa9d42d	0.001295691
24	0xbc357f6b	-0.011077742
25	0xbaa19770	-0.0012328457
26	0x3be76267	0.007061291
27	0x3c5ac777	0.01335322
28	0xbc065000	-0.008197784
29	0xbbb23ca4	-0.005439358
30	0x3b822366	0.003971505
31	0xbc303396	-0.010754487
32	0x3c2eef1c	0.010677125
33	0xbbf8d94e	-0.007594264
34	0x3b691975	0.0035568152
35	0xbac7cc3c	-0.0015243362
36	0xbaa193f7	-0.0012327422
37	0xbbc37d7a	-0.0059658857
38	0x3c16a9c6	0.009195751
39	0xbbfeede9	-0.007779826
40	0xbafeba80	-0.0019434243
41	0x3cc36c7e	0.023855444
42	0xbc32c6a9	-0.010911622
43	0x3ba553e0	0.005045399
44	0x3cc7115e	0.024300274
45	0x3c02b248	0.007977076
46	0xbca7634d	-0.020433092
47	0x3b2c8daf	0.0026329567
48	0x3bede6e0	0.0072601885
49	0x3a101963	0.0005496947
50	0xbb116354	-0.0022184448
51	0x3c02e847	0.00798995
52	0x3c7b0116	0.015320083
53	0x3c768b6e	0.015047891
54	0x3afc6dc3	0.0019258786
55	0x3c0fe9a7	0.008783734
56	0xbb4c563f	-0.0031179336
57	0xbab658b8	-0.0013911938
58	0xbbf59009	-0.007493977
59	0xbbf6197f	-0.0075103636
60	0xbaee17f0	-0.0018165093
61	0x3bd655aa	0.0065409737
62	0xb8bc5645	-8.9806075e-05
63	0x3c558303	0.013031724
64	0x3aa5998b	0.001263426
65	0x3c0447c0	0.008073747
66	0xbb8d39cd	-0.004309869
67	0xba67a9cd	-0.0008837253
68	0xba380465	-0.0007019698
69	0xbbe4fa34	-0.0069878343
70	0x3b42f4de	0.0029748003
71	0xbc0acbf4	-0.008471478
72	0x3b3d2fea	0.002886767
73	0x3b4c17dc	0.003114215
74	0x3af5f5ac	0.0018765233
75	0x3ae960a4	0.001780529
76	0xbc5c2550	-0.01343663
77	0xbc01f7b8	-0.007932596
78	0xbbf2a773	-0.0074052154
79	0xbc04ea64	-0.008112524
80	0xba72a4ac	-0.00092561054
81	0x3c2818eb	0.010259847
82	0x3b793ed1	0.0038031826
83	0xb9a2b602	-0.00031034654
84	0x3bedb0ac	0.007253727
85	0x3b082d1e	0.0020778845
86	0x3be8376b	0.0070866845
87	0xbc36c9e7	-0.011156536
88	0xbc2079da	-0.009794677
89	0xbb7b437a	-0.003833978
90	0xbc89657a	-0.01677202
91	0xbc7a4802	-0.015275957
92	0xbc3cb776	-0.01151835
93	0xbb785ece	-0.0037898305
94	0xbb85a475	-0.0040784427
95	0xbac49545	-0.0014998099
96	0x39ab07df	0.00032621526
97	0x3c5dfb9c	0.013548758
98	0xbbae93f9	-0.0053276983
99	0x3b6cba59	0.0036121814
100	0xb8852b6d	-6.350023e-05
101	0xbbc6f2fe	-0.0060714474
102	0x3a8ce1cd	0.0010748446
103	0x3cb9934c	0.022653244
104	0xb9e85660	-0.00044314843
105	0xba539f2b	-0.0008072729
106	0xbbfcd2a4	-0.00771554
107	0x3c0ba8c5	0.0085241245
108	0xbc59d8a0	-0.013296276
109	0xbbed7667	-0.0072467807
110	0x3c4fe061	0.012687773
111	0xbb41bfe3	-0.0029563836
112	0xbb1a9868	-0.0023589376
113	0xbb4bf8a8	-0.0031123552
114	0x3c8abd87	0.016936077
115	0x3ab47ed3	0.0013770707
116	0xbba3c459	-0.0049977717
117	0xbc69efcf	-0.014278366
118	0x3a9773a2	0.0011554847
119	0x3adf3200	0.0017028451
120	0x3c4435e9	0.011975744
121	0x3b814b98	0.003945779
122	0x3b41e715	0.0029587199
123	0xbc0c221f	-0.008553057
124	0x3ca77798	0.020442769
125	0x3b4401a3	0.0029908202
126	0xbbf6b959	-0.0075294194
127	0xbb3e2a19	-0.0029016791
128	0x3c0af0d4	0.008480269
129	0xbc3c1b56	-0.011481127
130	0x3ba52e24	0.005040901
131	0x3b38946a	0.0028164634
132	0x3be925cf	0.007115103
133	0x3b6725df	0.0035270376
134	0xbc1aa01a	-0.009437585
135	0x3c1bd968	0.009512283
136	0xbafd328f	-0.0019317436
137	0x3ae7a5a6	0.0017673268
138	0xbb590a47	-0.0033117698
139	0x3bf8552f	0.007578514
140	0xbc0f84e4	-0.008759711
141	0xbbbd16d0	-0.0057705417
142	0x3c81de31	0.01585302
143	0x3b10c204	0.0022088299
144	0xbbf124f3	-0.007359141
145	0xbb83c7dd	-0.0040216283
146	0xbb401fbb	-0.0029315788
147	0xbb8ebd24	-0.0043560434
148	0x39e12687	0.0004294405
149	0x3c1265b7	0.0089353835
150	0xbb9bdf21	-0.0047568236
151	0x38b315d1	8.539449e-05
152	0x3b48db8e	0.0030648443
153	0x3b031a71	0.0020004774
154	0xbbd3c141	-0.0064622466
155	0xbac661aa	-0.0015135307
156	0xbb579f77	-0.0032901445
157	0xbc32db5c	-0.010916557
158	0xbc0fd03d	-0.008777675
159	0x3c48b6d2	0.012250619
160	0xbc0e18cd	-0.008672905
161	0x3b8acd42	0.0042358944
162	0x3c2b323b	0.010448988
163	0x3c476490	0.012169972
164	0xbbb17eea	-0.0054167407
165	0x3bb82a13	0.00562025
166	0xb98207d3	-0.00024801362
167	0x3c07abbc	0.008280691
168	0xbb744033	-0.003726971
169	0x3c6bf8ac	0.01440255
170	0x3b07ca37	0.0020719895
171	0x3bac1390	0.0052513555
172	0xba7128f2	-0.0009199522
173	0x3bbf8e0f	0.005845792
174	0xbb5f05d3	-0.003403057
175	0x3c54aaa6	0.012980139
176	0xbb18cc81	-0.0023315253
177	0xbaa46f48	-0.0012545371
178	0xbc0ae2b0	-0.008476898
179	0x3b53d27e	0.0032321508
180	0x3c5c4a1f	0.013445406
181	0x3bfc1138	0.0076924823
182	0xbb7b2259	-0.0038320033
183	0xbc18c4bf	-0.009324252
184	0x3bcf57c5	0.0063276016
185	0xba025e5a	-0.0004973166
186	0xba99ed97	-0.0011743781
187	0xbbdd4bd1	-0.006753423
188	0xb74d56c8	-1.22391575e-05
189	0xbbe9e799	-0.0071382043
190	0xbc225337	-0.009907535
191	0xbb674482	-0.0035288637
192	0x3b98b582	0.0046603093
193	0xb99fc099	-0.0003047034
194	0xbb7e84e1	-0.0038836526
195	0xbc1ac438	-0.009446196
196	0xbb90f5bd	-0.0044238255
197	0xbb6c4497	-0.0036051625
198	0x3c21746d	0.009854418
199	0x3c4b9b9d	0.012427238
200	0x3c5080b9	0.012726002
201	0xba4d49fc	-0.0007831154
202	0xbbcc9094	-0.006242821
203	0x3c80474e	0.015659
204	0xbc4ae6ea	-0.012384156
205	0x3b86b9ee	0.00411152
206	0x3c2a562f	0.010396524
207	0x3a550b5e	0.0008126999
208	0x3c305dfd	0.010764596
209	0xbae56248	-0.0017500604
210	0xbc03388d	-0.008009088
211	0x3c649c20	0.013953239
212	0x3b1390cf	0.0022516733
213	0x3b872d1f	0.004125252
214	0xbba039a1	-0.0048896824
215	0xb9c422c0	-0.00037409924
216	0xbba00b8f	-0.0048841904
217	0x3b1a1c9a	0.0023515583
218	0xbb7eb75b	-0.0038866613
219	0x3c862bd9	0.01637833
220	0xbbee0ace	-0.0072644716
221	0xbb840310	-0.0040286854
222	0xb93b018d	-0.00017834287
223	0xbbca8976	-0.0061809374
224	0x3c99c90b	0.018772623
225	0x3b052e14	0.0020321654
226	0xbb15585a	-0.0022788257
227	0xbbb2ef8a	-0.005460684
228	0xbc2319db	-0.009954895
229	0xbc428e3e	-0.0118747335
230	0xbc03d215	-0.008045693
231	0xba754877	-0.00093568064
232	0xbbfbe8fb	-0.0076876855
233	0x3b9ea0ec	0.0048409607
234	0xb9885773	-0.00026005096
235	0xbc0dc7ca	-0.00865359
236	0x3bb20b12	0.0054334486
237	0xbc309a34	-0.010778952
238	0xbb8f0443	-0.0043645217
239	0xbb806780	-0.003918588
240	0xbc263a16	-0.010145685
241	0xbc52254b	-0.012826274
242	0x3bc53608	0.006018404
243	0x3be7af6a	0.0070704715
244	0x3cbd4590	0.023104459
245	0xbb61f55c	-0.003447852
246	0x3bc17a39	0.0059044627
247	0xbb923a07	-0.004462484
248	0x3c0bf164	0.008541439
249	0x3be76f4d	0.0070628286
250	0xb8bd8971	-9.037823e-05
251	0xbc0f8d81	-0.0087617645
252	0x3b1b3ca6	0.0023687272
253	0x3cc1e5c0	0.023669124
254	0xbb823444	-0.0039735157
255	0xbb82dc24	-0.003993528

network_body._body_endoder.seq_layers.2.weight f4 [256, 256]
0	0x3c69d480	0.014271855
1	0x3daf83f1	0.08570088
2	0x3c5323ff	0.012887
3	0xbd96b27d	-0.07358263
4	0xbbf0d8a7	-0.0073500457
5	0xbe114582	-0.14186671
6	0xbb06c2a3	-0.002056279
7	0x3cf146ac	0.029452644
8	0xbdbb8ffe	-0.09158324
9	0xbca9333d	-0.020654315
10	0x3d8370a6	0.0641797
11	0xbd2fcf14	-0.042922094
12	0xbdddae7e	-0.10824297
13	0x3c2638b0	0.010145351
14	0x3dfced8f	0.12349998
15	0xbb3c39be	-0.002872094
16	0x3d1f4972	0.038888402
17	0x3e0abe0e	0.13549063
18	0xbd9125cc	-0.07087287
19	0x3dcf8e5d	0.101345755
20	0xbb9db304	-0.0048126
21	0x3d179f13	0.03701694
22	0x3dbaa2fe	0.091131195
23	0xbccd5024	-0.025062628
24	0x3d943f01	0.072385795
25	0xbceb4c13	-0.028722798
26	0x3c81b79f	0.015834628
27	0x3d301a0b	0.042993587
28	0xbc735860	-0.014852613
29	0x3dcc18e5	0.09965686
30	0xbcfd76be	-0.03094041
31	0xbcf93cce	-0.030424502
32	0xbd014a72	-0.031565137
33	0xbc54ac99	-0.012980604
34	0x3d918d05	0.071069755
35	0x3cac6352	0.021043453
36	0xbbc429b5	-0.005986417
37	0xbd6cb99c	-0.0577942
38	0xbca43b05	-0.020047674
39	0xbcd456fa	-0.02592038
40	0x3c7d7622	0.01547006
41	0xbd03d27b	-0.03218315
42	0xbda0acfb	-0.078454934
43	0x3cc31659	0.023814367
44	0x3dffbacd	0.12486801
45	0x3caee95d	0.02135151
46	0xbccbf7f2	-0.024898503
47	0xbc4a3747	-0.012342281
48	0x3df884f2	0.12134732
49	0x3d12f75a	0.035880424
50	0x3e0439f9	0.1291274
51	0xbd6d2139	-0.05789301
52	0xbe1fa718	-0.15591085
53	0x3d10d05a	0.03535495
54	0xbd385bc2	-0.045009382
55	0xbd9f8692	-0.07789339
56	0xbdc044e4	-0.0938814
57	0xbc791a18	-0.015203975
58	0x3d136c50	0.035991967
59	0x3c41e35e	0.011833994
60	0xbc5e3974	-0.013563503
61	0x3cef1e66	0.0291893
62	0x3db225bd	0.08698604
63	0x3de1e698	0.110303104
64	0x3d254490	0.04034859
65	0xbd08267d	-0.03323983
66	0xbd190821	-0.037361268
67	0xbb1d0b79	-0.0023963137
68	0x3b070f15	0.0020608355
69	0x3d16c805	0.036811847
70	0x3dd235a0	0.102641344
71	0xba3295d9	-0.000681249
72	0x3e2adfd3	0.16686945
73	0x3d9dedd6	0.07711379
74	0xbdd1323e	-0.10214661
75	0xbdd123e2	-0.10211922
76	0x3d823f49	0.06359727
77	0xbcb4fda7	-0.022093607
78	0x3d36e4c9	0.04465178
79	0xbcccd192	-0.025002275
80	0x3d543f6d	0.0518183
81	0x3d171578	0.03688571
82	0x3d4f2d34	0.05058022
83	0xbe5c6c91	-0.2152579
84	0x3a9af3a4	0.0011821878
85	0xbb4c3305	-0.003115834
86	0x3c100eaa	0.008792559
87	0xbddd759b	-0.10813447
88	0x3d252a79	0.04032371
89	0xbc5b6a71	-0.013392077
90	0x3db95297	0.09048956
91	0x3c993d7c	0.018706076
92	0xbb651cc0	-0.0034959763
93	0x3da9c05d	0.082886435
94	0x3d3d6c96	0.046246134
95	0xbc5ae3c1	-0.013359965
96	0xbcdbb98e	-0.026821878
97	0x3dfb83b5	0.122809805
98	0xbc46b1ce	-0.012127353
99	0x3d60287a	0.0547261
100	0x3db00601	0.08594895
101	0x3d46f122	0.048569806
102	0xbdf957e4	-0.12174967
103	0x3dd28ed5	0.10281149
104	0x3da42473	0.08014765
105	0xbc350395	-0.011048217
106	0xbde54237	-0.1119427
107	0x3c15f137	0.009151748
108	0x3d9cf6a8	0.076642334
109	0x3d384858	0.044990867
110	0x3cffa805	0.031208048
111	0xbd8beee2	-0.06832673
112	0x3cd3852e	0.025820341
113	0xbb4e9bc5	-0.0031525951
114	0xbd7a45d0	-0.061101735
115	0x3c936734	0.017993547
116	0x3d447c92	0.047970362
117	0x3c2eef31	0.010677145
118	0x3c2d4cac	0.010577362
119	0x3d18bc2a	0.037288822
120	0x3dd18790	0.102309346
121	0xbc4e11e3	-0.012577507
122	0x3de762d8	0.1129815
123	0xbd8d3d82	-0.06896497
124	0x3dbae9ab	0.091266
125	0xbc3448bc	-0.011003669
126	0x3de2e0d1	0.110780366
127	0x3c7551ef	0.014973148
128	0x3d815364	0.063147336
129	0xbd3e4ece	-0.046461873
130	0x3df508ef	0.119645946
131	0x3d29f52b	0.041493576
132	0x3dc2dbd9	0.09514589
133	0xbe2649a0	-0.16239023
134	0x3d96c495	0.07361714
135	0xbde0226f	-0.10944068
136	0x3daf76dc	0.085675925
137	0xb7ae5f74	-2.0786865e-05
138	0xbcd9918f	-0.026558666
139	0xbdabb0fc	-0.083833665
140	0xbdcc11a7	-0.099643044
141	0xbd9c22e4	-0.07623842
142	0x3d4f5591	0.05061871
143	0x3dbc7476	0.09201901
144	0x3bf07ef4	0.0073393527
145	0x3c3c0ed3	0.011478144
146	0x3cb6f56e	0.022333827
147	0xbc126a33	-0.008936453
148	0xbc98f523	-0.018671578
149	0x3c05e10d	0.008171332
150	0x3d1b3525	0.03789248
151	0xbde0f203	-0.1098366
152	0xbd0b4023	-0.033996712
153	0x3b11e96d	0.0022264377
154	0xbcc7ae4b	-0.024375102
155	0x3d3d7686	0.04625561
156	0x3d2c0b8c	0.0420032
157	0x3cbb8a2e	0.022893038
158	0x3c7210d8	0.014774524
159	0xbd6f9a5c	-0.058496818
160	0x3cd65011	0.026161226
161	0xbd2a2de3	-0.041547667
162	0x3d07723c	0.033067927
163	0x3deddf7b	0.11614891
164	0x3d4b3175	0.049607713
165	0xbc257f25	-0.010101114
166	0xbd02dd1a	-0.03194914
167	0xbd4145aa	-0.047185577
168	0x3aa5fcf7	0.001266389
169	0x3e244e32	0.16045454
170	0xbdcb8fa8	-0.0993951
171	0x3d75c273	0.059999894
172	0xbda07f77	-0.07836812
173	0xbd758a3d	-0.059946287
174	0x3b09bb78	0.002101628
175	0x3d65d1c0	0.056108236
176	0x3b5d6e63	0.003378772
177	0x3da2c5e9	0.079479046
178	0x3dba49a4	0.09096077
179	0xbcb6a817	-0.022296948
180	0xbd4593f0	-0.048236787
181	0x3e0aad99	0.13542785
182	0x3cfbb706	0.03072692
183	0xbbd5f564	-0.006529497
184	0xbdb002ad	-0.0859426
185	0xbd9f3c90	-0.07775223
186	0x3b636447	0.003469722
187	0x3d2be64b	0.04196767
188	0x3da56d02	0.08077432
189	0xbdb15b58	-0.086600006
190	0x3d2554fa	0.040364243
191	0xbd87876f	-0.06617629
192	0x3d4df694	0.050283983
193	0x3d583163	0.052781474
194	0xbd7a825b	-0.061159473
195	0x3d5b4e28	0.053541332
196	0x3ca8704f	0.020561365
197	0xbdd08f7e	-0.10183619
198	0x3d90df50	0.070738435
199	0xbdcf46ce	-0.10120927
200	0x3cb81f93	0.022475993
201	0xbb7cb71f	-0.0038561297
202	0x3d6e2fff	0.05815124
203	0xbcafbbfd	-0.021451944
204	0xbd929737	-0.07157748
205	0x3d1eef30	0.038802326
206	0x3d838cb2	0.0642332
207	0x3d9ff6a2	0.07810713
208	0xbdb02054	-0.08599916
209	0x3d27307b	0.04081772
210	0xbd0129b6	-0.03153392
211	0x3cb5bef9	0.02218579
212	0xbd0b886c	-0.03406565
213	0xbb6831bf	-0.0035430042
214	0x3d8d03eb	0.06885513
215	0xbc9acd44	-0.018896706
216	0xbd8dd979	-0.06926245
217	0x3d724896	0.059151255
218	0xbdaff99d	-0.08592532
219	0x3ca6efe6	0.020378064
220	0x3d3e94c7	0.046528604
221	0xbd83364b	-0.0640684
222	0xbd8946d1	-0.0670296
223	0x3d916037	0.0709843
224	0xbc8b8ab3	-0.01703391
225	0x3d5ec879	0.054390404
226	0x3aeb534b	0.00179539
227	0x3cc56a0f	0.024098424
228	0xbd2842a5	-0.041079182
229	0x3dce1110	0.10061848
230	0x3dc581a2	0.09643866
231	0x3e05cbea	0.13066068
232	0xbc85e7f0	-0.016345948
233	0x3c6caa13	0.014444846
234	0xbccb7165	-0.024834344
235	0xbd485918	-0.04891309
236	0xbcfe6bf8	-0.031057343
237	0x3d092f37	0.033492293
238	0x3c8b9d8c	0.017042898
239	0xbc41b4ae	-0.011822863
240	0x3d29dc4c	0.041469857
241	0xbd89f339	-0.06735844
242	0x3c7d704d	0.015468669
243	0x3d6a9ff7	0.05728146
244	0xba27e6bb	-0.0006404926
245	0xbc1ea7dc	-0.0096835755
246	0x3c0584bc	0.008149322
247	0x3d632ff4	0.055465654
248	0xbd95b824	-0.07310513
249	0xbb6b995a	-0.003594956
250	0xbd8fbb22	-0.070181146
251	0x3d5b2982	0.05350638
252	0x3d0b84d1	0.03406221
253	0x3c783afe	0.015150784
254	0x3e07d72c	0.13265675
255	0x3d0fd278	0.035112828
