results/FirstRunAnacondaTest/AgentSphereBehavior.onnx (onnx, 110256 bytes, 8 tensors)

action_model._continuous_distribution.log_sigma f4 [1, 2]
0.0 0.0
00000000: 0000 0000 0000 0000

action_model._continuous_distribution.mu.bias f4 [2]
0.0 0.0
00000000: 0000 0000 0000 0000

action_model._continuous_distribution.mu.weight f4 [2, 128]
0.002310211 -0.012845579 -0.01020159 0.0035319508 0.008484215 0.0330689 -0.024382504 -0.0073072338
0.021556731 0.00592806 0.017254906 -0.010717804 0.010277146 -0.010003165 -0.0058387513 0.001961294
0.015755894 7.4139854e-05 -0.0020338017 0.0045033502 -0.00886281 -0.012608597 0.008882209 0.009250904
0.02200221 0.010674792 -0.030663788 -0.029032493 -0.017788503 -0.007236812 0.014727739 -0.011676067
-0.015273698 -0.0013196992 0.019907987 0.00064025004 -0.013094775 -0.0031982523 0.030518105 0.0041967374
0.016207917 0.0031686386 -0.004286195 0.011413351 0.027199624 -0.014457329 -0.0077954293 -0.04126186
-0.004387016 -0.013293411 0.0018366516 -0.009048059 -0.010290007 0.003704479 -0.0059156143 -0.020976266
0.00604685 -0.0041494262 -0.007269998 -0.031382304 -0.009276817 -0.015471429 0.030384166 -0.03770359
-0.01452563 0.010489519 0.0011131964 -0.009714591 -0.0325174 -0.021743914 0.013704322 -0.009669888
-0.033340078 0.012065421 0.015830731 -0.00037353483 -0.011254726 -0.00857954 0.026726067 0.017635979
-0.0062039695 -0.009100236 -0.0022137158 -0.008335149 -0.004640576 -0.0076216734 0.014316416 0.0027643242
0.00047826697 -0.00042672394 -0.013284949 -0.00424071 0.02969659 0.0037876794 0.024912363 0.024087135
-0.009424257 0.019575056 0.018660206 -0.019653281 0.0026383565 -0.019982865 -0.012916845 0.0026182241
-0.0069244555 -0.006613791 0.01459034 -0.014320289 0.006594188 0.032135423 -0.011914121 -0.010610071
0.011304422 -0.02848473 -0.004621848 -0.004588473 0.0007723821 -0.003997779 0.0027343805 0.012983072
-0.03994439 0.002685082 0.016519018 -0.022627413 0.024929171 0.006465483 0.01452704 -0.0033584808
0.014352299 -0.014865545 -0.00579606 -0.022550467 0.020111829 0.010133437 -0.015096448 -0.022703279
-0.018868187 0.010328013 0.041707043 -0.011034577 -0.031477842 -0.00898786 -0.004397647 -3.7269725e-05
-0.008364124 -0.0120868115 0.025543967 -0.012737155 0.01976165 -0.033563003 -0.00015862721 0.023856722
-0.02469373 0.036326118 0.0018593839 0.009139693 0.026701828 0.0071268156 -0.004826429 0.023004996
0.03208942 -0.025203919 -0.017168995 0.008333435 -0.0016014349 -0.042359706 -0.009001513 -0.025756273
0.0014677843 0.0036216017 0.033500545 0.011076966 0.01636657 -0.034789164 0.012279488 -0.003973748
0.013429317 -0.0034648725 0.008161756 -0.015897848 0.036417227 -0.021130241 -0.018331677 0.024126308
0.012431614 -0.0026245418 0.00017958795 0.024842966 0.010786179 0.022475746 -0.008059076 -0.008204448
-0.056903 0.01134936 0.0056944373 0.020562889 0.004431223 0.025423637 -0.008867553 0.029849708
0.008939551 0.028756171 -0.0077024745 -0.0032904283 -0.010426819 0.01193545 0.0043692007 0.002835409
0.0029309965 0.011610256 0.0060559763 -0.0038317225 0.008507275 -0.014559311 -0.005656484 0.017210169
-0.014589654 0.009523372 -0.02691539 -0.017505163 -0.011490751 0.011448766 -0.02487812 0.007587346
-0.037705254 -0.042382542 0.0090187285 0.018130306 0.004137302 -0.02543292 0.013779587 -0.0077501647
-0.0037453745 0.0054708826 -0.017442256 0.014779444 -0.014723492 0.00474731 -0.026587848 0.002333179
0.053809416 0.027894331 -0.000630922 0.0011557713 0.014143805 -0.003361151 0.00896625 -0.020035625
-0.017942198 -0.006577585 -0.033358943 -0.028276205 0.025828838 -0.023702629 0.023365518 0.008229032
00000000: e966 173b 4376 52bc 9224 27bc 4d78 673b
00000010: 6001 0b3c 4173 073d d1bd c7bc 8571 efbb
00000020: be97 b03c 2c40 c23b 295a 8d3c ba99 2fbc
00000030: 7961 283c 51e4 23bc ff52 bfbb 0e89 003b
00000040: 8112 813c 887b 9b38 8849 05bb d790 933b
00000050: 5235 11bc 4a94 4ebc af86 113c 1b91 173c
00000060: fb3d b43c 53e5 2e3c a032 fbbc 8dd5 edbc
00000070: 32b9 91bc c722 edbb 9d4c 713c f94c 3fbc
00000080: 883e 7abc c2f9 acba 1316 a33c 74d6 273a
00000090: 788b 56bc c599 51bb 1b01 fa3c c984 893b
000000a0: 77c6 843c efa8 4f3b 3673 8cbb 10ff 3a3c
000000b0: bfd1 de3c 6fde 6cbc cd70 ffbb 3202 29bd
000000c0: f5c0 8fbb 9bcc 59bc cdbb f03a 4f3e 14bc
000000d0: 6b97 28bc d8c6 723b c5d7 c1bb 6bd6 abbc
000000e0: a724 c63b e9f7 87bb 2a39 eebb bb8a 00bd
000000f0: cafd 17bc e07b 7dbc 37e8 f83c 146f 1abd
00000100: e8fc 6dbc 3bdc 2b3c ace8 913a f329 1fbc
00000110: f730 05bd 4b20 b2bc 1888 603c 736e 1ebc
00000120: 9b8f 08bd 0bae 453c 73af 813c ffd6 c3b9
00000130: be65 38bc 3391 0cbc a0f0 da3c 5479 903c
00000140: ab4a cbbb 2819 15bc fd13 11bb 2690 08bc
00000150: f90f 98bb 3bbf f9bb 678f 6a3c aa29 353b
00000160: e8bf fa39 ebb9 dfb9 1da9 59bc a7f5 8abb
00000170: 4346 f33c b73a 783b 0315 cc3c 6252 c53c
00000180: 3368 1abc de5b a03c 4add 983c ebff a0bc
00000190: 47e8 2c3b 1bb3 a3bc 2da1 53bc 8396 2b3b
000001a0: 8be6 e2bb 80b8 d8bb 520c 6f3c a59f 6abc
000001b0: 0f14 d83b 6fa0 033d 7233 43bc ddd5 2dbc
000001c0: 2f36 393c cf58 e9bc df72 97bb e75a 96bb
000001d0: af79 4a3a cdff 82bb 4b33 333b f3b6 543c
000001e0: bb9c 23bd 33f8 2f3b e452 873c 205d b9bc
000001f0: 4338 cc3c 67dc d33b d202 6e3c f519 5cbb
00000200: e825 6b3c 9d8e 73bc e0ec bdbb c2bb b8bc
00000210: 90c1 a43c b706 263c 1857 77bc 3afc b9bc
00000220: 7591 9abc d436 293c 01d5 2a3d 5fca 34bc
00000230: e9ee 00bd d141 13bc 231a 90bb 1052 1cb8
00000240: ae09 09bc c307 46bc 9541 d13c 80af 50bc
00000250: 2fe3 a13c 5c79 09bd 2b55 26b9 2c6f c33c
00000260: 814a cabc b2ca 143d 92b6 f33a a7be 153c
00000270: cbbd da3c 1088 e93b 0527 9ebb f974 bc3c
00000280: 3270 033d 7378 cebc fea5 8cbc f688 083c
00000290: 3de7 d1ba 5f81 2dbd 157b 13bc d2fe d2bc
000002a0: ab62 c03a 6558 6d3b de37 093d 2a7c 353c
000002b0: 2f13 863c 157f 0ebd e82f 493c 3736 82bb
000002c0: a306 5c3c ea12 63bb e3b8 053c 343c 82bc
000002d0: 3b2a 153d 5419 adbc 502c 96bc 89a4 c53c
000002e0: f8ad 4b3c 8100 2cbb c64f 3c39 7a83 cb3c
000002f0: 84b8 303c 0e1f b83c 370a 04bc f36b 06bc
00000300: 1f13 69bd abf2 393c 6798 ba3b 8173 a83c
00000310: cb33 913b 3b45 d03c 3749 11bc 6087 f43c
00000320: 3277 123c 1092 eb3c 0a65 fcbb 3aa4 57bb
00000330: 40d5 2abc e88c 433c 832b 8f3b 45d2 393b
00000340: f615 403b f138 3e3c 3671 c63b a31d 7bbb
00000350: 1962 0b3c 2d8a 6ebc 075a b9bb 57fc 8c3c
00000360: 7209 6fbc eb07 1c3c aa7d dcbc fd66 8fbc
00000370: b443 3cbc 9b93 3b3c 33cd cbbc 459f f83b
00000380: d370 1abd 5199 2dbd 4ac3 133c 0286 943c
00000390: 3492 873b b358 d0bc c7c3 613c 18f5 fdbb
000003a0: f574 75bb 1745 b33b 10e3 8ebc 7b25 723c
000003b0: cd3a 71bc 538f 9b3b c2ce d9bc 40e8 183b
000003c0: 4367 5c3d a782 e43c 7564 25ba 407d 973a
000003d0: 6bbb 673c c246 5cbb 2ee7 123c c021 a4bc
000003e0: 84fb 92bc c888 d7bb 63a3 08bd 80a3 e7bc
000003f0: 0097 d33c 042c c2bc 0b69 bf3c 10d3 063c

action_model._discrete_distribution.branches.0.weight f4 [1, 128]
-0.0069943117 -0.0018549099 0.0062220152 -0.0100616915 0.00866961 0.005440689 -0.0058055203 -0.0032610663
0.008432665 0.003849721 -0.00093146943 0.0032395106 -5.2740605e-05 -0.01950652 0.0064460314 -0.004169149
0.00058253517 0.0017485584 0.010794524 -0.018008143 -0.0028874886 -0.017922083 -0.005215005 0.013312987
0.0023196246 -0.0044774883 -0.004509555 -0.0078116874 0.0066958624 -0.004514397 0.006544997 -0.0064943107
-0.0010370192 -0.012033056 0.008457496 0.00014581166 0.0012261734 0.00017475903 -0.017794073 0.0041413023
0.018187499 0.0013892498 0.002179372 0.011561221 -0.007017217 0.017625017 0.007902689 -0.0014560033
-0.0020511937 0.0013223087 -9.366889e-05 -0.0009666118 -0.0004480703 0.0076583247 -0.005077368 -0.0055791195
-0.0037096322 0.0018974073 0.0047217757 0.011096854 0.0038865206 -0.006369551 -0.00884427 -0.0004161486
0.001936735 0.0019450713 0.0042444076 0.010814646 0.009463166 -0.006004879 -0.007507098 -0.004294362
-0.01133588 0.0032870714 0.00041262154 -0.016109964 0.005794881 0.006706103 0.012313415 -0.023433378
0.0106383 -0.0014438512 -0.0031603028 -0.013382162 -0.0038792368 0.0037237813 -0.0015130697 0.009233123
0.0025018854 -0.010468092 0.0119986115 0.00040870206 -0.00014086811 0.016168306 0.00044509108 0.0027867358
0.00059779274 0.0009840503 0.015494907 0.014046251 0.010925341 0.0033867673 -0.0012745349 -0.013532263
-0.019520426 -0.00260422 -0.014599097 0.0040330724 -0.0032156077 -0.0023186805 0.012082653 -0.007508706
0.0074791224 -0.014642854 -0.013288014 0.0016384114 0.008305564 -0.001414725 -0.0107052205 0.009731206
-0.007982121 0.0011814999 0.01310038 -0.0066276365 -0.0033729814 -0.016267408 0.0035378416 0.018708577
00000000: 8a30 e5bb 7320 f3ba 0ce2 cb3b cbd9 24bc
00000010: fb0a 0e3c cf47 b23b 3c3c bebb 9db7 55bb
00000020: 2929 0a3c 9a4b 7c3b db2d 74ba f84d 543b
00000030: cb35 5db8 23cc 9fbc 3b39 d33b 5b9d 88bb
00000040: 46b5 183a e22f e53a 84db 303c d085 93bc
00000050: 053c 3dbb 55d1 92bc a2e2 aabb b71e 5a3c
00000060: d804 183b e5b7 92bb e4c4 93bb 2ff9 ffbb
00000070: f768 db3b 82ed 93bb 6a77 d63b 3ace d4bb
00000080: 97ec 87ba 4b26 45bc 4f91 0a3c 05e5 1839
00000090: 8db7 a03a 853f 3739 e0c4 91bc c3b3 873b
000000a0: f3fd 943c 7d17 b63a cbd3 0e3b 476b 3d3c
000000b0: aff0 e5bb 5762 903c 487a 013c 5dd7 beba
000000c0: 526d 06bb 5151 ad3a 1a70 c4b8 3864 7dba
000000d0: faea eab9 aff2 fa3b 0d60 a6bb 0cd1 b6bb
000000e0: 4d1d 73bb 6db2 f83a 20b9 9a3b 94cf 353c
000000f0: ffb4 7e3b abb7 d0bb 8fe7 10bc 852e dab9
00000100: 0bda fd3a c3f1 fe3a ac14 8b3b ea2f 313c
00000110: 650b 1b3c 93c4 c4bb 1afe f5bb b8b7 8cbb
00000120: 20ba 39bc e86b 573b 2055 d839 0bf9 83bc
00000130: fce2 bd3b dfbe db3b 35be 493c 5bf7 bfbc
00000140: 444c 2e3c 9b3f bdba 151d 4fbb db40 5bbc
00000150: cb3a 7ebb af0a 743b 3252 c6ba 8646 173c
00000160: acf6 233b 5c82 2bbc d395 443c 1047 d639
00000170: ffb5 13b9 6573 843c 1d5b e939 aba1 363b
00000180: 31b5 1c3a 40fb 803a 5ade 7d3c 3f22 663c
00000190: 3400 333c 87f4 5d3b 4b0e a7ba 6db6 5dbc
000001a0: 4de9 9fbc 90ab 2abb 0d31 6fbc dd27 843b
000001b0: f2bc 52bb 01f5 17bb 52f6 453c 970b f6bb
000001c0: 6d13 f53b 95e8 6fbc f8b5 59bc f7bf d63a
000001d0: 0f14 083c 4b6e b9ba f364 2fbc a36f 1f3c
000001e0: 71c7 02bc 8fdc 9a3a faa2 563c a52c d9bb
000001f0: 3d0d 5dbb 3a43 85bc 22db 673b bb42 993c

network_body._body_endoder.seq_layers.0.bias f4 [128]
0.0 0.0 0.0 0.0 0.0 0.0 0.0 0.0
0.0 0.0 0.0 0.0 0.0 0.0 0.0 0.0
0.0 0.0 0.0 0.0 0.0 0.0 0.0 0.0
0.0 0.0 0.0 0.0 0.0 0.0 0.0 0.0
0.0 0.0 0.0 0.0 0.0 0.0 0.0 0.0
0.0 0.0 0.0 0.0 0.0 0.0 0.0 0.0
0.0 0.0 0.0 0.0 0.0 0.0 0.0 0.0
0.0 0.0 0.0 0.0 0.0 0.0 0.0 0.0
0.0 0.0 0.0 0.0 0.0 0.0 0.0 0.0
0.0 0.0 0.0 0.0 0.0 0.0 0.0 0.0
0.0 0.0 0.0 0.0 0.0 0.0 0.0 0.0
0.0 0.0 0.0 0.0 0.0 0.0 0.0 0.0
0.0 0.0 0.0 0.0 0.0 0.0 0.0 0.0
0.0 0.0 0.0 0.0 0.0 0.0 0.0 0.0
0.0 0.0 0.0 0.0 0.0 0.0 0.0 0.0
0.0 0.0 0.0 0.0 0.0 0.0 0.0 0.0
00000000: 0000 0000 0000 0000 0000 0000 0000 0000
00000010: 0000 0000 0000 0000 0000 0000 0000 0000
00000020: 0000 0000 0000 0000 0000 0000 0000 0000
00000030: 0000 0000 0000 0000 0000 0000 0000 0000
00000040: 0000 0000 0000 0000 0000 0000 0000 0000
00000050: 0000 0000 0000 0000 0000 0000 0000 0000
00000060: 0000 0000 0000 0000 0000 0000 0000 0000
00000070: 0000 0000 0000 0000 0000 0000 0000 0000
00000080: 0000 0000 0000 0000 0000 0000 0000 0000
00000090: 0000 0000 0000 0000 0000 0000 0000 0000
000000a0: 0000 0000 0000 0000 0000 0000 0000 0000
000000b0: 0000 0000 0000 0000 0000 0000 0000 0000
000000c0: 0000 0000 0000 0000 0000 0000 0000 0000
000000d0: 0000 0000 0000 0000 0000 0000 0000 0000
000000e0: 0000 0000 0000 0000 0000 0000 0000 0000
000000f0: 0000 0000 0000 0000 0000 0000 0000 0000
00000100: 0000 0000 0000 0000 0000 0000 0000 0000
00000110: 0000 0000 0000 0000 0000 0000 0000 0000
00000120: 0000 0000 0000 0000 0000 0000 0000 0000
00000130: 0000 0000 0000 0000 0000 0000 0000 0000
00000140: 0000 0000 0000 0000 0000 0000 0000 0000
00000150: 0000 0000 0000 0000 0000 0000 0000 0000
00000160: 0000 0000 0000 0000 0000 0000 0000 0000
00000170: 0000 0000 0000 0000 0000 0000 0000 0000
00000180: 0000 0000 0000 0000 0000 0000 0000 0000
00000190: 0000 0000 0000 0000 0000 0000 0000 0000
000001a0: 0000 0000 0000 0000 0000 0000 0000 0000
000001b0: 0000 0000 0000 0000 0000 0000 0000 0000
000001c0: 0000 0000 0000 0000 0000 0000 0000 0000
000001d0: 0000 0000 0000 0000 0000 0000 0000 0000
000001e0: 0000 0000 0000 0000 0000 0000 0000 0000
000001f0: 0000 0000 0000 0000 0000 0000 0000 0000

network_body._body_endoder.seq_layers.0.weight f4 [128, 76]
0.052537832 0.01365676 -0.1015211 -0.08514005 0.20544063 0.14930359 0.10919923 0.09279504
-0.1805779 -0.009704584 0.12368151 0.037573997 0.030528575 -0.12222994 0.15701655 0.08693366
0.08867823 0.10236024 -0.12361158 0.06696992 0.02128444 -0.009728885 -0.24618232 0.03553288
-0.17530958 0.03245301 0.09316411 0.10558807 0.070830286 -0.030416712 -0.0067602084 0.13743982
-0.01594583 0.1464858 0.012630802 0.050405692 0.039208803 -0.02700709 -0.05707468 0.21417567
0.026839126 -0.05358594 0.027486749 -0.017013991 0.15791288 -0.13460834 -0.086684674 0.3414755
0.07750578 -0.040135764 -0.04211017 0.009111947 -0.10460628 -0.07750455 -0.02668841 -0.124372736
-0.024730142 0.15412173 0.25868338 -0.14711817 -0.07480123 -0.08312648 0.019035794 0.06646925
0.019376848 -0.22858793 -0.014322919 0.053985003 0.014011636 0.0767121 0.14355184 -0.07063199
-0.046978403 -0.09762088 0.056822695 0.0033186509 0.11760854 0.11354855 -0.1412296 -0.20667204
0.15064646 -0.0658213 -0.11339882 0.045424417 0.122369215 -0.037665285 -0.047143843 -0.07628832
0.023643034 -0.0024695501 -0.051265374 -0.083126605 -0.1296635 0.07021969 0.16239674 -0.2705112
-0.15905651 0.06721079 -0.016197741 0.1426196 -0.02700777 0.1996964 0.07396813 0.05047769
0.093799 0.064843215 0.109029755 -0.12150683 0.023984727 0.09408557 0.10000482 0.22616823
0.06850925 -0.06648894 0.15887554 0.20488411 -0.13788162 0.11558163 0.019269116 0.12503417
0.02335809 0.038571473 0.062884286 0.041361038 -0.09641269 -0.15897371 -0.089043215 -0.03622617
-0.051049206 0.036723185 0.16501583 0.003947767 -0.069055796 -0.23720036 -0.09738695 0.17378949
-0.10867072 -0.00789768 -0.07621345 0.16654743 0.13429365 -0.108234465 -0.2782464 -0.009538088
0.0031352723 0.022772841 -0.16900122 -0.081039 0.15247288 -0.1578706 -0.042973593 0.16936739
0.05128295 -0.053014655 0.1976106 0.21430467 0.09777312 0.06775234 -0.18428384 0.19997068
-0.04042525 0.081136785 0.17208818 0.051655427 -0.22775689 -0.05242525 -0.01107187 0.011162001
-0.029062046 0.02196689 -0.13573967 0.1515592 -0.044283617 -0.01622151 0.0019552456 0.12504578
-0.23849896 0.10405876 -0.06489502 -0.18283074 0.16308999 -0.10824042 0.13775668 0.015909603
0.21800625 -0.036848385 0.04961362 0.1286848 -0.32370594 0.10033564 -0.052951768 -0.0040902924
-0.026623406 0.14950718 -0.1002497 -0.031131342 0.170397 0.27352905 -0.05952779 0.32261908
0.18268935 -0.2587466 0.3401311 0.031614717 -0.09201206 -0.18695453 -0.16197374 0.05563565
0.044136047 -0.02542652 0.007344006 0.04509878 -0.1326918 -0.044326466 0.030613143 0.077323206
0.035296652 0.050430078 -0.10704917 -0.14892232 -0.09373705 0.091677435 0.12114031 -0.1809942
0.085146084 0.043923892 -0.033775587 -0.070220254 0.12761056 -0.17960599 0.06930255 -0.07189138
-0.05161691 -0.057537217 -0.15014215 0.15278704 -0.034014415 0.05844721 0.05706934 0.14552653
-0.11194296 -0.21435468 0.052190505 -0.16930696 -0.06785433 0.0025764725 -0.07202822 -0.2883793
-0.13526028 -0.10275807 0.07564608 0.06346154 0.079476096 -0.06292074 -0.09501114 -0.10881502
00000000: e931 573d 9ac0 5f3c 4bea cfbd e85d aebd
00000010: 075f 523e 0ae3 183e d9a3 df3d 530b be3d
00000020: 6ae9 38be faff 1ebc bb4c fd3d 31e7 193d
00000030: 1017 fa3c b153 fabd f2c8 203e 460a b23d
00000040: ef9c b53d 3fa2 d13d 1128 fdbd 8727 893d
00000050: b55c ae3c e765 1fbc 3817 7cbe ed8a 113d
00000060: 5b84 33be 73ed 043d d3cc be3d 8f3e d83d
00000070: 780f 913d 782c f9bc bd84 ddbb 06bd 0c3e
00000080: d4a0 82bc 6000 163e 6cf1 4e3c 3376 4e3d
00000090: 6999 203d f93d ddbc 24c7 69bd de50 5b3e
000000a0: badd db3c ee7c 5bbd e42b e13c ed60 8bbc
000000b0: eab3 213e c5d6 09be bc87 b1bd e0d5 ae3e
000000c0: 5abb 9e3d 6665 24bd b77b 2cbd 474a 153c
000000d0: d13b d6bd b5ba 9ebd a7a1 dabc 22b7 febd
000000e0: de96 cabc 16d2 1d3e 2672 843e 25a6 16be
000000f0: 6331 99bd 373e aabd f4f0 9b3c 0821 883d
00000100: 32bc 9e3c f412 6abe adaa 6abc 611f 5d3d
00000110: 1091 653c 3c1b 9d3d 41ff 123e 81a7 90bd
00000120: 6d6c 40bd 75ed c7bd eabe 683d b97d 593b
00000130: bfdc f03d 248c e83d 7e9e 10be d6a1 53be
00000140: 1143 1a3e 51cd 86bd a43d e8bd f40e 3a3d
00000150: b69c fa3d ea46 1abd e719 41bd 0d3d 9cbd
00000160: 09af c13c 2dd8 21bb a4fb 51bd 483e aabd
00000170: 82c6 04be 57cf 8f3d 554b 263e 7280 8abe
00000180: b6df 22be d0a5 893d 20b1 84bc df0a 123e
00000190: 663f ddbc 377d 4c3e 9a7c 973d b2c1 4e3d
000001a0: b119 c03d 85cc 843d fe4a df3d 93d8 f8bd
000001b0: 9e7b c43c efaf c03d 54cf cc3d a598 673e
000001c0: 944e 8c3d 5a2b 88bd 45b0 223e 24cd 513e
000001d0: d730 0dbe 10b6 ec3d 44da 9d3c f508 003e
000001e0: 7759 bf3c 1ffd 1d3d 7ac9 803d 316a 293d
000001f0: 0474 c5bd 01ca 22be 4a5c b6bd e461 14bd
00000200: f918 51bd 0d6b 163d e9f9 283e 455c 813b
00000210: 206d 8dbd a7e4 72be cf72 c7bd dff5 313e
00000220: c18e debd 4565 01bc cc15 9cbd 698b 2a3e
00000230: 4684 093e 08aa ddbd 5076 8ebe a445 1cbc
00000240: 2479 4d3b 1c8e ba3c a80e 2dbe c6f7 a5bd
00000250: da21 1c3e d5a8 21be 1405 30bd a56e 2d3e
00000260: 120e 523d e525 59bd 6f5a 4a3e af72 5b3e
00000270: 463d c83d bdc1 8a3d e7b4 3cbe 1dc5 4c3e
00000280: f294 25bd 0b2b a63d e237 303e a494 533d
00000290: 1a39 69be dcbb 56bd ca66 35bc d3e0 363c
000002a0: 8713 eebc e8f3 b33c 57ff 0abe 5632 1b3e
000002b0: bd62 35bd f9e2 84bc 9423 003b 000c 003e
000002c0: 1239 74be c21c d53d aee7 84bd fb37 3bbe
000002d0: 1001 273e 27ad ddbd 1610 0d3e db54 823c
000002e0: 083d 5f3e 55ee 16bd a737 4b3d f3c5 033e
000002f0: c9bc a5be c67c cd3d f4e3 58bd dc07 86bb
00000300: 5419 dabc 6918 193e b74f cdbd 2807 ffbc
00000310: 8d7c 2e3e 000c 8c3e 69d3 73bd 542e a53e
00000320: eb12 3b3e 6f7a 84be aa25 ae3e 6f7e 013d
00000330: d270 bcbd 0271 3fbe 72dc 25be 35e2 633d
00000340: 00c8 343d 474b d0bc fda5 f03b 80b9 383d
00000350: 5ce0 07be ab8f 35bd 6ac8 fa3c a15b 9e3d
00000360: 3993 103d c58f 4e3d 983c dbbd 187f 18be
00000370: 36f9 bfbd 61c1 bb3d 6918 f83d 8b56 39be
00000380: 1261 ae3d 8ae9 333d 4558 0abd a3cf 8fbd
00000390: 58ac 023e a2ea 37be 7fee 8d3d ca3b 93bd
000003a0: 416c 53bd 25ac 6bbd ddbe 19be 3574 1c3e
000003b0: b352 0bbd 5766 6f3d 8ac1 693d e804 153e
000003c0: 5a42 e5bd cb7f 5bbe b6c5 553d ce5e 2dbe
000003d0: 36f7 8abd 09da 283b 8883 93bd 74a6 93be
000003e0: ac81 0abe d372 d2bd 55ec 9a3d 20f8 813d
000003f0: 5dc4 a23d 97dc 80bd 3395 c2bd 69da debd

network_body._body_endoder.seq_layers.2.bias f4 [128]
0.0 0.0 0.0 0.0 0.0 0.0 0.0 0.0
0.0 0.0 0.0 0.0 0.0 0.0 0.0 0.0
0.0 0.0 0.0 0.0 0.0 0.0 0.0 0.0
0.0 0.0 0.0 0.0 0.0 0.0 0.0 0.0
0.0 0.0 0.0 0.0 0.0 0.0 0.0 0.0
0.0 0.0 0.0 0.0 0.0 0.0 0.0 0.0
0.0 0.0 0.0 0.0 0.0 0.0 0.0 0.0
0.0 0.0 0.0 0.0 0.0 0.0 0.0 0.0
0.0 0.0 0.0 0.0 0.0 0.0 0.0 0.0
0.0 0.0 0.0 0.0 0.0 0.0 0.0 0.0
0.0 0.0 0.0 0.0 0.0 0.0 0.0 0.0
0.0 0.0 0.0 0.0 0.0 0.0 0.0 0.0
0.0 0.0 0.0 0.0 0.0 0.0 0.0 0.0
0.0 0.0 0.0 0.0 0.0 0.0 0.0 0.0
0.0 0.0 0.0 0.0 0.0 0.0 0.0 0.0
0.0 0.0 0.0 0.0 0.0 0.0 0.0 0.0
00000000: 0000 0000 0000 0000 0000 0000 0000 0000
00000010: 0000 0000 0000 0000 0000 0000 0000 0000
00000020: 0000 0000 0000 0000 0000 0000 0000 0000
00000030: 0000 0000 0000 0000 0000 0000 0000 0000
00000040: 0000 0000 0000 0000 0000 0000 0000 0000
00000050: 0000 0000 0000 0000 0000 0000 0000 0000
00000060: 0000 0000 0000 0000 0000 0000 0000 0000
00000070: 0000 0000 0000 0000 0000 0000 0000 0000
00000080: 0000 0000 0000 0000 0000 0000 0000 0000
00000090: 0000 0000 0000 0000 0000 0000 0000 0000
000000a0: 0000 0000 0000 0000 0000 0000 0000 0000
000000b0: 0000 0000 0000 0000 0000 0000 0000 0000
000000c0: 0000 0000 0000 0000 0000 0000 0000 0000
000000d0: 0000 0000 0000 0000 0000 0000 0000 0000
000000e0: 0000 0000 0000 0000 0000 0000 0000 0000
000000f0: 0000 0000 0000 0000 0000 0000 0000 0000
00000100: 0000 0000 0000 0000 0000 0000 0000 0000
00000110: 0000 0000 0000 0000 0000 0000 0000 0000
00000120: 0000 0000 0000 0000 0000 0000 0000 0000
00000130: 0000 0000 0000 0000 0000 0000 0000 0000
00000140: 0000 0000 0000 0000 0000 0000 0000 0000
00000150: 0000 0000 0000 0000 0000 0000 0000 0000
00000160: 0000 0000 0000 0000 0000 0000 0000 0000
00000170: 0000 0000 0000 0000 0000 0000 0000 0000
00000180: 0000 0000 0000 0000 0000 0000 0000 0000
00000190: 0000 0000 0000 0000 0000 0000 0000 0000
000001a0: 0000 0000 0000 0000 0000 0000 0000 0000
000001b0: 0000 0000 0000 0000 0000 0000 0000 0000
000001c0: 0000 0000 0000 0000 0000 0000 0000 0000
000001d0: 0000 0000 0000 0000 0000 0000 0000 0000
000001e0: 0000 0000 0000 0000 0000 0000 0000 0000
000001f0: 0000 0000 0000 0000 0000 0000 0000 0000

network_body._body_endoder.seq_layers.2.weight f4 [128, 128]
0.07956856 0.019571692 -0.082452275 -0.052773032 -0.028497871 0.062421016 -0.15555884 0.0949186
0.072555095 0.06560608 -0.088693775 0.04220304 -0.046909817 -0.04458061 0.089812554 0.054910574
0.00038020444 -0.14276919 -0.11262176 -0.024439385 -0.08485272 0.08438485 0.04847759 -0.070007235
-0.11457691 0.100557804 -0.0071027456 0.030929225 0.05220211 -0.00020781407 0.09897038 -0.11834932
0.0762216 -0.017165838 0.11008731 0.025669359 -0.019241001 -0.1081086 0.068590865 -0.112171024
-0.08108577 -0.13787974 -0.03809966 -0.1822614 -0.09828169 0.061086215 -0.1853043 0.014990493
0.038361628 -0.0031695433 -0.02674415 0.054986153 -0.014085631 -0.11634267 0.06540841 -0.0142637035
0.1226788 -0.08103569 0.120616294 -0.07637443 0.01653456 0.10219383 -0.032784406 -0.0828826
-0.0051769717 -0.25178257 0.037297573 0.15490474 -0.018195573 0.15126821 0.059164897 0.083214305
0.023797054 -0.023989351 -0.022701172 0.14516033 0.033866633 0.050731435 0.06426918 0.007897441
-0.047897458 0.027552092 0.0243219 0.17462568 -0.078403376 -0.050427534 -0.17762144 -0.043733776
0.11543898 0.09038309 0.021507988 0.1658408 0.14096901 -0.025401913 0.006000007 -0.025738198
0.13810134 -0.03354786 0.007886817 -0.028813746 0.093274914 -0.09741749 0.04836231 -0.005623546
-0.029663187 0.012691481 -0.06700705 0.025800638 0.018018046 0.20186146 0.10849918 -0.0998168
0.070564695 0.025995173 -0.052199457 0.022839937 -0.008677799 0.22183898 -0.04938513 0.11079478
0.0836845 -0.012005318 0.015698982 0.03359259 0.053511523 -0.024714598 0.03879065 0.0755121
0.010369782 0.028332183 0.033889845 0.08822765 -0.048570618 0.14046761 0.010566352 0.15585724
0.08492251 -0.03318414 0.027962942 -0.00014765118 -0.08469281 0.0021811193 0.09878873 -0.011649396
-0.065159984 0.026175598 -0.06512512 0.05081213 -0.07805354 -0.047756582 0.0048217527 0.06858125
-0.11347414 0.084820636 -0.006327775 -0.0051811324 -0.17513512 0.06595077 0.06443342 -0.11513648
0.10809145 -0.09875421 -0.07437841 0.025152009 -0.03128982 0.19872624 0.18996726 -0.21589206
-0.041194953 0.091361806 -0.06310972 -0.028186671 0.004432941 -0.16143267 -0.020568583 -0.032832764
-0.13507736 0.054889005 -0.27546653 -0.14620668 0.011359524 0.16293359 0.052473843 -0.054709118
0.0453237 0.043426067 -0.024749437 0.13100453 0.11106562 0.036432426 -0.070156574 -0.01956993
-0.014482056 -0.1822548 -0.012032314 -0.0359869 -0.032181557 -0.0895085 0.04887754 0.07442123
0.055303007 -0.024691038 0.15799032 0.15805116 0.1260043 0.069992796 -0.08356071 0.0022720469
0.0020604078 0.049553607 0.043218195 -0.007875633 -0.11091992 -0.00497253 0.07189827 -0.005801904
0.12947373 -0.08654861 -0.11790593 -0.03448523 0.11763333 0.12797584 0.0068093394 -0.06069435
-0.027953144 -0.041440178 -0.0863008 0.056806803 0.10542094 0.065826826 -0.01726366 -0.021446226
-0.086044714 0.03553635 -0.04324587 0.014487797 0.14118594 0.015978979 -0.19832228 -0.10085695
0.014475222 0.110657424 -0.050543223 0.0742177 -0.025048528 -0.007024513 -0.12553848 0.044942666
-0.035644796 -0.050743066 -0.13834788 0.09894211 0.02803409 -0.10005266 -0.13637576 0.04873122
00000000: d7f4 a23d d054 a03c bddc a8bd 8928 58bd
00000010: 5e74 e9bc 2ead 7f3d d14a 1fbe af64 c23d
00000020: c497 943d 7b5c 863d 15a5 b5bd 18dd 2c3d
00000030: 8224 40bd 289a 36bd a5ef b73d e9e9 603d
00000040: 2d56 c739 1632 12be 3da6 e6bd 1b35 c8bc
00000050: 43c7 adbd f7d1 ac3d 7090 463d f45f 8fbd
00000060: 4da7 eabd 40f1 cd3d 26be e8bb 495f fd3c
00000070: e1d1 553d aae8 59b9 fcb0 ca3d 2161 f2bd
00000080: 121a 9c3d 5f9f 8cbc 7575 e13d 8c48 d23c
00000090: 4e9f 9dbc 0b68 ddbd 5e79 8c3d ecb9 e5bd
000000a0: 4c10 a6bd 5930 0dbe 640e 1cbd bca2 3abe
000000b0: e947 c9bd 8a35 7a3d 69c0 3dbe af9a 753c
000000c0: 1521 1d3d 1db8 4fbb 8c16 dbbc 2939 613d
000000d0: 6bc7 66bc 1145 eebd d8f4 853d 4fb2 69bc
000000e0: 063f fb3d 0af6 a5bd ad05 f73d 326a 9cbd
000000f0: 7c73 873c 004b d13d f148 06bd 5abe a9bd
00000100: 96a3 a9bb a5e9 80be 57c5 183d 599f 1e3e
00000110: e20e 95bc 0ee6 1a3e e456 723d 436c aa3d
00000120: 0af2 c23c 5185 c4bc cff7 b9bc e9a4 143e
00000130: bdb7 0a3d c4cb 4f3d 8f9f 833d 4564 013c
00000140: 2030 44bd edb4 e13c b93e c73c 13d1 323e
00000150: f391 a0bd 1a8d 4ebd 65e2 35be 3022 33bd
00000160: 466b ec3d c51a b93d 8531 b03c 2cd2 293e
00000170: 2e5a 103e ac17 d0bc b59b c43b ead8 d2bc
00000180: 706a 0d3e 7b69 09bd b537 013c ce0a ecbc
00000190: eb06 bf3d d282 c7bd 8f17 463d b945 b8bb
000001a0: 3600 f3bc eeef 4f3c fe3a 89bd dc5b d33c
000001b0: 959a 933c c5b4 4e3e d134 de3d c06c ccbd
000001c0: 3984 903d d4f3 d43c 19cf 55bd d21a bb3c
000001d0: 542d 0ebc c229 633e 1048 4abd 60e8 e23d
000001e0: c762 ab3d f4b1 44bc 279b 803c 6298 093d
000001f0: e62e 5b3d 4576 cabc f2e2 1e3d 16a6 9a3d
00000200: 05e6 293c e518 e83c 14d0 0a3d b3b0 b43d
00000210: fcf1 46bd bed6 0f3e 7e1e 2d3c 0a99 1f3e
00000220: daeb ad3d 18ec 07bd 8a12 e53c d0d2 1ab9
00000230: 6d73 adbd 1cf1 0e3b bf51 ca3d 1cdd 3ebc
00000240: 9972 85bd 356e d63c 5260 85bd 6120 503d
00000250: 89da 9fbd 689c 43bd cbff 9d3b 5474 8c3d
00000260: 2165 e8bd 71b6 ad3d 3959 cfbb 7dc6 a9bb
00000270: 9f56 33be 3311 873d abf5 833d adcc ebbd
00000280: 0d5f dd3d a63f cabd b553 98bd 960b ce3c
00000290: c129 00bd e47e 4b3e c786 423e cf12 5dbe
000002a0: 0abc 28bd e61b bb3d ab3f 81bd bce7 e6bc
000002b0: 3442 913b 9b4e 25be 727f a8bc a67b 06bd
000002c0: b851 0abe 4bd3 603d f309 8dbe 34b7 15be
000002d0: 4c1d 3a3c 10d8 263e d0ee 563d ab16 60bd
000002e0: 58a5 393d 88df 313d 55bf cabc 0d26 063e
000002f0: 5f76 e33d 2b3a 153d 40ae 8fbd 1e51 a0bc
00000300: 2546 6dbc 01a1 3abe 2f23 45bc 0067 13bd
00000310: cfd0 03bd 3c50 b7bd d133 483d 286a 983d
00000320: 6885 623d dc44 cabc 37c8 213e 2ad8 213e
00000330: 4507 013e 6258 8f3d e121 abbd 9fe6 143b
00000340: e807 073b b9f8 4a3d 9005 313d cd08 01bc
00000350: fc29 e3bd 9bf0 a2bb 663f 933d e61d bebb
00000360: c394 043e 6640 b1bd aa78 f1bd 6240 0dbd
00000370: bee9 f03d 190c 033e e120 df3b a49a 78bd
00000380: fefd e4bc 2dbd 29bd 79be b0bd 40ae 683d
00000390: efe6 d73d 37d0 863d 856c 8dbc ffaf afbc
000003a0: 3638 b0bd 908e 113d 9522 31bd 3a5e 6d3c
000003b0: 0c93 103e 59e6 823c ff14 4bbe 178e cebd
000003c0: 7b29 6d3c 5ca0 e23d 6906 4fbd 73ff 973d
000003d0: 9232 cdbc e32d e6bb 298d 00be cd15 383d
000003e0: 4700 12bd f6d7 4fbd 11ab 0dbe 29a2 ca3d
000003f0: bfa7 e53c 69e8 ccbd 16a6 0bbe 639a 473d
