results/ProximityRewardTest/AgentSphereBehavior/AgentSphereBehavior-2083.onnx (onnx, 110256 bytes, 8 tensors)

action_model._continuous_distribution.log_sigma f4 [1, 2]
0	0x3934741e	0.00017209395
1	0xbb81f72f	-0.003966234

action_model._continuous_distribution.mu.bias f4 [2]
0	0xbbc9c0dc	-0.006157024
1	0x3ab8beb0	0.0014094915

action_model._continuous_distribution.mu.weight f4 [2, 128]
0	0xbc72f7ca	-0.014829585
1	0x3b1065e8	0.0022033397
2	0xbbdd3ae3	-0.0067514046
3	0xbaf37bec	-0.001857636
4	0xbd43112c	-0.0476238
5	0xbc4cf7b0	-0.012510225
6	0xbc5cdc3d	-0.013480243
7	0x3cee7842	0.029110078
8	0xbc4626ce	-0.012094213
9	0xbb0a7259	-0.0021125285
10	0x3bab7f6e	0.0052336967
11	0xbc69753c	-0.014249142
12	0x3c1a4199	0.009415054
13	0x3d0935ed	0.033498693
14	0xbbef1ea5	-0.0072973543
15	0x3c9c628a	0.019089956
16	0x3b40fa0d	0.0029445917
17	0xbd00a4fa	-0.031407334
18	0x3c4fbde7	0.012679554
19	0xbc83777f	-0.016048191
20	0xba2e47aa	-0.0006648252
21	0x3b2099da	0.0024505765
22	0x3c9975ce	0.018732931
23	0xbc9bca55	-0.019017378
24	0x3c845db1	0.016157957
25	0xba3da14e	-0.0007233814
26	0x3c92c587	0.017916454
27	0x3b95e20b	0.0045740656
28	0xbc45b6fc	-0.012067553
29	0xbcc6d053	-0.024269259
30	0xbd1bdde8	-0.038053423
31	0x3cb2ce6b	0.021826943
32	0x3c820340	0.01587069
33	0x3ca0ac44	0.019613393
34	0xbcecdfca	-0.028915305
35	0x3be61e6b	0.007022669
36	0xbbcb721d	-0.0062086717
37	0xbc56d235	-0.013111641
38	0x3c107de1	0.008819074
39	0x3c71c9cc	0.014757585
40	0x3ccf4f8a	0.025306482
41	0x3cc25564	0.023722358
42	0xbbd16a55	-0.0063908496
43	0xbb974fd3	-0.00461767
44	0x3c25db46	0.01012308
45	0x3c41e71b	0.011834885
46	0x3ca8ca59	0.0206043
47	0xbbec61fe	-0.00721383
48	0xbce50ac0	-0.027959228
49	0x3c2ac93e	0.010423956
50	0xbc2626a6	-0.01014105
51	0x3ba251c0	0.004953593
52	0x3d2f84fa	0.042851426
53	0x3bcf8aa3	0.0063336655
54	0x3c2d5a34	0.010580588
55	0x3c7d868b	0.015473972
56	0xbc1c1c13	-0.009528178
57	0x3ca337a7	0.019923998
58	0xbcb95453	-0.022623217
59	0x3bf1183d	0.0073576258
60	0xbc9ca929	-0.01912363
61	0x3c99cc38	0.018774137
62	0xbb8dbbfc	-0.004325388
63	0xbc014e41	-0.007892192
64	0xbb51ad23	-0.0031994067
65	0x3c5ca2f3	0.0134665845
66	0x39fa3a88	0.00047727325
67	0xbcab4a0c	-0.020909332
68	0x3ae11030	0.0017170962
69	0x3bfadbb7	0.0076555866
70	0x3bd255df	0.006418928
71	0xbd10fa4b	-0.035394948
72	0xbc77e09a	-0.015129233
73	0xba078a92	-0.000517049
74	0x3ccf20f3	0.025284266
75	0xbc50e93b	-0.012750919
76	0x3a79649f	0.000951359
77	0xbc169359	-0.009190404
78	0x3b9345a0	0.004494384
79	0xbc17816d	-0.009247166
80	0xbc3eff22	-0.011657508
81	0x3c8a52df	0.01688522
82	0x3c4ecd55	0.012622197
83	0xbcd4a50b	-0.025957605
84	0xbc48c03a	-0.012252862
85	0x3cdc9d06	0.026930343
86	0x3d00c47f	0.031437393
87	0xbc79b5eb	-0.0152411265
88	0xbc94a48a	-0.018144865
89	0x3cbd3a37	0.023099048
90	0xbced7474	-0.028986193
91	0xbc8975d0	-0.01677981
92	0x3b9d5985	0.0048019313
93	0x3c4033cc	0.011731099
94	0x3b49e28f	0.0030805205
95	0xbc541e6d	-0.012946707
96	0xbbd4a72d	-0.0064896555
97	0x3bf813d4	0.007570723
98	0x3c14ff74	0.009094108
99	0x3c9127f3	0.017719245
100	0x398bfd7f	0.00026701015
101	0x3cac90f0	0.021065205
102	0xbc2773f2	-0.010220515
103	0x3c6e3154	0.014538128
104	0x3bda8565	0.006668734
105	0x3cba549b	0.022745421
106	0x3be841d9	0.007087928
107	0x3c99439c	0.018708996
108	0xbc078961	-0.0082725
109	0xbcad3360	-0.021142662
110	0xbca31f03	-0.019912248
111	0xbca9db4b	-0.02073445
112	0xbb8eb759	-0.004355353
113	0xbc263ef0	-0.010146841
114	0x3c4563ef	0.012047752
115	0xbc81ae06	-0.015830051
116	0xbc6753f9	-0.014119142
117	0x3c1840b4	0.00929277
118	0x3af4c4ed	0.0018674411
119	0x3b575091	0.0032854418
120	0x3c4f45c4	0.012650911
121	0x3ce65870	0.028118342
122	0xbc8a5d31	-0.01689014
123	0x3bcf06ba	0.0063179405
124	0x3ca1c19b	0.019745639
125	0x3c9cf01e	0.019157466
126	0xbb92623a	-0.004467276
127	0x3c7c563e	0.015401421
128	0x3c431492	0.01190676
129	0x3d139581	0.03603125
130	0xbc996c62	-0.018728439
131	0xbc82ed56	-0.015982311
132	0xba824bd4	-0.0009940811
133	0x3c483789	0.012220272
134	0xbb7b43d8	-0.0038339999
135	0xbc83146e	-0.016000953
136	0x3ac906a5	0.0015337063
137	0x3cbe6f50	0.023246437
138	0xbbb7dd00	-0.005611062
139	0xbbbeb639	-0.0058200625
140	0x3cd97272	0.02654383
141	0x3b897aa2	0.004195527
142	0x3bc6fea9	0.0060728383
143	0xbc14d45d	-0.0090838345
144	0xbc932d41	-0.017965915
145	0x3c2ef9ff	0.010679721
146	0xbbe0d279	-0.006861028
147	0x3bce9b4e	0.006305135
148	0xbc8adec8	-0.016951934
149	0x3cae3738	0.021266565
150	0x3bf12dd9	0.007360202
151	0xba71e1ab	-0.00092270476
152	0xbc731e33	-0.014838743
153	0xbaff851b	-0.0019494625
154	0x3d01b7e9	0.03166953
155	0x3b89e480	0.0042081475
156	0xb95ce56f	-0.00021066306
157	0x3cb43c87	0.022001518
158	0xbcca3696	-0.024684232
159	0x3ba6db02	0.0050920257
160	0xbc433aa8	-0.01191584
161	0xbc2695d7	-0.010167561
162	0xbceea77d	-0.029132599
163	0x3c5d2f1c	0.013500001
164	0x3c94320c	0.01809027
165	0xbd6189d0	-0.05506307
166	0x3c0cf534	0.008603383
167	0x3bda0cef	0.006654374
168	0xbd0de5f0	-0.034643114
169	0x3a64f5ec	0.0008734155
170	0xbcd91273	-0.026498055
171	0xbb260b3f	-0.0025336293
172	0xbcc17718	-0.023616359
173	0xbbc573b7	-0.006025757
174	0xbd177f40	-0.03698659
175	0xbd0e4a4d	-0.034738827
176	0x3b1b0d67	0.0023659111
177	0xbd5ec5c6	-0.05438783
178	0xbc4363ab	-0.011925618
179	0x3b310658	0.0027011838
180	0xbca56ab8	-0.020192489
181	0xbba659d8	-0.005076628
182	0x3c7b545a	0.015339935
183	0x3cc65369	0.024209695
184	0x3c6169e4	0.013758156
185	0x3d0db489	0.034596
186	0xbbfd269f	-0.0077255513
187	0xbc4e6f87	-0.012599832
188	0x3cd93642	0.02651513
189	0x3c283a68	0.010267831
190	0xbc98c7ce	-0.018649962
191	0xbbe3ce7b	-0.0069521046
192	0xbc64317d	-0.013927815
193	0x3c926b40	0.017873406
194	0xbbb408cc	-0.0054942127
195	0xbc13c832	-0.009019898
196	0x3b883292	0.004156419
197	0xbc2ca32e	-0.010536952
198	0x3ccc144c	0.024912022
199	0xbc3ad3f5	-0.011403074
200	0x3c19ff9e	0.009399323
201	0x3cbbc432	0.022920702
202	0x3c1025e8	0.0087981
203	0xbc6679f1	-0.014067159
204	0x3cf09fa9	0.029373007
205	0x3ce3fee2	0.027831499
206	0x3cdaf8e0	0.026730001
207	0xbb9e1fe4	-0.004825579
208	0xbc2d212b	-0.01056699
209	0xbcd6f42b	-0.026239475
210	0xbc6bd7ec	-0.0143947415
211	0xbb5120db	-0.0031910453
212	0x3b6a6083	0.0035763092
213	0xbb567e92	-0.003272925
214	0xbc73a7c1	-0.014871539
215	0xbc82c542	-0.0159632
216	0x3b89c646	0.0042045442
217	0xbb850548	-0.0040594675
218	0x39ca547a	0.00038591382
219	0x3c2995f5	0.010350694
220	0x39047135	0.00012630674
221	0xbcdd8003	-0.02703858
222	0xbcb6f130	-0.022331804
223	0x3c9f9448	0.019479886
224	0x3c09802d	0.008392376
225	0xbc05ca54	-0.008165915
226	0x3c5bdc1c	0.013419177
227	0xbc82077f	-0.015872715
228	0xbc009ddd	-0.007850138
229	0x3ce683f0	0.028139085
230	0xbc39863d	-0.011323509
231	0xbcb6f121	-0.022331776
232	0xbcc8d86e	-0.024517264
233	0xbd8eb090	-0.069672704
234	0x3cc08b67	0.023503972
235	0xbaade9e7	-0.0013268561
236	0x3c2a4aba	0.010393793
237	0xbbfd8796	-0.0077371104
238	0xbc8dfa67	-0.017331315
239	0xbc543cf4	-0.0129539855
240	0xbab30e4a	-0.0013660875
241	0x3c9d2b01	0.019185545
242	0x3cfefdd4	0.031126894
243	0xbc554013	-0.013015765
244	0x3cfae5a8	0.030627087
245	0x3d35d913	0.04439647
246	0xbc8d367b	-0.017237892
247	0x3c0e75b5	0.008695056
248	0x3a0542d4	0.00050835055
249	0x3b574192	0.003284548
250	0x3c31a5e6	0.010842776
251	0xbcd7aed2	-0.026328478
252	0xbc97ff14	-0.018554248
253	0xbc474665	-0.012162779
254	0xbbb5c253	-0.005546847
255	0x3b602bae	0.0034205723

action_model._discrete_distribution.branches.0.weight f4 [1, 128]
0	0xbc334ab5	-0.0109431045
1	0xbc6aa29b	-0.014320995
2	0xba979182	-0.001156375
3	0x3c66ea8f	0.014094009
4	0xbc1cbca9	-0.009566464
5	0x3c5f0215	0.013611336
6	0xbc2a8432	-0.010407494
7	0xbc11329f	-0.008862167
8	0x3babc6b3	0.0052421927
9	0xbb4ab740	-0.003093198
10	0x3c4157f2	0.011800753
11	0xbc00080b	-0.007814418
12	0xbc458c9f	-0.012057452
13	0xbb30102e	-0.0026865113
14	0x3c12b40b	0.008954058
15	0x3932d277	0.00017053807
16	0x3c683c6a	0.01417456
17	0x3ac20648	0.0014802897
18	0xbc58adf3	-0.0132250665
19	0x3c0b12a7	0.008488334
20	0x3af07053	0.0018344022
21	0x3a2bfdf4	0.0006560974
22	0xbb908467	-0.004410315
23	0x3a4f7c20	0.00079149194
24	0x3c0b5c94	0.008505959
25	0x3bb83099	0.0056210277
26	0xbb9c7187	-0.0047742757
27	0x3b8d0b1f	0.0043043043
28	0xba0fde6a	-0.00054881594
29	0x3b1fdbe0	0.002439253
30	0x3cc67c43	0.024229174
31	0xbc0bcdec	-0.008532982
32	0x3adf5053	0.0017037488
33	0x3bfb804d	0.0076752068
34	0xb964c9bb	-0.00021818925
35	0x3b4bfaf0	0.0031124912
36	0x3a64d105	0.0008728656
37	0xbb53977f	-0.0032286344
38	0x3c5390c7	0.012912936
39	0x3b2eb71b	0.0026659432
40	0x3c09d9b0	0.008413717
41	0x3aec6b33	0.0018037319
42	0xbc237921	-0.00997761
43	0x3be734ed	0.00705587
44	0xbc21ade5	-0.00986812
45	0xbcdda29b	-0.027055075
46	0x3b6dfb63	0.0036313168
47	0xbb58cf6d	-0.003308262
48	0x3aa2dec7	0.0012426012
49	0xbc5f019b	-0.013611223
50	0xbbcae5bf	-0.0061919386
51	0x3b8b9e49	0.0042608124
52	0xbc8824b7	-0.01661907
53	0xbc2b06a7	-0.010438598
54	0x3a5b2caf	0.00083608454
55	0x3baf4534	0.005348826
56	0x3c58957d	0.0132192345
57	0xbbe3d5f3	-0.006952995
58	0x3bc05077	0.005868967
59	0x3bd94575	0.0066305944
60	0x3b0f24eb	0.0021842073
61	0xbbbde2bc	-0.005794851
62	0xbc4baecb	-0.012431811
63	0xbb34c7dd	-0.0027584948
64	0x3ba43c4e	0.0050120717
65	0x3ba09437	0.004900481
66	0xbbb88137	-0.005630638
67	0x39914f84	0.000277158
68	0x3c81ea65	0.015858838
69	0xbb1ea127	-0.002420494
70	0x3c4cae91	0.012492792
71	0xbc32ad43	-0.010905567
72	0xbbb0cf91	-0.0053958376
73	0xbb6d3000	-0.003619194
74	0xbba66593	-0.0050780266
75	0x3aaa5eef	0.0012998263
76	0xbc4c1763	-0.012456748
77	0xbc8c0a65	-0.0170948
78	0xbadfdf9b	-0.001708019
79	0x3c04fe24	0.0081172325
80	0xbc12b1f4	-0.00895356
81	0x38545563	5.062426e-05
82	0xbc27d8cf	-0.010244562
83	0xbbb7bf3a	-0.005607513
84	0xba774e6d	-0.00094339886
85	0x3c46b6c8	0.012128539
86	0xbc44fd76	-0.01202332
87	0xbb9c9afa	-0.004779217
88	0xbb21a82b	-0.0024666886
89	0x3c04f7ea	0.008115748
90	0xbba68deb	-0.005082836
91	0xbc3acdfc	-0.01140165
92	0xbbb55385	-0.005533638
93	0xbb9b1457	-0.0047326493
94	0x3aefc15b	0.0018291877
95	0x3b41292d	0.0029474006
96	0x3ba3efa3	0.005002932
97	0x3bd304ef	0.006439797
98	0x3c5290bf	0.012851893
99	0xbc5be22b	-0.013420622
100	0x3b1135f7	0.002215741
101	0xbb9e3ecf	-0.0048292647
102	0x3b558bd8	0.0032584574
103	0xbc06f537	-0.008237175
104	0x38803c26	6.114719e-05
105	0xbaad5be4	-0.0013226238
106	0xbb19fc39	-0.0023496284
107	0xbc498093	-0.012298721
108	0x3b9b892c	0.004746577
109	0x3b28dd0f	0.0025766527
110	0x38a9cdbf	8.096871e-05
111	0xba98b3dd	-0.0011650283
112	0xbbd92e50	-0.0066278353
113	0x3bf7407a	0.007545528
114	0x3c2ebd39	0.010665231
115	0xbb9e2fbf	-0.004827469
116	0x3bb402d6	0.005493502
117	0xbc97b0ae	-0.018516865
118	0x3b15770a	0.0022806549
119	0xbb209137	-0.0024500617
120	0x3b9398c3	0.0045042946
121	0x3bba9cb2	0.005694949
122	0x3ba4dcb0	0.005031191
123	0x3b3c965c	0.0028776145
124	0xbc2198c3	-0.009863081
125	0x3b7e9090	0.003884349
126	0x3b063d9b	0.0020483497
127	0xbbccf0c8	-0.0062542893

network_body._body_endoder.seq_layers.0.bias f4 [128]
0	0xbb969b99	-0.0045961854
1	0x3b98fa09	0.0046684784
2	0xbbd33198	-0.006445121
3	0x3ba590da	0.005052668
4	0xbb4700ac	-0.003036539
5	0x3bac25c4	0.0052535255
6	0x3a1f24aa	0.0006070832
7	0x3b063ff1	0.002048489
8	0x3b846d37	0.0040413397
9	0xbba61aa1	-0.0050690924
10	0xbbb5b82f	-0.005545638
11	0x3b386cca	0.0028141015
12	0xbbd2c0f4	-0.006431693
13	0x3bd08783	0.0063638105
14	0xbbb1f3a0	-0.0054306537
15	0x3bc68ab6	0.006059016
16	0x3bd9b5c6	0.0066439835
17	0xbb6b45b1	-0.0035899694
18	0xb9e10443	-0.0004291852
19	0x3b92e591	0.004482933
20	0x3b8e637d	0.004345356
21	0xbbc56599	-0.0060240743
22	0xbba84466	-0.005135107
23	0xbafc247f	-0.0019236951
24	0xb99b0835	-0.00029570019
25	0x3b83154f	0.004000343
26	0xbabc4c6f	-0.0014366041
27	0xbb95855a	-0.004563016
28	0x3b3dca59	0.002895972
29	0xbb61d3db	-0.003445855
30	0xbbd0b618	-0.0063693635
31	0xbbbc9e5e	-0.0057561835
32	0x3bf38166	0.007431197
33	0x3bb8d911	0.0056411107
34	0x3b1e0844	0.0024113813
35	0x3bc490ec	0.0059987213
36	0x3b6e315f	0.0036345345
37	0xbbc938ca	-0.006140803
38	0xbbf1131d	-0.007357015
39	0xbbb72fc1	-0.0055904095
40	0xbb76ecf2	-0.0037677852
41	0xbb88439e	-0.004158451
42	0x3be4244d	0.006962335
43	0xbbb0f7c6	-0.0054006306
44	0x382c681c	4.1104955e-05
45	0x3ba179a7	0.004927832
46	0xbb8ea219	-0.0043528196
47	0xbbb991d3	-0.0056631356
48	0x3b04decd	0.0020274401
49	0x3ba01484	0.004885258
50	0x3bf02ca3	0.00732954
51	0xba38fb79	-0.00070565153
52	0x3bc5968f	0.006029911
53	0x3b67e4ce	0.003538418
54	0x3b53a13a	0.0032292143
55	0x3ba06d14	0.0048958156
56	0x3ba322d3	0.0049785166
57	0x3b7fe824	0.0039048279
58	0x3b0cb661	0.002147101
59	0xbbecd2dd	-0.0072272853
60	0xbb7f12fd	-0.003892123
61	0x3b3777bb	0.002799495
62	0xbb53b5ff	-0.0032304523
63	0xbbd851b9	-0.006601539
64	0x3b85df54	0.0040854607
65	0xbbd81602	-0.0065944204
66	0x3b69e225	0.003568777
67	0x3ab76c6b	0.0013994103
68	0x3b904227	0.004402417
69	0xbac3af08	-0.0014929483
70	0xbb2ec9f2	-0.0026670662
71	0x39b1a850	0.00033885473
72	0xbbc1045e	-0.005890413
73	0xbb1fff56	-0.0024413667
74	0x3a92a14b	0.0011186985
75	0x3b38e0b9	0.0028210117
76	0x3b744bf8	0.0037276726
77	0x3b8d9657	0.0043209004
78	0x3b2a77d3	0.0026011362
79	0xbaeca806	-0.0018055446
80	0xbb9c5822	-0.0047712484
81	0xbb04f46b	-0.0020287286
82	0x3bc15859	0.0059004244
83	0xbba54f57	-0.0050448584
84	0xbb970783	-0.0046090498
85	0xbba5db8a	-0.0050615715
86	0xbaa5a498	-0.0012637554
87	0x3ad8e007	0.0016546258
88	0x3b9a28c7	0.004704568
89	0x3beba363	0.007191108
90	0xbbb5f426	-0.0055527864
91	0x3bfc91a0	0.0077077895
92	0xb95d9175	-0.0002113039
93	0x3bced5e1	0.0063121174
94	0x3b96f7b9	0.0046071676
95	0xbb58b26e	-0.0033065337
96	0x3b68b121	0.0035505968
97	0x3a27ae32	0.00063965016
98	0xbaead5e8	-0.0017916532
99	0x3bc9626c	0.006145766
100	0x3bd4316a	0.006475617
101	0xba16a430	-0.0005746512
102	0x3ba02cda	0.004888159
103	0xbb262f32	-0.002535772
104	0xbb89cace	-0.0042050844
105	0x3bb55014	0.0055332277
106	0xba685a12	-0.0008863519
107	0x3bff53fa	0.007791993
108	0xbbad52d7	-0.0052894163
109	0xbbda8be7	-0.0066695097
110	0xbbe94549	-0.007118855
111	0xbbc37029	-0.0059642983
112	0x3b0b28cf	0.002123404
113	0xbba61b52	-0.005069175
114	0x3af68c33	0.0018810093
115	0xbb41d9c6	-0.0029579266
116	0x3782453c	1.5529447e-05
117	0x3ad5d58f	0.0016314256
118	0x3ba96f91	0.0051707705
119	0xbbcca58d	-0.006245321
120	0xbb2bb600	-0.002620101
121	0x3b9491f0	0.0045339987
122	0x3b62dd90	0.0034616925
123	0x3b8f9e03	0.00438285
124	0x3bc7a3b6	0.006092514
125	0x3b620cf7	0.003449259
126	0x3ba780a8	0.0051117726
127	0xbbbf0ee3	-0.005830632

network_body._body_endoder.seq_layers.0.weight f4 [128, 76]
0	0x3e4a3193	0.19745474
1	0x3c0bb567	0.008527136
2	0xbc83a0c8	-0.016067877
3	0x3b87c788	0.004143659
4	0xbe9d369d	-0.3070573
5	0x3e122273	0.14270954
6	0xbe33f972	-0.17575625
7	0x3d4ca497	0.049961653
8	0x3d008af9	0.031382535
9	0x3dd9e2fe	0.106389984
10	0x3d8ae5fd	0.06782148
11	0x3c5718e8	0.013128497
12	0x3d6fb24b	0.058519643
13	0xbe1a14c6	-0.15046987
14	0x3e17423b	0.14771359
15	0xbda2371c	-0.079206675
16	0x3d585b0a	0.052821197
17	0xbd557d26	-0.052121304
18	0x3d6bf4d0	0.05760652
19	0x3df112dd	0.11771176
20	0x3e68f4a7	0.22749577
21	0x3e341f78	0.1759013
22	0xbe0649f1	-0.13114144
23	0x3d990f6b	0.07473644
24	0xbe7f922e	-0.24958107
25	0xbcc9312c	-0.02455958
26	0xbde5a63d	-0.11213348
27	0x3db372cf	0.087621324
28	0x3dd329f3	0.103107356
29	0xbd9c59b2	-0.076342955
30	0xbe183956	-0.14865622
31	0xbdd40c66	-0.10353927
32	0xbdd703ba	-0.10498758
33	0x3b8a9f0b	0.004230385
34	0x3dbbf51b	0.091776095
35	0x3e032368	0.12806475
36	0xbd4703a1	-0.048587445
37	0x3d602389	0.05472139
38	0xbe42c795	-0.19021447
39	0x3d9d75e2	0.076885
40	0x3ce1d252	0.027566109
41	0x3df1517a	0.117831185
42	0xbc413217	-0.0117917275
43	0xbe346ac4	-0.17618853
44	0x3dbb72a7	0.091527276
45	0xbc0e42ef	-0.00868295
46	0xbde132e1	-0.109960325
47	0xbdbc465b	-0.09193107
48	0x3e3c8088	0.18408406
49	0xbe2545b0	-0.16139865
50	0x3c0e913e	0.008701621
51	0xbb1c52c1	-0.0023853036
52	0x3d8f518a	0.06997974
53	0xbe23b8d5	-0.15988477
54	0x3e1a0083	0.15039258
55	0x3e249c36	0.16075215
56	0x3cdf5de0	0.027266443
57	0xbbb68947	-0.005570564
58	0xbe37cd63	-0.17949443
59	0xbbe7174e	-0.0070523387
60	0xbd8839fb	-0.06651684
61	0xbe83dd36	-0.25754708
62	0xbe563569	-0.20918812
63	0xbe11e398	-0.14246976
64	0xbd10e7ac	-0.03537719
65	0x3e4e7f5f	0.20165776
66	0x3da657f5	0.08122245
67	0xbce17e22	-0.027525965
68	0xbd5d3f9b	-0.054015737
69	0x3d33a071	0.04385418
70	0x3c55f4fa	0.013058895
71	0x3c89ed46	0.016836774
72	0x3e03ab0e	0.12858221
73	0xbd35b577	-0.04436251
74	0xbda15d49	-0.07879121
75	0x3e09dce0	0.13463163
76	0x3cc641dc	0.024201326
77	0x3d702e48	0.058637887
78	0xbd899e0a	-0.06719597
79	0x3e8c1892	0.27362496
80	0xbd29e58a	-0.04147867
81	0x3d38b4a5	0.04509415
82	0xbe111e46	-0.14171705
83	0x3da7aec5	0.081876315
84	0x3e08d022	0.13360646
85	0xbd2662a5	-0.04062142
86	0xbe3edc85	-0.18638809
87	0x3d29421c	0.041322812
88	0x3e05ce0b	0.1306688
89	0x3e1507bb	0.1455373
90	0xbda0a10b	-0.078432165
91	0xbe38954e	-0.18025705
92	0x3d2bfe90	0.041990817
93	0xbd7c5288	-0.061602145
94	0xbc98dd29	-0.018660145
95	0x3d6bd9a8	0.05758062
96	0xbdee1798	-0.11625594
97	0xbd488686	-0.048956417
98	0x3c030dea	0.007998923
99	0xbd6f9df6	-0.058500253
100	0xbdb7acec	-0.08968529
101	0xbdcb89df	-0.09938406
102	0x3ddee1d2	0.108829156
103	0x3dd007b0	0.10157716
104	0x3d52edef	0.051496442
105	0xbdb42cd9	-0.087976165
106	0x3e0fac1e	0.14030501
107	0xbdd3858d	-0.10328207
108	0xbc5a2699	-0.013314866
109	0xbe23f0ba	-0.16009799
110	0x3d0526ae	0.03250759
111	0xbe000466	-0.12501678
112	0xbd0853dc	-0.0332831
113	0xbd100844	-0.035164133
114	0xbd4572d6	-0.04820522
115	0xbd1ef8f8	-0.038811654
116	0xbc9a5e1a	-0.0188437
117	0xbe2318e5	-0.15927465
118	0x3da015f8	0.0781669
119	0xbcce80dd	-0.025207931
120	0x3b5f1fb2	0.0034045991
121	0x3ca5ad9a	0.020224381
122	0xbdc662b7	-0.09686797
123	0x3e4c078e	0.19924757
124	0x3da751c7	0.08169895
125	0xbccc7926	-0.024960112
126	0x3db529ad	0.0884584
127	0x3e068460	0.13136435
128	0xbdbf31ea	-0.09335692
129	0x3d58d542	0.052937753
130	0x3e0060bd	0.12536903
131	0x3e2864bb	0.16444676
132	0x3dbdfbe9	0.09276564
133	0x3dfecfed	0.124420024
134	0xbd6b0a2b	-0.057382744
135	0xbd3c380d	-0.04595189
136	0xbdc36359	-0.095404334
137	0x3d31d657	0.0434173
138	0xbc9a8ef9	-0.018867003
139	0xbd3044f9	-0.043034527
140	0x3e299ec8	0.16564476
141	0xbe15347f	-0.14570807
142	0x3e29ac3e	0.16569611
143	0xbcfac70d	-0.030612493
144	0xbda076ba	-0.07835145
145	0x3e38f083	0.18060498
146	0xbd91e0a8	-0.07122928
147	0x3e2aadd6	0.16667876
148	0xbe037b4a	-0.1284
149	0xbe42b49c	-0.1901421
150	0x3e724b01	0.23661424
151	0x3dab48f0	0.08363521
152	0x3d191f93	0.037383627
153	0x3e30e859	0.17276134
154	0x3d2a4eb0	0.04157895
155	0x3e571fd4	0.21008235
156	0xbd884a95	-0.066548504
157	0x3d889eee	0.066709384
158	0x3d5dd9b9	0.054162715
159	0xbe64ab42	-0.22330955
160	0x3d82363b	0.06358
161	0xbc7098c7	-0.014684862
162	0x3da364ef	0.07978236
163	0x3d033c16	0.032039724
164	0x3dae8011	0.085205205
165	0xbe48ce47	-0.19609939
166	0x3d901056	0.07034366
167	0xbccf5c87	-0.025312675
168	0x3d31950f	0.043355044
169	0x3dd5a013	0.10430922
170	0xbe2a2abe	-0.16617867
171	0x3d540a26	0.05176749
172	0x3a81e9ad	0.000991156
173	0x3d5dce4e	0.054151826
174	0xbe49b1cb	-0.19696729
175	0x3c496ae0	0.012293547
176	0x3e235533	0.1595047
177	0xbd87dc18	-0.066337764
178	0xbc2a3140	-0.010387719
179	0x3d59151d	0.05299865
180	0x3d267e4e	0.040647797
181	0xbeadb6bf	-0.33928487
182	0x3e2b1696	0.16707835
183	0xbd1e1939	-0.038598273
184	0xbc2c895f	-0.010530799
185	0xbd010ffd	-0.03150939
186	0xbcd45ed0	-0.025924116
187	0x3e5175a1	0.20455028
188	0xbe16b3c4	-0.14717013
189	0xbe3d8d86	-0.18511018
190	0x3deb2750	0.11482108
191	0x3a050fbc	0.0005075892
192	0x3dbb29e4	0.091388494
193	0x3dfb80df	0.122804396
194	0xbd5da7c5	-0.054115076
195	0xbdb4bd07	-0.088251166
196	0x3d9a73d3	0.07541623
197	0xbdb41ee1	-0.08794952
198	0xbdb6879a	-0.08912583
199	0xbd89576a	-0.06706126
200	0xbdec5dbb	-0.11541315
201	0x3e613f3f	0.21996783
202	0xbcd2e14e	-0.0257422
203	0xbda9e42e	-0.08295475
204	0xbe28a7a4	-0.164702
205	0xbd2f8bc1	-0.04285789
206	0x3c5f4eb9	0.013629609
207	0xbcc17093	-0.02361325
208	0xbe31dc31	-0.17369153
209	0x3cab97b9	0.02094637
210	0xbc88b18a	-0.01668622
211	0x3d9d9766	0.076948926
212	0x3d06dc71	0.032925073
213	0xbe0830f9	-0.13299932
214	0xbdf98cad	-0.12185035
215	0xbc441aee	-0.011969311
216	0xbd2decd8	-0.0424622
217	0x3df60834	0.12013283
218	0xbd80b86a	-0.06285174
219	0xbd273171	-0.040818635
220	0x3da396a1	0.079877146
221	0xbe0aeacd	-0.13566132
222	0xbe0e632b	-0.13905017
223	0xbc5b2c6f	-0.013377293
224	0xbe52fc35	-0.20604022
225	0x3d276267	0.04086533
226	0x3dfa4786	0.12220673
227	0xbd22240f	-0.03958517
228	0x3d948e81	0.07253743
229	0xbd744d35	-0.059643943
230	0x3e2028b4	0.15640527
231	0x3bffef13	0.0078104823
232	0x3cc1d649	0.02366175
233	0xbd2c4e95	-0.04206713
234	0xbd1ffcf1	-0.039059583
235	0xbe83c687	-0.25737402
236	0x3e582d1f	0.21110962
237	0xbdcb1a1a	-0.09917088
238	0x3c8242f0	0.015901059
239	0xbcfe4fad	-0.031043852
240	0xbb9d69ec	-0.0048038866
241	0x3e4de154	0.20105487
242	0x3d9417b1	0.07231081
243	0x3d54ffd1	0.052001778
244	0x3e05bdf0	0.13060737
245	0xbe9dfc46	-0.30856532
246	0x3e15f6c6	0.14644918
247	0xbd8dd904	-0.06926158
248	0x3ce0d02b	0.027443012
249	0x3babf31e	0.0052474877
250	0xbd8a678e	-0.06758033
251	0x3d4574c9	0.048207078
252	0xbe42ecf9	-0.1903571
253	0xbe2d447d	-0.16920657
254	0xbd4b64d1	-0.049656693
255	0xbcef7716	-0.02923159

network_body._body_endoder.seq_layers.2.bias f4 [128]
0	0x3bc7dbfb	0.0060992218
1	0x39fbcc17	0.0004802651
2	0x395b788a	0.00020930372
3	0x3b57e51d	0.0032942959
4	0x3bd41ace	0.006472922
5	0x3bbe2c70	0.005803637
6	0x3ba84e97	0.0051363218
7	0xbbc1e6d1	-0.005917408
8	0x3bce2d9f	0.0062920596
9	0x3ac36a2f	0.0014908965
10	0xbbd2f75a	-0.006438178
11	0x3ba1e01d	0.0049400465
12	0xbb2aa253	-0.0026036694
13	0xbbc9d680	-0.0061596036
14	0x3b6f8532	0.0036547896
15	0xbbdfd67f	-0.00683099
16	0xbb638ebb	-0.0034722525
17	0x3bbaadf7	0.0056970078
18	0xbbc5a269	-0.0060313237
19	0x3bd37af7	0.0064538675
20	0xbb2854ca	-0.0025685304
21	0xb9cde409	-0.00039270546
22	0xbbbfd81c	-0.0058546197
23	0x3bc3501a	0.0059604766
24	0xbbcf4b77	-0.006326135
25	0xbbb60195	-0.005554388
26	0xbb6deb2f	-0.003630351
27	0xbbadec94	-0.0053077433
28	0x3ba74ff8	0.0051059686
29	0x3ba85904	0.0051375646
30	0x3bc4e721	0.006008998
31	0xbbb55883	-0.005534233
32	0xbbd43b91	-0.0064768274
33	0xbbd67ec7	-0.0065458748
34	0x3b5b8052	0.0033493233
35	0xbaa30020	-0.001243595
36	0x3b7a5e4f	0.0038203185
37	0x3a8a0d02	0.0010532441
38	0xbbac0edb	-0.0052507943
39	0xbba9fcd6	-0.005187611
40	0xbbb235a1	-0.005438522
41	0xbbd6a3e5	-0.0065502995
42	0x39676ac0	0.00022069644
43	0x3bc3488f	0.0059595774
44	0xbb7f6649	-0.0038970879
45	0xbbe24287	-0.0069049033
46	0xbb9213fc	-0.0044579487
47	0x3ae93913	0.0017793499
48	0x3bc942bf	0.00614199
49	0xbb335e15	-0.002736931
50	0x3bd1f19f	0.0064069773
51	0xbbc4fa9a	-0.0060113193
52	0xbbd8a13c	-0.0066110175
53	0xbba2c9ed	-0.004967919
54	0xbb91f2a8	-0.0044539757
55	0xbb88b915	-0.004172454
56	0x3b5c3472	0.0033600596
57	0xbb252d95	-0.002520417
58	0x3bb014b1	0.0053735604
59	0xbbb9a12d	-0.0056649656
60	0x3b943369	0.00452273
61	0xbbfb8d04	-0.0076767225
62	0x3a9c8599	0.0011941671
63	0x3ba7d07e	0.0051212898
64	0x3b10a508	0.0022071023
65	0xbb79412b	-0.0038033228
66	0xbb92e219	-0.0044825193
67	0x3bc42340	0.0059856474
68	0xbb9f29e2	-0.0048572877
69	0xbb81abaf	-0.003957234
70	0xba96c6fa	-0.0011503391
71	0x3bb7b7b1	0.0056066145
72	0x3bd5081b	0.0065012104
73	0x3b508c87	0.0031822042
74	0xbbb85ca8	-0.00562628
75	0x3b659472	0.0035031107
76	0x3aa4bd40	0.0012568608
77	0x3b4cbbdd	0.0031239905
78	0x3982e39c	0.00024965114
79	0x3bab546f	0.005228571
80	0x3ba3889e	0.0049906513
81	0xbba7d1f4	-0.005121464
82	0xbbc20c14	-0.00592185
83	0x3bc0106b	0.005861332
84	0x3bbe3de8	0.0058057196
85	0xbbc9fc44	-0.0061641056
86	0xbbdb24a4	-0.0066877175
87	0x3b8335a7	0.0040041986
88	0x3bbb9ede	0.0057257256
89	0xbbdf6561	-0.006817505
90	0x3bcfb837	0.006339099
91	0x3bc54c8a	0.006021087
92	0xbba6f683	-0.0050953045
93	0xbb86b9e6	-0.0041115163
94	0xbb262918	-0.0025354084
95	0x3bae25f3	0.0053145825
96	0x3b87b687	0.004141632
97	0xbbb20c20	-0.0054335743
98	0xbb8bf587	-0.0042712125
99	0xbbcd2c03	-0.00626135
100	0xbb4f5654	-0.003163715
101	0xbb84a373	-0.004047805
102	0x3b6fbd9b	0.003658152
103	0xbb8cb326	-0.004293817
104	0xbb3df1e9	-0.00289833
105	0xbb6c2ab5	-0.0036036198
106	0xbb2f958f	-0.0026792025
107	0xbbd54c9c	-0.0065093767
108	0x3ba1e080	0.0049400926
109	0x3bbe496c	0.0058070924
110	0x3ba0ac4b	0.0049033514
111	0x3bb40f7c	0.00549501
112	0x3bbb7a71	0.0057213833
113	0x3bae80b3	0.0053254007
114	0xbaca37e7	-0.0015428037
115	0x3bbef1c1	0.005827159
116	0x3ba83f96	0.005134533
117	0x39eaa350	0.00044753635
118	0xbb0f9e0e	-0.0021914276
119	0xbac3bcf7	-0.0014933635
120	0xbbd8d2f8	-0.0066169463
121	0xbbcc32b6	-0.006231631
122	0x3bcd4112	0.0062638605
123	0xbb618b6c	-0.0034415377
124	0xbbb6d98a	-0.005580132
125	0xbbdb70bb	-0.006696788
126	0x3b8989bd	0.004197328
127	0xbbba5147	-0.0056859585

network_body._body_endoder.seq_layers.2.weight f4 [128, 128]
0	0xbda15462	-0.07877423
1	0xbd4db175	-0.050218064
2	0x3da476fc	0.08030507
3	0x3c83a369	0.016069131
4	0x3d7e431a	0.06207571
5	0xbe0380dd	-0.12842126
6	0xbd33596c	-0.04378645
7	0xbc2970c5	-0.010341828
8	0x3d17a7c9	0.037025247
9	0x3dec2cf1	0.115320094
10	0xbdfdce1d	-0.123928286
11	0x3e063d27	0.13109265
12	0xbe661a70	-0.22471023
13	0xbd918ae4	-0.071065694
14	0xbcc343b4	-0.023835994
15	0xbe09a636	-0.1344231
16	0x3cb2e093	0.021835601
17	0x3c9da38a	0.01924302
18	0x3d8767ea	0.06611617
19	0xbae80df5	-0.0017704355
20	0x3e3d9ea5	0.1851755
21	0x3d96e6b0	0.07368219
22	0xbc40b189	-0.011761078
23	0x3e006404	0.12538153
24	0x3d508f1d	0.050917733
25	0xbd8eb5b8	-0.06968254
26	0xbe26bcf3	-0.16283016
27	0x3d87ec2c	0.06636843
28	0xbb506cc8	-0.003180312
29	0x3cfd36df	0.030909954
30	0xbe029378	-0.12751567
31	0x3d4f88c5	0.050667543
32	0x3d909b56	0.07060878
33	0xbd7b309c	-0.061325654
34	0x3dd351eb	0.10318359
35	0xbc645757	-0.013936839
36	0x3becf739	0.0072316197
37	0xbdc3d00c	-0.09561166
38	0x3daf1672	0.08549203
39	0xbc6e733b	-0.01455384
40	0xbdb04b78	-0.086081445
41	0x3c57a7aa	0.013162533
42	0x3cefd226	0.029275011
43	0x3d7087f4	0.058723405
44	0xbc95d9df	-0.018292366
45	0x3db3b552	0.087748185
46	0x3cb0e837	0.021595104
47	0xbd89ad09	-0.06722457
48	0x3e0e4783	0.13894467
49	0x3ce1253a	0.027483571
50	0xbe1d0cf1	-0.15336968
51	0xbd951b14	-0.07280555
52	0x3bc3a95d	0.0059711174
53	0x3cb85167	0.022499753
54	0xbe58ddb7	-0.21178328
55	0xbceb502f	-0.028724758
56	0x3d260f75	0.040542085
57	0xbdfd8720	-0.12379289
58	0x3d2f2702	0.04276181
59	0x3a765d32	0.00093980425
60	0xbda5ee42	-0.08102085
61	0xbdc483f0	-0.095954776
62	0x3d3a3221	0.045457963
63	0xbdd22732	-0.10261382
64	0xbd878113	-0.06616416
65	0xbd86ff78	-0.065916955
66	0xbcb1600d	-0.021652246
67	0x3cc543b9	0.024080144
68	0xbd8f788c	-0.07005414
69	0xbde31f8b	-0.11090001
70	0x3e0773f5	0.13227828
71	0xbb7f79d8	-0.0038982537
72	0xbcf27687	-0.029597534
73	0x3d979bdd	0.074027754
74	0xbda33ebc	-0.0797095
75	0xbc831ca6	-0.016004872
76	0x3dae9ccf	0.085260026
77	0xbd3e582d	-0.04647081
78	0xbd0e33ad	-0.03471725
79	0xbdb2f4bc	-0.08738086
80	0x3db12272	0.08649148
81	0x3e08628c	0.13318843
82	0xbcad8edb	-0.021186283
83	0xbd0f4083	-0.034973633
84	0x3c0d0a16	0.008608362
85	0x3d8a166b	0.06742557
86	0xbd17aca7	-0.03702989
87	0xbdaf112a	-0.08548196
88	0x3d8b6caf	0.06807839
89	0xbd244dfa	-0.040113427
90	0xbccccf10	-0.025001079
91	0xbca3d2cc	-0.019997977
92	0x3b884b78	0.004159387
93	0xbc27f685	-0.010251646
94	0xbd066b88	-0.032817394
95	0xbc887fd9	-0.016662525
96	0xbd6ef775	-0.058341462
97	0x3d34eb04	0.04416944
98	0xbdbdaf08	-0.092619
99	0x3c353f50	0.011062458
100	0xbc91129d	-0.01770907
101	0xbc2de9ef	-0.010614856
102	0xbbef21fa	-0.0072977515
103	0x3dd25aeb	0.102712475
104	0x3bfef320	0.0077804476
105	0x3dbd3259	0.09238119
106	0xbd1dae49	-0.03849629
107	0xbdd8eaa1	-0.10591627
108	0x3d9127e0	0.07087684
109	0xbc9578e0	-0.018246114
110	0x3da5d9df	0.08098196
111	0xbcb4e2c9	-0.022080796
112	0x3dcc6bdc	0.0998151
113	0xbddff3dc	-0.10935184
114	0x3d219451	0.039448086
115	0xbda68f9d	-0.08132861
116	0x3cac389a	0.021023083
117	0x3c94d52d	0.018168056
118	0x3dab8637	0.08375209
119	0x3c886597	0.016650004
120	0xbda8b488	-0.082375586
121	0xbd63ffdf	-0.05566394
122	0xbbae296b	-0.005314996
123	0x3d30c606	0.0431576
124	0xbdcc8e39	-0.09988064
125	0xbd43d6c6	-0.047812246
126	0xbcbfbf09	-0.023406522
127	0xbd05776a	-0.032584585
128	0x3d93bb54	0.072134644
129	0xbde6a38e	-0.11261664
130	0x3e1b0739	0.15139474
131	0x3db78f99	0.08962936
132	0x3dc017d2	0.09379543
133	0x3d29e9e5	0.041482825
134	0xbdab7c03	-0.08373263
135	0x3d8c5450	0.06852019
136	0xbd7d5639	-0.061849806
137	0x3d0dbf8d	0.034606505
138	0xbcad293a	-0.021137822
139	0xbdab292e	-0.08357464
140	0x3d98521d	0.07437537
141	0x3dbd7d75	0.09252445
142	0xbc7eb1f0	-0.015545353
143	0xbe16d30a	-0.14728943
144	0xbc0d20b5	-0.008613755
145	0xbe0fe416	-0.14051852
146	0x3dcbb281	0.09946156
147	0x3d3889ac	0.04505317
148	0x3d3ad219	0.04561052
149	0xbd94a480	-0.072579384
150	0xbe13efcb	-0.14446943
151	0xbd2093d7	-0.03920349
152	0xbcb6ea0f	-0.022328405
153	0xbde22c67	-0.11043625
154	0xbdda924d	-0.10672436
155	0xbdfc96cb	-0.12333449
156	0x3d863068	0.065522015
157	0x3bcd07b3	0.0062570213
158	0xbd82a9f9	-0.06380076
159	0xbc8a121b	-0.016854336
160	0xbd30b1f2	-0.043138452
161	0x3c9f2dc8	0.01943101
162	0x3d17a296	0.03702029
163	0x3da9e18a	0.08294971
164	0x3e12e9da	0.1434702
165	0xbc3dc8c6	-0.011583513
166	0x3dd97e8b	0.10619839
167	0x3d24bab9	0.040217135
168	0xbce6d13c	-0.028175943
169	0x3d97b434	0.07407418
170	0xbcac6cee	-0.021048035
171	0x3c9eee04	0.019400604
172	0xbd3015ac	-0.042989418
173	0x3dce9c4b	0.10088404
174	0x3e33c948	0.17557251
175	0x3cf72cad	0.03017267
176	0x3d57c8e6	0.052681826
177	0xbdc8bfe0	-0.09802222
178	0x3d5106bf	0.051031824
179	0x3c99e9cf	0.018788246
180	0xbd5baf5f	-0.053634044
181	0xbd8002c6	-0.06250529
182	0x3d3ac99c	0.045602426
183	0xbc43557b	-0.011922236
184	0xbd3f5da9	-0.04672018
185	0xbd6b5315	-0.05745228
186	0x3db2d7ad	0.08732543
187	0xbd733301	-0.059374813
188	0x3d5f4dfe	0.05451774
189	0x3dbe1e2f	0.09283101
190	0xbd819cfd	-0.06328771
191	0x3dee07fd	0.116226174
192	0xbd73be84	-0.05950786
193	0xbdf2ec46	-0.11861472
194	0x3cd84902	0.026402
195	0xbdf97399	-0.12180252
196	0x3d65269f	0.055945035
197	0x3a435e5c	0.00074527203
198	0xbca5f6c8	-0.020259276
199	0xbceef5c3	-0.029169923
200	0xbe3ba634	-0.1832512
201	0xbd554f14	-0.052077368
202	0xbe0303aa	-0.12794366
203	0x3c1c2561	0.009530396
204	0x3c1f9fa2	0.009742649
205	0x3d4588d8	0.048226207
206	0x3e42a201	0.19007112
207	0xbe08e78e	-0.13369581
208	0x3d62bf6e	0.055358343
209	0xbdfd585e	-0.1237037
210	0x3c5275b0	0.012845442
211	0xbb70e3cd	-0.0036756874
212	0x3dce127f	0.100621216
213	0x3e155d43	0.14586358
214	0xbd04bb90	-0.032405436
215	0x3d88f3d1	0.06687129
216	0x3dd525f8	0.104076326
217	0x3ddf6dd6	0.109096214
218	0x3e42b005	0.19012459
219	0x3ce1fc8d	0.027586246
220	0x3da6c80d	0.081436254
221	0xbc4edc57	-0.012625775
222	0x3c9e3a4e	0.019314911
223	0xbd829ae2	-0.06377198
224	0x3e14fd96	0.1454986
225	0xbdb23e72	-0.08703317
226	0xbdbf70f7	-0.09347718
227	0xbbc89b2b	-0.006122013
228	0xbd4da5de	-0.05020701
229	0xbc78176e	-0.015142305
230	0xbda77296	-0.081761524
231	0xbd038404	-0.03210832
232	0x3e638582	0.22218898
233	0x3e151816	0.1455997
234	0xbce5d7ac	-0.028056942
235	0x3dd55b35	0.10417787
236	0xbc8ddd91	-0.017317565
237	0xbae071ca	-0.0017123756
238	0xbe3bbb65	-0.18333204
239	0xbe2ca87a	-0.16861144
240	0x3db6e85a	0.08931036
241	0xbbf97d9c	-0.0076138508
242	0x3e81bf1f	0.25341126
243	0xbc35b98d	-0.011091602
244	0x3b42c7ab	0.0029721062
245	0x3d8a33e1	0.06748176
246	0x3cc5b57d	0.024134392
247	0x3de9b850	0.11412108
248	0x3be8b4ec	0.0071016457
249	0xbe1858e5	-0.1487766
250	0xbe54234d	-0.20716591
251	0x3d81dee4	0.06341341
252	0x3deda515	0.116037525
253	0x3e1bf9fa	0.15232077
254	0xbd9e8e38	-0.0774197
255	0xbd7bdabb	-0.061487895
