results/ProximityRewardTest/AgentSphereBehavior/AgentSphereBehavior-62975.pt (torch, 669775 bytes, 39 tensors)

network_body._body_endoder.seq_layers.0.weight f4 [128, 80]
0.049026925 -0.122130156 0.08249911 0.05860471 0.025552426 -0.14287473 0.07250231 -0.039631277
0.06777876 0.0007555258 -0.09782697 0.22131442 -0.09337285 0.11369803 0.13918284 0.031082926
0.21437906 0.03633761 0.10152143 -0.28340906 -0.026338238 -0.062388316 -0.13945352 0.055733755
-0.14512816 -0.107123375 -0.040375773 0.028850181 0.071701765 -0.16424957 -0.1013468 0.16746673
-0.027298532 0.14800991 0.014252354 -0.09648292 -0.03395344 -0.18864898 0.2529145 0.04290457
-0.041280266 0.035667736 0.0024098088 -0.14345604 0.022095278 0.13159902 -0.059282456 -0.19007264
-0.048742566 0.10624052 -0.17761381 -0.13789688 -0.020226212 -0.13783652 0.12280632 0.115275465
-0.07859208 -0.02399997 -0.040739287 -0.039530426 -0.12819931 -0.056703527 -0.06711614 0.09857214
-0.008208764 -0.13703614 -0.16964278 -0.012264739 0.012859736 -0.11556621 -0.032532882 -0.037772387
0.059900045 0.018368242 -0.073633716 -0.025996458 0.10925342 -0.046383277 -0.104284145 -0.027557274
0.15970162 0.008046332 -0.100130334 -0.18687804 -0.055042062 -0.01692659 0.109983414 -0.020266892
-0.3723625 0.03954571 -0.043580864 0.032825697 0.02141585 -0.000623674 0.051589485 -0.10009229
-0.080223985 0.20826192 0.09680743 0.12001879 -0.024394704 -0.107499704 0.13850982 0.16465573
-0.017634472 0.0012427759 -0.21721464 0.2137326 0.2077185 0.17728044 -0.04399445 0.026623681
0.060531598 0.05798609 -0.09248446 0.120756775 0.18785712 -0.05294868 0.08685635 -0.16320573
0.20569277 0.07759039 -0.0810612 0.16821538 0.011824128 -0.056264944 0.00074867415 0.036790032
-0.0006230695 0.29705182 0.09576472 0.08095219 0.030939875 -0.10930428 0.17722249 0.07047963
-0.04068372 0.16751455 -0.0537767 0.0976689 -0.02095153 0.032652076 -0.047823444 0.06996186
0.18969055 -0.14953734 0.057666868 -0.06345326 -0.01539862 -0.043452058 -0.019343648 -0.02855679
0.056061953 0.08702695 0.008235253 0.17897347 -0.14204493 -0.27854878 -0.058060512 -0.015895344
0.025347762 -0.17623605 0.05368892 0.11100095 0.10322433 0.105350584 -0.023776826 -0.09659804
-0.08025397 0.25013524 0.052256644 0.104686946 0.081355214 0.016870076 0.10832609 0.10202426
-0.11545057 -0.010460142 -0.10435154 0.05257629 -0.014748855 -0.056211334 0.17699176 0.013873848
-0.13038202 0.15892673 -0.16179714 0.014144458 -0.047375202 0.21448691 -0.039851177 0.07808805
-0.14840952 -0.111054614 0.17069128 0.38204628 -0.14496595 0.030633502 0.109810315 0.20404275
-0.15804976 -0.0825313 -0.20584689 -0.06698123 0.08793363 0.2706255 0.15223913 0.027965872
-0.21235748 0.00029131016 -0.010724395 0.03740121 0.023219084 -0.011865024 -0.012992728 -0.06307126
-0.04324867 -0.15159158 -0.053725436 0.3235056 -0.10291533 -0.07322109 -0.021313135 0.17831959
0.0064504105 -0.12797916 -0.06816588 0.15908708 -0.035110738 0.16679241 0.011624324 -0.13352235
-0.005182723 0.054648925 0.088141054 0.08696301 -0.1531841 -0.015561663 0.15900123 -0.13810909
0.21782252 0.09617772 0.021170538 -0.063278034 -0.0267033 0.13625807 0.22998866 -0.022485863
-0.10716461 -0.033808343 0.047004953 0.13080372 0.18607618 0.015953794 -0.013134841 0.09423609
00000000: 75d0 483d 601f fabd 4bf5 a83d 7e0b 703d
00000010: 5253 d13c c14d 12be 177c 943d 6854 22bd
00000020: 97cf 8a3d 7a0e 463a 8259 c8bd 3fa0 623e
00000030: 443a bfbd 83da e83d f285 0e3e 9fa1 fe3c
00000040: 2f86 5b3e bfd6 143d 78ea cf3d fe1a 91be
00000050: 4ac3 d7bc e48a 7fbd e7cc 0ebe 1449 643d
00000060: 7a9c 14be 8063 dbbd 1161 25bd 3757 ec3c
00000070: 60d8 923d 0a31 28be e98e cfbd 667c 2b3e
00000080: 2ca1 dfbc e98f 173e b582 693c d698 c5bd
00000090: c312 0bbd 332d 41be 027e 813e b4bc 2f3d
000000a0: 7f15 29bd 5518 123d e2ed 1d3b 24e6 12be
000000b0: 2801 b53c e5c1 063e 29d2 72bd 67a2 42be
000000c0: 49a6 47bd a194 d93d 65e0 35be d734 0dbe
000000d0: 71b1 a5bc 0425 0dbe e181 fb3d 8b15 ec3d
000000e0: e2f4 a0bd 969b c4bc 3dde 26bd a8ea 21bd
000000f0: ae46 03be f541 68bd 3074 89bd 31e0 c93d
00000100: 0d7e 06bc 3453 0cbe d6b6 2dbe 0bf2 48bc
00000110: a4b1 523c faad ecbd 3341 05bd 38b7 1abd
00000120: c059 753d ff78 963c 46cd 96bd 86f6 d4bc
00000130: 42c0 df3d 64fc 3dbd ed92 d5bd cbbf e1bc
00000140: d288 233e c3d4 033c 2211 cdbd f55c 3fbe
00000150: c973 61bd a2a9 8abc fc3e e13d c106 a6bc
00000160: 4ca6 bebe affa 213d d981 32bd 3d74 063d
00000170: 4b70 af3c 0e7e 23ba 7f4f 533d 30fd ccbd
00000180: 794c a4bd 9d42 553e f942 c63d 69cc f53d
00000190: 67d7 c7bc ce28 dcbd 85d5 0d3e 839b 283e
000001a0: 2b76 90bc a4e4 a23a 846d 5ebe b8dc 5a3e
000001b0: 29b4 543e 0189 353e 8633 34bd e819 da3c
000001c0: fbef 773d d382 6d3d 7e68 bdbd 544f f73d
000001d0: 9e5d 403e b7e0 58bd bee1 b13d 671f 27be
000001e0: 20a1 523e b6e7 9e3d 6a03 a6bd a740 2c3e
000001f0: fdb9 413c 1276 66bd ac42 443a 25b1 163d
00000200: 7d55 23ba 2d17 983e 4b20 c43d 43ca a53d
00000210: 9f75 fd3c ecda dfbd d079 353e a057 903d
00000220: f9a3 26bd ef88 2b3e f544 5cbd a206 c83d
00000230: 8ba2 abbc 2fbe 053d 84e2 43bd 2a48 8f3d
00000240: 3d3e 423e 5120 19be 1834 6c3d c8f3 81bd
00000250: 7e4a 7cbc c9fa 31bd 9276 9ebc eeef e9bc
00000260: 38a1 653d 303b b23d 28ed 063c d244 373e
00000270: 3a74 11be f29d 8ebe dcd0 6dbd f436 82bc
00000280: 1ca6 cf3c 3977 34be eae8 5b3d 7754 e33d
00000290: 4767 d33d 0cc2 d73d 9ec7 c2bc 31d5 c5bd
000002a0: 325c a4bd ba11 803e 100b 563d 1c66 d63d
000002b0: 909d a63d 1d33 8a3c 12da dd3d 18f2 d03d
000002c0: 5971 ecbd 0461 2bbc 43b6 d5bd 3c5a 573d
000002d0: 2ea5 71bc db3d 66bd 543d 353e 234f 633c
000002e0: dd82 05be b0bd 223e 26ae 25be 28be 673c
000002f0: 800c 42bd 75a2 5b3e fd3a 23bd a1ec 9f3d
00000300: aaf8 17be 9a70 e3bd b2c9 2e3e 929b c33e
00000310: f471 14be 1cf3 fa3c 3be4 e03d 95f0 503e
00000320: ccd7 21be 2c06 a9bd 87c9 52be 752d 89bd
00000330: 8c16 b43d 6d8f 8a3e 93e4 1b3e af18 e53c
00000340: 3d74 59be fdba 9839 5fb5 2fbc 0332 193d
00000350: f335 be3c 8565 42bc 73df 54bc 812b 81bd
00000360: 8425 31bd d33a 1bbe 340f 5cbd 87a2 a53e
00000370: 46c5 d2bd f0f4 95bd e298 aebc 6999 363e
00000380: f75d d33b f80c 03be 8e9a 8bbd b9e7 223e
00000390: 47d0 0fbd a1cb 2a3e f373 3e3c 15ba 08be
000003a0: d5d3 a9bb 8dd7 5f3d 4c83 b43d aa19 b23d
000003b0: 4bdc 1cbe 58f6 7ebc 38d1 223e 786c 0dbe
000003c0: de0c 5f3e d3f8 c43d d66d ad3c ea97 81bd
000003d0: e1c0 dabc 3c87 0b3e 2682 6b3e 4634 b8bc
000003e0: 1e79 dbbd 9e7a 0abd 4488 403d 69f1 053e
000003f0: c18a 3e3e 88b1 823c 8433 57bc dafe c03d

network_body._body_endoder.seq_layers.0.bias f4 [128]
0.014007775 -0.0006224013 0.0030303474 -0.009335037 0.0168768 -0.002259029 0.024158318 -0.00096842024
-0.017367316 0.0029985867 0.011389201 0.00026178657 -0.006966106 -0.007942287 -0.00024353669 0.011640837
-0.007746421 -0.014917352 0.006960504 -0.016759014 -0.008332698 0.006173333 0.0008522505 -0.0057384972
-0.013775239 0.002893365 0.002468595 -0.007392427 0.0009932942 -0.015567086 0.0006816239 0.0047821254
0.0037659912 -0.008364171 0.005680924 -0.014672752 0.004751187 0.0031970565 -0.0068419715 -0.010463299
0.0046981666 0.011993334 0.005856593 0.0026608969 -4.8604015e-05 0.011734488 -0.0014300579 -0.0039008951
-0.008846589 -0.002201383 -0.0006331362 -0.0065548904 -0.012402033 -0.006622505 -0.013184681 0.0018824736
0.0028310476 -0.010047618 -0.0033056054 -0.00065352867 0.0022164322 0.0037536877 -0.007890018 -0.00026571398
0.010142892 0.012497058 0.0077764736 0.014495211 -0.007913811 0.0074798353 -0.010498713 0.0052623916
-0.008294149 0.007149306 -0.0018902477 0.00030711407 -0.009634006 -0.00028959298 0.0031782326 0.011926519
-0.004980625 0.0026108264 -0.011638183 0.0061050663 0.007089411 0.0053654187 0.0040823896 0.0048742085
-0.008690174 0.00853416 -0.008998256 0.00050292513 -0.011338211 -0.0030413724 -0.020743135 -0.008815059
-0.008232109 0.0004623418 0.011572447 0.006890349 0.00297071 -0.0035932893 -0.011222229 0.005485544
0.0069744526 0.016725145 -0.011769304 -0.008915834 -0.0024594855 -0.0072665433 -0.0070517724 -0.0060283225
0.005344131 -0.006179533 0.005643188 -0.014354588 -0.007281124 0.0019795848 0.006640534 0.0070765293
-0.0047540194 -0.0005695669 -0.0029783975 -0.0036529708 -0.018273896 -0.00076828914 -0.024835458 -0.015683623
00000000: de80 653c a528 23ba cb98 463b fcf1 18bc
00000010: 3741 8a3c 380c 14bb aae7 c53c 95dd 7dba
00000020: e745 8ebc f083 443b c599 3a3c 6640 8939
00000030: ef43 e4bb 5e20 02bc e25d 7fb9 36b9 3e3c
00000040: b0d5 fdbb e967 74bc f114 e43b 334a 89bc
00000050: de85 08bc ac49 ca3b 9069 5f3a 010a bcbb
00000060: 8ab1 61bc 9c9e 3d3b 27c8 213b 2c3c f2bb
00000070: 6c31 823a 170d 7fbc 01af 323a 60b3 9c3b
00000080: d9ce 763b e009 09bc 0b27 ba3b fb65 70bc
00000090: d8af 9b3b b585 513b 9e32 e0bb 426e 2bbc
000000a0: 14f3 993b b07f 443c aae8 bf3b 7162 2e3b
000000b0: 2adc 4bb8 0342 403c c870 bbba 29a6 7fbb
000000c0: 49f1 10bc 1445 10bb 0df9 25ba 68ca d6bb
000000d0: e631 4bbc 9901 d9bb 8f04 58bc 55bd f63a
000000e0: 1989 393b c49e 24bc dba2 58bb 9151 2bba
000000f0: 9041 113b 6e00 763b 2245 01bc 874f 8bb9
00000100: 5f2e 263c 76c0 4c3c cad1 fe3b 527d 6d3c
00000110: eea8 01bc 6819 f53b cb02 2cbc 2470 ac3b
00000120: 2fe4 07bc ba44 ea3b 30c2 f7ba 2704 a139
00000130: f3d7 1dbc 83d4 97b9 e549 503b 7267 433c
00000140: 8334 a3bb 661a 2b3b 14ae 3ebc 020d c83b
00000150: 4a4e e83b 65d0 af3b 91c5 853b d3b7 9f3b
00000160: 3b61 0ebc ddd2 0b3c 6c6d 13bc bcd6 033a
00000170: e7c3 39bc c351 47bb 82ed a9bc 0a6d 10bc
00000180: f8df 06bc 7766 f239 5c9a 3d3c 70c8 e13b
00000190: 3eb0 423b 647d 6bbb 71dd 37bc 14c0 b33b
000001a0: f389 e43b 2c03 893c 0ad4 40bc b813 12bc
000001b0: 522f 21bb 2f1c eebb 8e12 e7bb 3c89 c5bb
000001c0: d21d af3b ae7d cabb 7eea b83b 822f 6bbc
000001d0: 7f96 eebb ecbb 013b d698 d93b 3be2 e73b
000001e0: 9bc7 9bbb fd4e 15ba 3831 43bb ae66 6fbb
000001f0: 23b3 95bc 0367 49ba bb73 cbbc f17a 80bc

network_body._body_endoder.seq_layers.2.weight f4 [128, 128]
-0.103994966 0.1018967 0.05852307 -0.13493781 0.081581354 0.0061122347 0.08064308 0.026781602
0.06769561 0.0734991 -0.12584189 0.090459324 0.003848427 0.019764045 0.02905084 0.019663619
-0.12721175 -0.19099621 -0.07310279 0.020697616 -0.09187891 0.097711235 0.09654012 0.14656618
0.064297974 0.11017022 0.11768888 -0.145565 0.008515068 -0.14088325 0.10967666 0.0070679444
0.10049586 -0.0002771256 -0.007926739 -0.03416016 0.10212261 -0.09096388 0.16367866 -0.112502925
0.026732944 -0.018783154 0.03232884 -0.1200271 -0.05125543 -0.049896766 0.07688848 -0.082269825
0.2664904 -0.24285214 0.044763368 -0.19596253 -0.05855334 0.08569176 -0.14721557 -0.060634393
0.060765214 0.1664255 -0.06596111 0.04921584 0.107588485 -0.050835893 0.017666921 0.14501546
0.08541695 -0.049841136 -0.069011 0.13395995 -0.0039994614 -0.034872156 0.30823946 -0.08506388
-0.16511814 -0.17058332 0.041651603 -0.06856457 -0.07340189 -0.01272597 0.09814252 0.03286439
0.07340007 -0.09419063 0.042697195 -0.053809166 0.005075145 -0.048393514 0.035873644 0.13834034
0.120317616 -0.24832153 -0.22424299 -0.050465893 0.24536146 0.127314 -0.009086988 -0.08476252
0.070750274 0.15618764 0.23014641 0.018520875 0.047465645 0.2050356 0.042108994 0.029799825
-0.061320547 -0.00111189 -0.061432745 -0.034709573 -0.066049635 -0.099563956 0.32420316 -0.06145867
-0.0027268264 0.12250666 0.12070993 0.11366106 -0.0112456 -0.029317208 0.07249113 -0.037564714
-0.19411957 0.02138477 0.086874746 0.04908093 -0.08873635 0.09092584 0.09396234 -0.041625153
0.07216343 0.06942512 0.12286518 0.046907526 0.0053549944 -0.068155535 -0.032139298 0.004440064
-0.019927124 0.008811843 0.070209324 0.060559683 0.014374632 -0.06599191 -0.03009813 -0.088946715
-0.10406075 0.050748926 0.18265778 -0.027960334 -0.11122037 -0.05664888 0.088222794 0.11073114
0.08788208 0.034062456 0.06376625 -0.09358511 -0.13824748 0.11165689 0.112801924 -0.1209875
0.002027767 -0.008073234 0.09072526 0.07584549 0.17014776 -0.020815156 -0.16037099 0.102195345
-0.029992446 0.07752904 -0.18115819 0.0055012046 -0.05592984 -0.0728342 -0.159698 0.08621488
0.037772086 -0.04954433 -0.1073752 0.009639814 -0.0084839035 -0.08154069 0.060336158 0.031995345
0.11440291 -0.06496565 -0.12804103 -0.056822482 0.10814923 0.04066562 0.13254717 0.035536893
0.056198668 0.09121771 -0.07246856 0.0013126222 -0.11429174 0.0520044 -0.15545054 0.07795834
0.018583553 -0.070905186 -0.1988452 -0.074372925 0.080559656 -0.119313836 0.062151756 -0.011101302
0.12701127 -0.040498555 0.107378416 -0.06768064 -0.12158179 0.14310801 -0.012006834 0.029912654
-0.013425818 -0.086088054 0.047448356 0.08297564 -0.047869112 0.017238572 -0.013857849 -0.09765342
0.03847365 0.094520815 -0.05837749 -0.17396602 0.15182242 0.020071346 -0.046147082 0.12333383
-0.095045075 0.090064056 -0.0048418036 0.14372529 0.040310167 -0.072870545 0.048073553 0.10675999
-0.013267365 -0.14894433 0.00650823 0.0013538658 0.002665625 -0.046479702 -0.09147176 -0.17321339
0.20776749 -0.14678164 -0.0008773432 -0.09679166 -0.0160025 -0.0099770585 -0.065371096 0.012136278
00000000: 50fb d4bd 38af d03d e3b5 6f3d 232d 0abe
00000010: 2014 a73d 2449 c83b 3328 a53d 1765 db3c
00000020: ffa3 8a3d b286 963d b2dc 00be bd42 b93d
00000030: e435 7c3b 35e8 a13c 07fc ed3c 9915 a13c
00000040: cc43 02be 8394 43be eab6 95bd 0c8e a93c
00000050: 032b bcbd d41c c83d d4b6 c53d 7215 163e
00000060: a8ae 833d eda0 e13d de06 f13d fe0e 15be
00000070: c982 0b3c b343 10be 289e e03d 379a e73b
00000080: c6d0 cd3d 2b4b 91b9 27df 01bc 86eb 0bbd
00000090: a925 d13d 454b babd 619b 273e ef67 e6bd
000000a0: 0cff da3c 21df 99bc 3f6b 043d c5d0 f5bd
000000b0: 37f1 51bd 8d60 4cbd b577 9d3d 157d a8bd
000000c0: 6e71 883e 3bae 78be cb59 373d 67aa 48be
000000d0: a1d5 6fbd 297f af3d aebf 16be c55b 78bd
000000e0: f2e4 783d 726b 2a3e 9e16 87bd 8c96 493d
000000f0: 5a57 dc3d 4c39 50bd 38ba 903c ef7e 143e
00000100: 15ef ae3d 3826 4cbd a455 8dbd cc2c 093e
00000110: ea0d 83bb 1bd6 0ebd 90d1 9d3e f935 aebd
00000120: bb14 29be 65ad 2ebe df9a 2a3d 956b 8cbd
00000130: bb53 96bd 9680 50bc f2fe c83d d09c 063d
00000140: c752 963d 04e7 c0bd 41e3 2e3d 0067 5cbd
00000150: 674d a63b 4738 46bd 3ef0 123d 17a9 0d3e
00000160: 1569 f63d 0048 7ebe f49f 65be 53b5 4ebd
00000170: 0940 7b3e 9a5e 023e 97e1 14bc f997 adbd
00000180: 85e5 903d a7ef 1f3e 80ab 6b3e 17b9 973c
00000190: 566b 423d daf4 513e 7b7a 2c3d c31e f43c
000001a0: 412b 7bbd d6bc 91ba e7a0 7bbd a02b 0ebd
000001b0: 0845 87bd 30e8 cbbd f5fd a53e 16bc 7bbd
000001c0: 8eb4 32bb c6e4 fa3d c536 f73d 21c7 e83d
000001d0: 773f 38bc a42a f0bc 3b76 943d 75dd 19bd
000001e0: 48c7 46be 1d2f af3c 63eb b13d 1609 493d
000001f0: 67bb b5bd 5437 ba3d 546f c03d 237f 2abd
00000200: 6cca 933d c22e 8e3d bda0 fb3d 1b22 403d
00000210: f378 af3b 2195 8bbd 7fa4 03bd f57d 913b
00000220: 353e a3bc 8c5f 103c e8c9 8f3d 6e0d 783d
00000230: 9483 6b3c c426 87bd 5b90 f6bc b229 b6bd
00000240: cd1d d5bd 1bde 4f3d a40a 3b3e 120d e5bc
00000250: 81c7 e3bd a808 68bd 27ae b43d 02c7 e23d
00000260: 85fb b33d 1385 0b3d e197 823d 8da9 bfbd
00000270: bf90 0dbe 5eac e43d b204 e73d 4bc8 f7bd
00000280: 49e4 043b 9945 04bc 2ace b93d e154 9b3d
00000290: 373b 2e3e 8c84 aabc 4b38 24be cb4b d13d
000002a0: b8b2 f5bc 8cc7 9e3d 8881 39be 7343 b43b
000002b0: b016 65bd 192a 95bd df87 23be 6d91 b03d
000002c0: e7b6 1a3d ffee 4abd 87e7 dbbd 4ff0 1d3c
000002d0: 1200 0bbc cefe a6bd 0c23 773d 8d0d 033d
000002e0: 134c ea3d b60c 85bd 301d 03be b1be 68bd
000002f0: 587d dd3d fe90 263d 72ba 073e 228f 113d
00000300: 9330 663d 5ad0 ba3d 656a 94bd 4b0c ac3a
00000310: ca11 eabd 9102 553d 6d2e 1fbe 9fa8 9f3d
00000320: 893c 983c bd36 91bd 139e 4bbe d550 98bd
00000330: 76fc a43d d05a f4bd d792 7e3d 3ce2 35bc
00000340: 3e0f 023e d0e1 25bd 37e9 db3d 269c 8abd
00000350: e0ff f8bd e88a 123e 50b8 44bc 620b f53c
00000360: f6f7 5bbc ef4e b0bd 3559 423d 22ef a93d
00000370: 6712 44bd e837 8d3c 080c 63bc 84fe c7bd
00000380: 8c96 1d3d 2194 c13d 3c1d 6fbd 2624 32be
00000390: 5677 1b3e aa6c a43c b904 3dbd 7296 fc3d
000003a0: fea6 c2bd 8173 b83d fea7 9ebb b92c 133e
000003b0: 461c 253d 273d 95bd c6e8 443d fba4 da3d
000003c0: 5d5f 59bc dd84 18be fe42 d53b 3374 b13a
000003d0: c4b1 2e3b 8061 3ebd 8c55 bbbd da5e 31be
000003e0: 00c1 543e ed4d 16be 81fd 65ba b53a c6bd
000003f0: ad17 83bc d176 23bc 48e1 85bd 3dd7 463c

network_body._body_endoder.seq_layers.2.bias f4 [128]
0.0044950587 -0.0049341763 -0.006083227 0.016467305 -0.01155332 0.0029740825 0.0036604377 0.002395062
-0.0077492306 0.0043112836 0.012902206 -0.0104592405 0.015541975 -0.00031103782 -0.0021497884 0.0018258455
-0.0052076564 -0.009534832 -0.0019410037 -0.0047451947 -0.004851315 0.005969651 -0.011371391 -0.009967701
-0.0041018752 -0.0069019794 0.0035952108 -0.0038555195 -0.0001913956 -0.005960199 0.007292537 0.00495699
-0.0047142734 0.012682054 0.004132005 -0.007065079 0.0073175724 0.009657956 -0.0022256838 -0.008590239
-0.013096261 0.005443878 0.006691015 -2.2334429e-05 0.009842201 0.0034365538 0.008232786 -0.012882365
-0.0026683086 -0.005717176 -0.014095772 0.0012680669 -0.0002712757 0.008889884 -0.0071668294 0.010850357
0.0041713896 0.002652859 -0.009908579 0.0014380047 -0.015290732 -0.006574305 -0.0008148622 -0.004984797
-0.0029715833 -0.00024361187 0.0043248106 -0.0017772567 0.0029162653 0.00069074193 -0.0015811508 -0.00021936437
-0.0036869114 -0.0076384563 -0.0070593227 -0.011643087 -0.0008742619 -0.0077206297 -0.00031164417 -0.005709882
0.0015074548 -0.0027307186 -0.0026926382 -0.0049361004 -0.0068806973 -0.009280331 0.002845094 0.014736456
-0.00929193 -0.0034671398 0.011784444 0.0074637607 0.0006980422 0.0036497167 0.013661157 0.0096278405
0.004506921 -0.0068296785 0.00021586844 0.000778455 -0.0129061155 0.014093116 -0.005402852 -0.013716695
-0.008423961 -0.008439456 0.008989674 -0.006879295 -0.0047950638 -0.0021757202 0.0060049687 0.004240378
0.01546747 -0.011315259 0.0013820516 0.005837444 0.0004685262 -0.006928416 -0.012413764 -0.011466515
0.0004901562 0.002938157 -0.002916452 -0.010290149 -0.0006991436 0.010223385 -0.0082616415 -0.004486178
00000000: 494b 933b dfae a1bb cf55 c7bb 71e6 863c
00000010: 234a 3dbc d3e8 423b f4e3 6f3b 79f6 1c3b
00000020: 42ed fdbb ab45 8d3b c663 533c 3c5d 2bbc
00000030: c5a3 7e3c ca12 a3b9 77e3 0cbb 3551 ef3a
00000040: fda4 aabb fc37 1cbc 4769 feba 947d 9bbb
00000050: c8f7 9ebb 109d c33b 124f 3abc 914f 23bc
00000060: 0669 86bb 002a e2bb a19d 6b3b e2ac 7cbb
00000070: 5db1 48b9 c64d c3bb 3cf6 ee3b 3f6e a23b
00000080: 317a 9abb 64c8 4f3c c565 873b 2e82 e7bb
00000090: 3fc8 ef3b 673c 1e3c c7dc 11bb 13be 0cbc
000000a0: b391 56bc 8f62 b23b 4d40 db3b d25a bbb7
000000b0: 2f41 213c ce37 613b cfe2 063c 8e10 53bc
000000c0: cade 2ebb 2657 bbbb f4f1 66bc 4435 a63a
000000d0: 023a 8eb9 e0a6 113c b9d7 eabb b2c5 313c
000000e0: 27b0 883b 97db 2d3b 9857 22bc 6e7b bc3a
000000f0: fa85 7abc 446d d7bb 7a9c 55ba 8257 a3bb
00000100: e5be 42bb 1072 7fb9 24b7 8d3b d7f2 e8ba
00000110: d01e 3f3b e812 353a 9e3e cfba 2d05 66b9
00000120: 1ca0 71bb 044c fabb e451 e7bb a5c2 3ebc
00000130: b92e 65ba 56fd fcbb 2c64 a3b9 f619 bbbb
00000140: ca95 c53a dbf5 32bb f976 30bb 03bf a1bb
00000150: 7977 e1bb 880c 18bc c274 3a3b 2d71 713c
00000160: 2e3d 18bc f438 63bb 8a13 413c 9092 f43b
00000170: d2fc 363a 1630 6f3b 0cd3 5f3c 17be 1d3c
00000180: cbae 933b 7fcb dfbb be5a 6239 3b11 4c3a
00000190: 2c74 53bc d0e6 663c 680a b1bb fdbb 60bc
000001a0: a704 0abc a545 0abc 6d49 133c b66b e1bb
000001b0: e91f 9dbb 8796 0ebb 54c5 c43b def2 8a3b
000001c0: 456b 7d3c a363 39bc f525 b53a 0848 bf3b
000001d0: 86a4 f539 c407 e3bb 1a63 4bbc 0dde 3bbc
000001e0: d37d 003a 188e 403b f221 3fbb 0398 28bc
000001f0: bc46 37ba fc7f 273c d65b 07bc ca00 93bb

action_model._continuous_distribution.log_sigma f4 [1, 2]
0.0020720128 -0.00042181287
00000000: 9bca 073b c426 ddb9

action_model._continuous_distribution.mu.weight f4 [2, 128]
-0.013005908 -0.018218955 0.01843967 0.008221548 0.012298178 -0.0121933045 0.008596993 -0.025923248
-0.00020433478 -0.014234278 -0.03350829 0.008402101 -0.0023659046 0.008124699 0.0023258561 0.048651457
0.033255607 -0.005916707 0.006773487 0.0026825205 0.017950486 -0.03949881 0.0014438828 -0.0027202943
-0.0007395903 -0.009461878 0.0010427773 0.015260098 -0.013828338 -0.005729794 0.03998398 -0.02010046
0.028734596 -0.03347994 -0.012495986 0.005027651 0.038500704 -0.012294791 -0.0052176923 0.0042278403
-0.020527687 -0.0012784014 -0.019022781 0.013187787 -0.017886128 -0.004336529 -0.011383261 0.017327419
-0.0067065135 -0.006109117 0.004176618 -0.012310525 0.0035213274 -0.027992718 0.0016406154 -0.02796387
0.0048056655 0.005615092 0.006269047 -0.014830396 0.012372124 0.013383019 0.010231847 0.020828461
-0.0065935375 0.013506685 -0.014392619 -0.02170544 -0.016223742 -0.0063462695 0.02897742 -0.00878521
0.023008477 0.020647412 0.029217012 0.014832756 -0.017679282 0.021683766 -0.009306652 0.03879024
0.0020344493 0.018606365 -0.024766248 0.022233853 0.0041155564 0.0057744323 0.029104613 0.0014254577
0.016153451 -0.019531079 -0.05794791 -0.011339153 -0.0084069995 -0.012290235 -0.017552987 -0.0015393392
0.015261753 0.023421356 -0.014269447 0.031851582 0.00627433 -0.020520674 0.020921959 0.015988309
0.011140069 0.023243656 -0.0381516 0.052980315 -0.01778148 -0.00050803705 -0.06753355 -0.007444606
0.0029005918 0.021512186 0.024798818 -0.018850919 -0.0010558979 0.018262837 0.0100847725 -0.00976249
0.0028130389 0.013671968 0.024108028 -0.003816142 -0.0033815107 0.0049339565 0.049900394 0.018371804
-0.025680607 0.022823421 -0.0048315017 -0.010635034 0.0066989046 -0.0033241212 0.0021058102 0.004459212
0.027158884 -0.02479161 -0.03320357 0.008591568 -0.005347222 -0.023182064 0.0063317176 -0.017736567
0.002711808 -0.002401635 0.02302862 0.026189458 -0.006683861 -0.008604853 0.007698288 0.029602941
0.0032369455 0.03023126 -0.0034632327 0.0056044552 -0.0008703739 0.008178741 -0.04849021 0.0059845825
0.0006944423 0.013526844 -0.0031466566 0.021358749 -0.022938812 0.006751282 0.00105152 0.015643021
0.01656047 -0.018115556 -0.032392792 -0.018172275 -0.012609958 -0.011152319 -0.0035087217 0.023808252
0.03924435 0.008974053 0.010196275 0.0046254997 -0.022997683 -0.020100571 0.0038497897 -0.033636913
0.00030363555 -0.024012402 0.007975034 0.00072497176 0.016293062 0.00014866034 -0.015127948 0.03402079
0.00074757024 -0.0019199142 0.010619582 0.04138553 -0.00075082487 0.0019396933 -0.0006957661 0.0033259583
0.0025827866 0.027392132 0.010126299 0.013010652 0.0059860325 0.0012335571 0.0056555574 0.0026896747
-0.0013198117 -0.006728672 0.004411716 0.03498949 -0.007060609 0.025607927 0.009049217 -0.016116835
0.033230677 0.03123952 0.02526245 -0.037595753 0.003786453 -0.0041788463 -0.04220733 0.0012327079
-0.009691367 0.023842098 0.0010500103 0.0028735772 0.016207505 -0.028797682 0.013615403 0.03865974
0.0007618284 0.014642157 -0.017727833 0.02156151 0.028693344 -0.00055308396 0.03737062 -0.014876179
-0.045749523 0.00804751 0.03710364 -0.025364447 0.019634109 0.0037365744 0.004092386 0.007873795
-0.011029665 -0.022106957 -0.017640281 0.0021640463 -0.009838103 -0.006232182 -0.002682851 0.008528668
00000000: bb16 55bc eb3f 95bc ca0e 973c acb3 063c
00000010: 4c7e 493c 6dc6 47bc 67da 0c3c fe5c d4bc
00000020: b342 56b9 e436 69bc fd3f 09bd f7a8 093c
00000030: 4b0d 1bbb 751d 053c 646d 183b c046 473d
00000040: 0837 083d f0e0 c1bb 21f4 dd3b 3acd 2f3b
00000050: e60c 933c 81c9 21bd ab40 bd3a f746 32bb
00000060: 11e1 41ba fe05 1bbc cdad 883a 7d05 7a3c
00000070: 4190 62bc ffc0 bbbb 3ec6 233d b8a9 a4bc
00000080: d164 eb3c 4322 09bd f7bb 4cbc febe a43b
00000090: eab2 1d3d 1770 49bc 2df9 aabb b289 8a3b
000000a0: ae29 a8bc 0890 a7ba aad5 9bbc 9611 583c
000000b0: ee85 92bc 7119 8ebb db80 3abc 3bf2 8d3c
000000c0: 50c2 dbbb fd2e c8bb 03dc 883b 16b2 49bc
000000d0: 12c6 663b fc50 e5bc eb09 d73a 7c14 e5bc
000000e0: d878 9d3b cefe b73b 946c cd3b 30fb 72bc
000000f0: 73b4 4a3c 7344 5b3c 7aa3 273c 73a0 aa3c
00000100: 9a0e d8bb 254b 5d3c 05cf 6bbc 9bcf b1bc
00000110: a7e7 84bc 5ef4 cfbb 0e62 ed3c d7ef 0fbc
00000120: 467c bc3c c324 a93c 8458 ef3c 1605 733c
00000130: 24d4 90bc 27a2 b13c ed7a 18bc 84e2 1e3d
00000140: 6554 053b 606c 983c 96e2 cabc c523 b63c
00000150: cadb 863b 7337 bd3b cc6c ee3c 6cd6 ba3a
00000160: 3e54 843c a4ff 9fbc ca5a 6dbd dbc7 39bc
00000170: 83bd 09bc fb5c 49bc 48cb 8fbc a7c3 c9ba
00000180: 6f0c 7a3c 25de bf3c 66ca 69bc ce76 023d
00000190: e598 cd3b f91a a8bc 8764 ab3c eaf9 823c
000001a0: d684 363c 7b69 be3c da44 1cbd e301 593d
000001b0: 77aa 91bc ca2d 05ba 084f 8abd e2f1 f3bb
000001c0: db17 3e3b 533a b03c e426 cb3c 3e6d 9abc
000001d0: 0e66 8aba f29b 953c 9a3a 253c daf2 1fbc
000001e0: f65a 383b 6400 603c 337e c53c 3d18 7abb
000001f0: 569c 5dbb 07ad a13b 5b64 4c3d 7780 963c
00000200: 2360 d2bc 2ff8 ba3c 9351 9ebb 913e 2ebc
00000210: 7c82 db3b 80d9 59bb a201 0a3b 951e 923b
00000220: 4f7c de3c c617 cbbc 7700 08bd a6c3 0c3c
00000230: c037 afbb 50e8 bdbc 4c7a cf3b 474c 91bc
00000240: 97b8 313b c064 1dbb 84a6 bc3c 468b d63c
00000250: 4a04 dbbb 5ffb 0cbc ec41 fc3b de81 f23c
00000260: ef22 543b 8ca7 f73c 67f7 62bb 94a5 b73b
00000270: ce29 64ba 2000 063c ac9d 46bd 511a c43b
00000280: 3c0b 363a b29f 5d3c 2338 4ebb 8bf8 ae3c
00000290: 2dea bbbc dc39 dd3b 28d3 893a cb25 803c
000002a0: d3a9 873c 1367 94bc 4eae 04bd 06de 94bc
000002b0: ff99 4ebc 37b8 36bc 95f2 65bb 8609 c33c
000002c0: afbe 203d e807 133c 470e 273c 8191 973b
000002d0: a365 bcbc f4a9 a4bc c14c 7c3b dcc6 09bd
000002e0: 4631 9f39 a8b5 c4bc b8a9 023c 080c 3e3a
000002f0: 0779 853c b5e1 1b39 36db 77bc 6259 0b3d
00000300: 97f8 433a a1a5 fbba c1fd 2d3c e083 293d
00000310: 01d3 44ba 4f3d fe3a 1364 36ba 52f8 593b
00000320: f843 293b 7765 e03c c7e8 253c a12a 553c
00000330: 7b26 c43b 4faf a13a 4152 b93b 4145 303b
00000340: 88fd acba 317c dcbb 2890 903b 2451 0f3d
00000350: ae5c e7bb b7c7 d13c 2b43 143c 7407 84bc
00000360: e41c 083d 06ea ff3c 33f3 ce3c 01fe 19bd
00000370: 2426 783b b4ee 88bb 98e1 2cbd d092 a13a
00000380: 8ac8 1ebc 8150 c33c 80a0 893a a052 3c3b
00000390: 9ac5 843c 1ee9 ebbc 2413 5f3c ad59 1e3d
000003a0: 70b5 473a a8e5 6f3c f639 91bc c4a1 b03c
000003b0: 4e0e eb3c d6fc 10ba ef11 193d 38bb 73bc
000003c0: da63 3bbd b4d9 033c fdf9 173d 1ac9 cfbc
000003d0: b6d7 a03c 51e1 743b 6c19 863b 1701 013c
000003e0: c5b5 34bc a619 b5bc 5a82 90bc acd2 0d3b
000003f0: ff2f 21bc 5537 ccbb c5d2 2fbb d4bb 0b3c

action_model._continuous_distribution.mu.bias f4 [2]
-0.0051001036 -0.0061181453
00000000: c51e a7bb b97a c8bb

action_model._discrete_distribution.branches.0.weight f4 [1, 128]
0.010066702 0.008652757 -0.0018854941 0.018880364 -0.0048189787 -0.004045112 -0.0052096634 0.0027133613
0.0014759239 0.005396062 0.0037059095 0.0054136734 0.0053427755 -0.002861046 -0.010453768 -0.0034102679
0.007315287 -0.01278863 -0.026382688 -0.0049350853 0.0010500591 -0.0024699566 -0.00362456 0.0015350701
0.007670022 0.0009468854 -0.009529272 -0.00040358157 0.00035260097 -0.0022807973 0.004962792 0.0059741484
-0.003985732 0.0059783417 -0.0064866096 0.0013377236 -0.00010462625 -0.0056112884 0.0066179247 -0.013693409
0.003083898 0.00075229857 -0.003874207 0.002714251 0.003091496 -0.020799762 -0.0059118196 -0.009275995
0.004374366 -0.003958223 -0.00717991 0.000157951 -0.0036328796 0.0060379533 -0.0128562 -0.016528787
0.0036943078 0.010262461 0.0009861051 0.005745117 0.0066440566 0.0125696985 0.002936637 -0.0075062998
0.0040487056 0.004101256 0.008994108 -0.01661693 -0.012093692 -0.009195683 -0.00053734117 0.009707948
0.013411974 0.014909494 0.006287321 -0.015871847 0.0035227686 0.00559168 -0.0078107947 -0.008368797
0.0051748944 0.0030700795 0.0013343178 -0.0005920382 -0.0027455192 0.008371178 5.5856042e-05 0.01034422
0.010129289 0.0049416013 -0.012358873 0.00040456335 -0.014779009 0.0033470192 0.016688947 -0.003964082
0.0048883357 0.0046949587 -0.013053203 -0.016119419 -0.009552978 -0.0005167112 0.0021951997 -0.0011418378
-0.010312612 -0.004235023 -0.014516281 -0.008145804 -0.0051874705 0.004098375 -0.007032042 -0.0081574125
-0.006600514 0.0037100397 -0.013591458 0.0074262144 -0.0062660067 0.015444671 -0.0047659967 0.0106583275
0.0021717593 0.0042820447 -0.008200434 -0.006145719 0.008286522 -0.0011785498 -0.0016886786 -0.003934657
00000000: cfee 243c 4bc4 0d3c af22 f7ba feaa 9a3c
00000010: 86e8 9dbb dc8c 84bb d3b5 aabb a6d2 313b
00000020: ca73 c13a 73d1 b03b d8de 723b 2f65 b13b
00000030: 7312 af3b 6380 3bbb 4846 2bbc cd7e 5fbb
00000040: 13b5 ef3b 6787 51bc 8220 d8bc 7fb6 a1bb
00000050: 23a2 893a ffde 21bb 078a 6dbb 6834 c93a
00000060: cf54 fb3b 6738 783a aa20 1cbc cd97 d3b9
00000070: 4ddd b839 6e79 15bb eb9e a23b cac2 c33b
00000080: be9a 82bb f7e5 c33b a08d d4bb 8e56 af3a
00000090: ca6a dbb8 e6de b7bb 2ddb d83b 525a 60bc
000000a0: 391b 4a3b e735 453a 68e6 7dbb 93e1 313b
000000b0: b29a 4a3b 4364 aabc f0b7 c1bb 58fa 17bc
000000c0: d756 8f3b fbb3 81bb 7345 ebbb a69f 2539
000000d0: 9b15 6ebb 06da c53b d0a2 52bc 6167 87bc
000000e0: 331c 723b e223 283c 3240 813a 8941 bc3b
000000f0: 63b6 d93b 23f1 4d3c 9874 403b 68f7 f5bb
00000100: 01ab 843b d463 863b 065c 133c 3a20 88bc
00000110: 9f24 46bc 7da9 16bc 5bdc 0cba 160e 1f3c
00000120: e5bd 5b3c f346 743c df05 ce3b ad05 82bc
00000130: 40de 663b 693a b73b b2f1 ffbb 471d 09bc
00000140: 2992 a93b 6333 493b 47e4 ae3a 0333 1bba
00000150: 2bee 33bb 4427 093c f846 6a38 ce7a 293c
00000160: 51f5 253c 28ed a13b df7c 4abc 931b d439
00000170: a823 72bc aa59 5b3b 42b7 883c 21e5 81bb
00000180: 552e a03b 2bd8 993b 1add 55bc df0c 84bc
00000190: 1884 1cbc e773 07ba 57dd 0f3b b8a9 95ba
000001a0: 3bf6 28bc f3c5 8abb b2d5 6dbc fa75 05bc
000001b0: a8fb a9bb a94b 863b 0b6d e6bb aba6 05bc
000001c0: 2049 d8bb 2324 733b b5ae 5ebc 9a57 f33b
000001d0: 1353 cdbb a50b 7d3c 142c 9cbb 44a0 2e3c
000001e0: 1354 0e3b 6550 8c3b 1d5b 06bc 0762 c9bb
000001f0: 31c4 073c 9279 9aba a756 ddba 4cee 80bb

exp_avg f4 [128, 80]
2.460382e-06 -3.99725e-07 1.13289844e-13 -1.3900208e-05 -1.3293181e-05 8.927105e-06 2.9800833e-07 2.964756e-15
-1.3227032e-05 -9.844092e-06 6.502597e-06 -1.5628896e-07 -2.0334026e-08 -1.9077148e-05 -1.9283207e-05 9.420395e-06
2.0785494e-06 1.3434222e-17 -1.2453652e-05 -4.6650703e-06 4.1796357e-06 -4.99453e-07 -4.669339e-13 -1.471222e-05
-1.2521117e-05 6.147135e-06 -4.089174e-07 -1.2945541e-12 -7.1448358e-06 -3.428966e-06 1.7625262e-06 8.81824e-08
-3.2327875e-08 -1.1925711e-05 -1.0766616e-05 -1.6966871e-05 2.5031352e-07 1.1393888e-12 1.793017e-05 1.9383358e-05
2.5061515e-06 -7.087934e-07 9.570632e-16 3.9888137e-06 3.8129356e-06 -2.2146622e-05 -3.125806e-06 1.6664049e-13
3.1654494e-05 2.5575673e-05 -3.0684741e-06 -4.089885e-07 -3.9892246e-11 1.7811813e-06 2.6780062e-06 -2.0440679e-05
-5.931346e-07 -1.8441793e-06 3.428378e-05 2.8532191e-05 -1.0677222e-06 4.349894e-07 -2.4452215e-11 -5.9993404e-06
-3.047075e-06 -1.4394141e-06 1.669805e-06 2.1857887e-09 1.2081208e-05 1.6576432e-05 2.2200265e-07 -1.3479985e-07
-6.7389976e-11 -3.7989262e-06 -5.669069e-07 1.958613e-05 -3.5306884e-06 3.2880162e-06 9.856157e-06 0.00010457894
-2.1162361e-05 -7.934462e-06 -1.6218312e-13 6.0814637e-06 2.3380508e-06 -2.620356e-05 4.6960076e-06 2.8990903e-15
-2.2996635e-05 -1.8285931e-05 -2.38393e-05 -6.7939695e-06 1.3500667e-06 1.6686306e-05 1.714123e-05 -2.1368396e-05
-7.625046e-06 -1.5202319e-17 -4.6487665e-05 -5.6954494e-05 -2.4583998e-05 -5.4139637e-06 -2.8163149e-11 2.0096631e-05
1.7616148e-05 -2.6898444e-05 1.2545835e-06 -5.6114277e-13 -4.4372737e-05 -4.234782e-05 -2.5230665e-05 2.9129653e-06
3.998464e-08 2.4173709e-05 2.7884424e-05 -1.5179109e-05 8.1327994e-07 5.552249e-13 -4.5420045e-05 -4.1751784e-05
-9.397906e-06 1.1279998e-06 -2.2693798e-15 2.4987125e-05 2.559079e-05 3.1868287e-05 5.662798e-06 -9.683676e-13
-7.664989e-05 -7.111297e-05 1.9669198e-05 -2.3070459e-06 -1.8737512e-11 1.137385e-06 5.165639e-06 4.0362782e-05
9.665651e-06 3.8147614e-06 -0.00010387159 -7.730944e-05 7.3448787e-06 -1.1297623e-06 -3.5170002e-11 1.5333833e-05
1.679932e-05 1.4368264e-05 -2.9784263e-05 -3.184772e-09 -2.0182208e-05 -6.742478e-05 1.07322e-05 -1.8379365e-06
2.2918324e-10 -6.5894264e-06 -1.0139906e-05 -4.147648e-05 2.5145018e-06 -3.9324397e-05 -4.641389e-05 -0.0007725878
-1.4275382e-06 -2.3602577e-07 -1.5334766e-14 -4.741824e-06 -5.0747867e-06 -5.037608e-06 -1.5076279e-07 5.2187004e-17
-4.1255225e-06 -3.6647677e-06 -2.6501832e-06 -4.2660386e-09 -6.5681984e-09 -3.4265809e-06 -3.9268925e-06 -2.8833108e-06
7.4426754e-07 -1.5122987e-18 -4.090689e-06 -2.2402917e-06 -2.1533674e-06 -3.8504957e-08 -2.7074916e-13 -2.558335e-06
-2.8584345e-06 -3.918065e-06 1.0952106e-07 -2.2528745e-14 -3.8994745e-07 -5.8855846e-07 -1.7035125e-06 -3.398545e-08
-1.1617789e-09 -2.3021637e-06 -2.7635344e-06 -5.467643e-06 -2.1375115e-08 -2.1924593e-13 1.0251335e-06 6.2081807e-07
-2.4154078e-06 -4.4223395e-08 1.0914176e-16 -1.0881038e-06 -1.3508986e-06 -4.5464367e-06 9.621626e-07 8.5478076e-15
8.688494e-08 2.1186634e-07 -1.4222604e-06 -1.223405e-08 6.1691716e-13 -3.0949618e-06 -3.1851562e-06 -4.287367e-06
4.4084715e-07 -6.005647e-07 2.0822993e-06 1.6478202e-07 -8.27241e-07 1.3140668e-07 9.622024e-13 -4.2649817e-06
-4.1937365e-06 -2.8455395e-07 -1.8918189e-06 -1.929053e-11 -2.1643007e-06 -2.8623888e-06 -3.2193512e-07 6.417342e-08
-2.5051046e-11 -5.7446158e-08 -8.7477684e-07 -6.044036e-06 2.221907e-06 -3.159755e-06 -1.4265194e-06 -4.603644e-05
2.1719048e-07 -5.079738e-07 9.545697e-15 -4.220858e-07 -2.3318557e-07 -5.234515e-07 1.6908817e-07 -3.8301628e-16
-1.8150452e-06 4.2256033e-08 1.9952925e-06 1.8642568e-07 -1.617636e-08 -3.3164295e-06 -2.3038394e-06 -4.5512387e-08
00000000: 0a1d 2536 c999 d6b4 261b ff29 f034 69b7
00000010: c705 5fb7 a0c5 1537 f4fd 9f34 18a2 5527
00000020: abe9 5db7 0e28 25b7 e230 da36 62d0 27b4
00000030: ffaa aeb2 dd07 a0b7 5fc2 a1b7 4a0c 1e37
00000040: 357d 0b36 52d1 7723 07f0 50b7 a688 9cb6
00000050: cc3e 8c36 2612 06b5 226e 03ab 81d4 76b7
00000060: ca11 52b7 7d43 ce36 2e89 dbb4 3a31 b6ab
00000070: acbd efb6 301d 66b6 f08f ec35 c95e bd33
00000080: e0d8 0ab3 8a14 48b7 43a2 34b7 1454 8eb7
00000090: d462 8634 cf5a a02b bf68 9637 7299 a237
000000a0: 5b2f 2836 e943 3eb5 66ed 8926 a6d7 8536
000000b0: bce1 7f36 82c7 b9b7 f0c4 51b6 da9e 3b2a
000000c0: c1c4 0438 578b d637 fceb 4db6 f492 dbb4
000000d0: ad72 2fae ec10 ef35 ccb7 3336 0678 abb7
000000e0: e637 1fb5 8585 f7b5 eecb 0f38 6a58 ef37
000000f0: a84e 8fb5 7d88 e934 7e15 d7ad f14d c9b6
00000100: 5a7c 4cb6 e431 c1b5 101e e035 cd34 1631
00000110: 65b0 4a37 9e0d 8b37 a05f 6e34 80bd 10b4
00000120: 2f31 94ae 0ef1 7eb6 8c2d 18b5 e54c a437
00000130: c4f0 6cb6 b0a7 5c36 df5b 2537 6451 db38
00000140: d385 b1b7 411e 05b7 1a9a 36aa 600f cc36
00000150: 68e7 1c36 b7cf dbb7 6692 9d36 c7e6 5027
00000160: e6e8 c0b7 bd64 99b7 82fa c7b7 c1f7 e3b6
00000170: f033 b535 92f9 8b37 83ca 8f37 4840 b3b7
00000180: a5da ffb6 7637 8ca3 c0fb 42b8 6ce2 6eb8
00000190: bc39 ceb7 98a9 b5b6 c6b9 f7ad 3095 a837
000001a0: 64c6 9337 f8a3 e1b7 2963 a835 99f2 1dab
000001b0: dd1c 3ab8 a09e 31b8 71a6 d3b7 5d7c 4336
000001c0: 94bb 2b33 a5c8 ca37 58e9 e937 c7a9 7eb7
000001d0: 2c50 5a35 2c48 1c2b 6781 3eb8 a31e 2fb8
000001e0: b3ab 1db7 c765 9735 ab86 23a7 719b d137
000001f0: ceab d637 50aa 0538 1003 be36 1f49 88ab
00000200: 19bf a0b8 7c22 95b8 48ff a437 bfd2 1ab6
00000210: 20d1 a4ad 40a8 9835 8054 ad36 354b 2938
00000220: a829 2237 8d00 8036 a3d5 d9b8 3121 a2b8
00000230: 0774 f636 56a2 97b5 e7ad 1aae 28a1 8037
00000240: 44ec 8c37 390f 7137 38d9 f9b7 1adb 5ab1
00000250: f64c a9b7 6766 8db8 730e 3437 04af f6b5
00000260: 59fd 7b2f be1a ddb6 911e 2ab7 08f7 2db8
00000270: d0be 2836 40f0 24b8 89ac 42b8 7d87 4aba
00000280: d799 bfb5 456e 7db4 901f 8aa8 f51b 9fb6
00000290: 1648 aab6 b908 a9b6 5ce1 21b4 8aab 7024
000002a0: f86d 8ab6 3bf0 75b6 cdd9 31b6 7994 92b1
000002b0: 7cae e1b1 36f4 65b6 c0c3 83b6 e77e 41b6
000002c0: adc9 4735 082d dfa1 c042 89b6 eb57 16b6
000002d0: 9282 10b6 a660 25b3 116b 98aa dcaf 2bb6
000002e0: 88d3 3fb6 ec77 83b6 d731 eb33 c0eb caa8
000002f0: f859 d1b4 6efd 1db5 3ea4 e4b5 66f7 11b3
00000300: 76ac 9fb0 df7e 1ab6 2975 39b6 b276 b7b6
00000310: 609c b7b2 56d9 76aa 5297 8935 4ba6 2635
00000320: 6418 22b6 23f0 3db3 eca9 fb24 f60a 92b5
00000330: 8650 b5b5 988d 98b6 a823 8135 cefb 1928
00000340: 8095 ba33 607d 6334 7fe4 beb5 ec2d 52b2
00000350: 91a5 2d2b 0ab3 4fb6 91c0 55b6 34dc 8fb6
00000360: 92ad ec34 7e36 21b5 a1bd 0b36 f0ee 3034
00000370: 920f 5eb5 cb18 0d34 ff6a 872b ea1b 8fb6
00000380: ecb7 8cb6 ccc4 98b4 67ea fdb5 69ae a9ad
00000390: 673e 11b6 7717 40b6 6dd6 acb4 b6cf 8933
000003a0: f159 dcad b8ba 76b3 35d2 6ab5 e0cd cab6
000003b0: 121c 1536 2d0c 54b6 d576 bfb5 4017 41b8
000003c0: dd34 6934 b25b 08b5 c2f5 2b28 089b e2b4
000003d0: 9061 7ab4 5083 0cb5 9a8e 3534 3acb dca5
000003e0: 7a9c f3b5 007d 3533 dde6 0536 4d2c 4834
000003f0: 31f4 8ab2 d38f 5eb6 a99b 1ab6 6679 43b3

exp_avg_sq f4 [128, 80]
1.7971648e-10 6.7927663e-10 1.7866828e-13 5.9441136e-09 6.0631087e-09 1.9386824e-10 6.751555e-10 3.5163454e-12
5.7553904e-09 5.919026e-09 1.7328483e-10 6.2654876e-10 9.291684e-13 5.814799e-09 6.0833676e-09 3.7830866e-10
5.4025695e-10 2.256261e-11 5.886212e-09 6.05955e-09 1.0749163e-10 6.1606464e-10 4.028324e-13 5.6353033e-09
5.816199e-09 3.4477834e-10 4.461972e-10 1.7697298e-12 5.9848553e-09 6.059594e-09 1.2786068e-10 6.449976e-10
3.417195e-13 5.3847065e-09 5.4879123e-09 7.359412e-10 3.6368028e-10 4.3612303e-13 5.707904e-09 5.8189253e-09
1.1801722e-10 7.783083e-10 5.687176e-13 4.6171893e-09 4.767256e-09 1.0680787e-09 3.081952e-10 2.7290884e-13
5.2897198e-09 5.4111085e-09 9.5683524e-11 4.802492e-10 1.1547871e-12 4.1525534e-09 4.2643338e-09 1.1166936e-09
2.9595562e-10 1.9554816e-11 4.924119e-09 5.126615e-09 1.1340406e-10 2.7355906e-10 2.153659e-12 3.7990597e-09
3.8674606e-09 7.0843215e-10 3.1293437e-10 5.5372144e-12 4.855803e-09 4.9420996e-09 2.0543219e-10 2.7085031e-10
1.1045671e-12 3.28498e-09 3.4164613e-09 5.295604e-09 7.371116e-09 5.568349e-09 3.7039158e-09 4.181898e-06
2.8942755e-09 4.748458e-09 7.7740375e-13 2.3744663e-08 2.4900908e-08 3.0754657e-09 5.024736e-09 1.3043228e-11
2.1648148e-08 2.3118558e-08 2.8913019e-09 2.6109723e-09 1.7415863e-12 2.6892497e-08 2.768132e-08 3.0753862e-09
2.0317785e-09 3.9593004e-10 2.6836346e-08 2.7892218e-08 2.1186237e-09 2.0590607e-09 6.5432893e-12 3.021308e-08
3.033114e-08 3.3236525e-09 1.4317574e-09 5.31215e-12 2.8790026e-08 2.8842253e-08 2.0018698e-09 1.7198802e-09
3.41304e-11 3.0624008e-08 3.0650497e-08 3.4063872e-09 2.1710793e-09 7.7659537e-13 2.6999745e-08 2.751699e-08
1.9349142e-09 1.9744928e-09 3.5452958e-12 3.0052664e-08 3.0600876e-08 3.295174e-09 2.0640862e-09 7.2398992e-12
2.343757e-08 2.5141004e-08 1.647887e-09 1.842125e-09 3.4267684e-13 2.9487532e-08 3.0146307e-08 2.8885698e-09
2.0522108e-09 2.3032415e-10 2.0988887e-08 2.2721315e-08 1.2987544e-09 1.209397e-09 4.7136368e-11 2.7998668e-08
2.9238764e-08 2.8364988e-09 2.2208755e-09 3.3410041e-12 1.799279e-08 1.9710416e-08 1.5173642e-09 1.0129044e-09
1.1708155e-11 2.8135496e-08 2.8882743e-08 2.8911842e-08 3.7870826e-08 3.0186587e-08 2.126251e-08 2.3604258e-05
5.04217e-11 2.3807342e-10 5.4197064e-14 1.0001715e-09 1.04161e-09 5.54947e-11 1.4750703e-10 7.7192284e-13
1.1301158e-09 1.1663479e-09 2.3703543e-11 5.3851545e-11 8.6647725e-13 1.0623739e-09 1.0858454e-09 7.127004e-11
3.7533903e-11 6.9936847e-12 1.0779554e-09 1.1336605e-09 1.987312e-11 9.581051e-11 1.645844e-15 9.745454e-10
1.0175856e-09 6.3902904e-11 2.8334708e-11 4.3609027e-12 1.1373179e-09 1.1727951e-09 3.56804e-11 9.409398e-11
2.0624497e-13 9.898227e-10 9.884775e-10 6.357838e-11 2.6080202e-11 1.3002362e-13 1.1434406e-09 1.182829e-09
2.5227102e-11 9.217091e-11 5.9886835e-14 9.962243e-10 9.819748e-10 6.4212774e-11 3.062819e-11 9.703591e-15
1.0160424e-09 1.0218625e-09 2.2627155e-11 2.7450686e-10 3.0263346e-13 7.639876e-10 8.051996e-10 3.5281302e-11
7.41379e-11 8.982221e-13 9.873841e-10 9.760005e-10 1.7083536e-11 5.1679133e-11 3.4071235e-13 7.8955287e-10
8.0106927e-10 3.165593e-11 2.435082e-11 1.4590565e-11 9.910757e-10 9.78632e-10 2.0827331e-11 6.085287e-11
1.3312668e-12 7.407019e-10 7.6171247e-10 1.664046e-09 2.1543367e-09 8.4412904e-10 1.02372e-09 3.0097576e-07
2.8514285e-11 3.290993e-11 3.71542e-14 2.0527989e-10 2.1726071e-10 2.7745821e-11 3.64193e-11 9.945195e-14
2.1097808e-10 2.2066654e-10 2.5106786e-11 2.9567845e-11 3.702783e-14 2.070667e-10 2.2475527e-10 3.1703612e-11
00000000: b199 452f d8b7 3a30 a029 492a fa3c cc31
00000010: ab53 d031 0f29 552f d895 3930 d970 772c
00000020: f3c0 c531 4e60 cb31 5887 3e2f 7339 2c30
00000030: d2c4 822b 83cb c731 de05 d131 36fa cf2f
00000040: 3481 1430 7b76 c62d ab3f ca31 5e34 d031
00000050: 6860 ec2e b257 2930 44c6 e22a a7a0 c131
00000060: d4d7 c731 3d8b bd2f ac4c f52f 3c11 f92b
00000070: 58a3 cd31 c134 d031 9595 0c2f ac4b 3130
00000080: f85e c02a 6104 b931 3090 bc31 424b 4a30
00000090: 73ef c72f f483 f52a 411f c431 cfef c731
000000a0: e5c2 012f 94f0 5530 6c14 202b 3aa5 9e31
000000b0: 3acd a331 aecb 9230 9e6e a92f 4fa2 992a
000000c0: dec0 b531 9dec b931 0969 d22e 8802 0430
000000d0: 9785 a22b 3fae 8e31 7a85 9231 2a7a 9930
000000e0: 0db4 a22f 8801 ac2d 0231 a931 2f26 b031
000000f0: cf60 f92e 0464 962f df8c 172c e288 8231
00000100: 8be2 8431 7bbb 4230 9909 ac2f cbd2 c22c
00000110: 18d8 a631 2bcf a931 05e0 612f cbe6 942f
00000120: 3974 9b2b fbbd 6131 06c7 6a31 a0f4 b531
00000130: 0645 fd31 b753 bf31 fa87 7e31 3b52 8c36
00000140: a2e4 4631 e127 a331 d8d1 5a2b 11f7 cb32
00000150: ade5 d532 2a58 5331 0ca6 ac31 7a75 652d
00000160: c8f4 b932 3f96 c632 52b0 4631 b66c 3331
00000170: 421b f52b 3a01 e732 dec7 ed32 c456 5331
00000180: 6d9f 0b31 33aa d92f c085 e632 a397 ef32
00000190: 3997 1131 617f 0d31 b638 e62c a2c3 0133
000001a0: 7145 0233 5066 6431 7cc7 c430 98e7 ba2c
000001b0: f04d f732 c9c0 f732 4491 0931 e860 ec30
000001c0: 6a1b 162e 7487 0333 94a4 0333 cc15 6a31
000001d0: 0832 1531 9897 5a2b 11ed e732 805e ec32
000001e0: 5ff7 0431 a5af 0731 5f7a 792c 4113 0133
000001f0: 056e 0333 5071 6231 cad7 0d31 37bb fe2c
00000200: c353 c932 a7f5 d732 df7b e230 032e fd30
00000210: f0e8 c02a c54b fd32 377a 0133 4280 4631
00000220: e006 0d31 7c3e 7d2f 0d4b b432 b32c c332
00000230: dc7f b230 e037 a630 d54e 4f2e b981 f032
00000240: b928 fb32 37ec 4231 0e9e 1831 2e1a 6b2c
00000250: 908e 9a32 aa4f a932 828b d030 6836 8b30
00000260: d8f8 4d2d 9cae f132 d319 f832 d059 f832
00000270: 6aa7 2233 81a6 0133 c1a4 b632 c201 c637
00000280: cac1 5d2e dbe1 822f f614 7429 6876 8930
00000290: 6528 8f30 7a11 742e 8a2f 222f e746 592b
000002a0: 6a52 9b30 384d a030 a27f d02d 73d7 6c2e
000002b0: 44e4 732b f502 9230 ca3c 9530 77b9 9c2e
000002c0: 6b13 252e 8311 f62c 2f27 9430 22cf 9b30
000002d0: 4ace ae2d 86b0 d22e ed30 ed26 c5f0 8530
000002e0: 1cdb 8b30 2386 8c2e 173c f92d 856f 992c
000002f0: d14f 9c30 0f30 a130 8fec 1c2e 34ea ce2e
00000300: 1136 682a 4a0a 8830 f6da 8730 72cf 8b2e
00000310: 6567 e52d c264 122a 3d27 9d30 1891 a230
00000320: 62e6 dd2d 9caf ca2e 69da 8629 87eb 8830
00000330: 2bf6 8630 9434 8d2e 47b4 062e eacd 2e28
00000340: d0a4 8b30 9771 8c30 d307 c72d 68e9 962f
00000350: 145e aa2a d900 5230 e254 5d30 372b 1b2e
00000360: ed07 a32e b9d3 7c2b 7db4 8730 f723 8630
00000370: b444 962d 8849 632e d3cd bf2a d807 5930
00000380: 3d32 5c30 6939 0b2e 2c31 d62d 0857 802d
00000390: 6036 8830 8d80 8630 fb32 b72d 1fd1 852e
000003a0: f15b bb2b 439a 4b30 c060 5130 6ab4 e430
000003b0: 7e0b 1431 4d08 6830 f2b2 8c30 cb95 a134
000003c0: 76d0 fa2d 4abd 102e e053 2729 27b5 612f
000003d0: 74e1 6e2f 090e f42d 7d2c 202e 25f2 df29
000003e0: 0df9 672f 1ca0 722f 75d7 dc2d 6f0a 022e
000003f0: 2ec2 2629 18ac 632f fc1e 772f 186f 0b2e

exp_avg f4 [128]
7.1942586e-06 -5.6687877e-05 -3.544238e-06 1.0560923e-05 7.710746e-06 1.5303738e-05 9.786939e-06 7.481089e-06
2.0494708e-06 -3.5143412e-06 -0.00020134813 2.9870262e-06 1.6599559e-05 7.168324e-06 -0.00010029804 3.843749e-06
1.5990277e-05 3.680224e-05 1.9109093e-05 -5.1959046e-07 2.7519293e-06 2.5225324e-07 1.0607329e-05 -6.871649e-05
-0.00013158905 0.0001491014 6.875336e-05 -0.0001750342 -1.5394799e-06 -8.729334e-06 1.9071252e-06 1.5071244e-05
7.883315e-09 -4.298048e-06 1.4447141e-06 1.2433159e-05 -9.074828e-05 -0.00011893257 -1.1933558e-06 9.178352e-06
-8.04069e-05 5.9162034e-05 0.000169364 -0.00012156577 -3.064315e-05 -8.0592054e-07 2.8364533e-05 -1.0357161e-05
1.2869332e-05 -5.046653e-05 -0.00012891344 -0.00011394236 -8.809523e-05 -9.3416944e-05 -4.3553286e-05 -1.6243318e-06
-7.901468e-05 3.065697e-06 2.2971606e-05 5.678822e-06 0.00024736888 -4.2340725e-05 -5.5514392e-05 -2.8724997e-05
-8.129189e-06 -0.00021998602 -9.605703e-05 5.319442e-06 3.5081164e-05 3.714174e-05 4.4463577e-06 4.002655e-05
1.7429024e-06 -1.4662915e-06 5.7363977e-05 3.0652059e-06 -0.0001023904 1.840589e-06 1.2852788e-05 6.8097796e-07
-2.2492075e-06 -6.348484e-05 7.270358e-06 6.142068e-05 7.3839285e-05 1.7292347e-06 0.00010303326 1.9646697e-05
-4.459865e-05 -2.8979766e-05 -3.4556115e-07 6.9624075e-06 -0.00012845141 7.610716e-05 1.3469666e-05 1.5450884e-06
-8.84182e-05 -4.221007e-05 -9.644782e-06 -3.4542663e-06 3.983065e-06 -0.00013033139 0.00013137242 -0.00017194955
6.378925e-06 2.8405625e-06 -0.00017081242 7.700185e-06 -7.2590774e-06 -8.703825e-05 -9.153788e-05 2.8486456e-06
6.0971893e-06 6.498052e-06 1.44527285e-05 1.2678275e-05 1.2326658e-05 3.1628315e-06 -1.5564907e-05 -1.179577e-06
-9.9234894e-05 9.061873e-06 -8.85841e-06 -5.8662048e-05 3.1288717e-05 5.387538e-06 2.1712503e-06 -1.2323073e-06
00000000: 3666 f136 25c4 6db8 8cd9 6db6 d22e 3137
00000010: 675d 0137 8760 8037 9532 2437 1106 fb36
00000020: a489 0936 ecd7 6bb6 fa20 53b9 b874 4836
00000030: 483f 8b37 6f87 f036 1a57 d2b8 8df9 8036
00000040: dc22 8637 1b5c 1a38 774c a037 fc79 0bb5
00000050: c9ad 3836 6c6d 8734 22f6 3137 e21b 90b8
00000060: 2bfb 09b9 1a58 1c39 ae2f 9038 6389 37b9
00000070: 20a0 ceb5 3474 12b7 53f8 ff35 80da 7c37
00000080: 306f 0732 f437 90b6 00e8 c135 0398 5037
00000090: 1d50 beb8 706b f9b8 652b a0b5 b9fc 1937
000000a0: 20a0 a8b8 c024 7838 4d97 3139 20f1 feb8
000000b0: d586 00b8 7056 58b5 5ff0 ed37 abc3 2db7
000000c0: 5ce9 5737 06ac 53b8 f02c 07b9 57f4 eeb8
000000d0: c4bf b8b8 d7e8 c3b8 fcac 36b8 9e03 dab5
000000e0: afb4 a5b8 46bc 4d36 26b3 c037 b68c be36
000000f0: 4ab1 8139 0297 31b8 20d8 68b8 76f6 f0b7
00000100: 9a62 08b7 0cac 66b9 3a72 c9b8 a97d b236
00000110: 1d24 1338 a4c8 1b38 ec31 9536 2ee2 2738
00000120: aced e935 64cd c4b5 1a9a 7038 d6b3 4d36
00000130: 6dba d6b8 280a f735 4ea2 5737 73cc 3635
00000140: 17f1 16b6 2a23 85b8 e6f3 f336 face 8038
00000150: 2ada 9a38 0d18 e835 8f13 d838 f6ce a437
00000160: 700f 3bb8 9319 f3b7 9085 b9b4 a09e e936
00000170: eab0 06b9 b89b 9f38 c6fb 6137 d560 cf35
00000180: 296d b9b8 b80a 31b8 06d0 21b7 d8cf 67b6
00000190: 45a6 8536 91a9 08b9 04c1 0939 5b4d 34b9
000001a0: 8c0a d636 7ea0 3e36 1c1c 33b9 0b30 0137
000001b0: 0093 f3b6 4e88 b6b8 06f8 bfb8 5c2b 3f36
000001c0: 7596 cc36 d709 da36 ff79 7237 c7b4 5437
000001d0: 98ce 4e37 0841 5436 6291 82b7 f551 9eb5
000001e0: 541c d0b8 7308 1837 959e 14b7 e50b 76b8
000001f0: 013c 0338 99c6 b436 ccb5 1136 c265 a5b5

exp_avg_sq f4 [128]
9.156008e-09 5.090602e-08 1.7656099e-09 5.0357984e-10 1.2095778e-09 1.7340216e-09 2.563643e-08 1.2858813e-09
7.638585e-11 1.7627778e-08 4.2632902e-07 1.9351032e-10 2.0132738e-08 1.1095028e-09 1.5988574e-07 1.8455794e-10
1.3766783e-09 3.1870698e-08 2.3612618e-08 4.2425993e-10 4.4493235e-11 3.4839898e-10 1.071322e-09 8.844351e-08
9.398499e-08 2.9759596e-07 4.3609987e-08 2.3207112e-07 5.5669336e-08 1.195729e-09 7.4904477e-10 9.707417e-10
3.6308134e-09 7.2137434e-09 2.6076278e-11 7.656274e-09 1.1487181e-07 1.9640163e-07 9.1984746e-11 8.2505364e-10
9.891137e-08 9.878648e-08 3.5956546e-07 1.452063e-07 1.4269375e-08 7.9245177e-10 6.381877e-08 1.6409439e-09
1.4918426e-07 5.1434178e-08 1.8521268e-07 1.350262e-07 5.6091253e-08 2.6425332e-07 1.68732e-07 3.6771236e-10
3.5672773e-08 2.8538447e-10 5.739811e-08 2.2546175e-10 7.980515e-07 1.1707395e-08 7.07074e-07 9.696419e-09
3.7740736e-10 5.54956e-07 2.998023e-08 1.6745642e-09 3.0475437e-08 1.9773188e-07 8.7712887e-10 3.9265338e-08
7.5017514e-10 9.956741e-10 2.950577e-07 7.634049e-11 6.293033e-07 2.0280332e-08 1.3872353e-09 1.1566319e-09
3.7296383e-10 5.8782078e-08 1.3851007e-09 1.16109554e-07 1.7810959e-07 7.008754e-11 1.9761458e-07 3.6125853e-09
2.826381e-07 1.7900102e-07 1.4176977e-09 3.9483194e-10 1.5757709e-07 1.09674204e-07 1.5276503e-09 1.6752315e-10
2.7610607e-08 9.937785e-09 1.1025274e-09 1.8710202e-07 1.4893514e-10 1.0817115e-07 1.19052025e-07 1.2767944e-07
3.3704095e-09 1.4584075e-09 8.507933e-08 5.5916155e-10 4.6406323e-09 1.2641426e-07 1.0934595e-07 1.8072047e-10
4.7498083e-10 2.954393e-09 7.80904e-09 2.0372646e-09 1.0052591e-09 1.2575809e-09 4.2252655e-08 1.1922553e-10
6.038023e-07 4.878203e-09 4.2406963e-08 9.38852e-08 2.504391e-08 1.038789e-09 1.5433553e-10 2.3751487e-09
00000000: 8d4c 1d32 c3a3 5a33 e0a9 f230 486c 0a30
00000010: 3c3e a630 7652 ee30 1b37 dc32 edba b030
00000020: 69f9 a72e e56b 9732 37e2 e434 50c4 542f
00000030: 5cf0 ac32 297d 9830 0fad 2b34 71ec 4a2f
00000040: 9035 bd30 34e2 0833 b2d4 ca32 473d e92f
00000050: eeae 432e cc88 bf2f cb3d 9330 55ee bd33
00000060: cbd4 c933 47c5 9f34 b04d 3b33 392f 7934
00000070: 1519 6f33 f956 a430 57e5 4d30 f06a 8530
00000080: f281 7931 c2dc f731 8f5e e52d a688 0332
00000090: 72af f633 78e2 5234 cf46 ca2e fdc9 6230
000000a0: 1a69 d433 7124 d433 4d0a c134 01ea 1b34
000000b0: 6025 7532 d6d3 5930 bd0c 8933 9587 e130
000000c0: 752f 2034 7ae8 5c33 e0de 4634 b8fb 1034
000000d0: fce8 7033 b3de 8d34 b32c 3534 ea26 ca2f
000000e0: a136 1933 4be4 9c2f e485 7633 d7e5 772f
000000f0: ae39 5635 ab21 4932 c1cd 3d35 4d95 2632
00000100: 5d7b cf2f 49f8 1435 9dc3 0033 7d26 e630
00000110: 19e4 0233 2050 5434 751a 7130 b2a4 2833
00000120: e234 4e30 2bd8 8830 6c68 9e34 e0df a72e
00000130: 65ed 2835 ec34 ae32 01a9 be30 5ef7 9e30
00000140: fe09 cd2f 9477 7c33 e65d be30 e757 f933
00000150: 643e 3f34 c71f 9a2e e22f 5434 4641 7831
00000160: 7cbd 9734 6d33 4034 ced8 c230 a80f d92f
00000170: 7632 2934 0886 eb33 6bf5 d130 9331 382f
00000180: 5e2c ed32 d7ba 2a32 bc87 9730 36e6 4834
00000190: 84c1 232f b84b e833 8ba9 ff33 4218 0934
000001a0: df9c 6731 2771 c830 dbb4 b633 7fb3 1930
000001b0: 6f73 9f31 7dbc 0734 92d1 ea33 4ab4 462f
000001c0: ce8f 0230 3b06 4b31 8528 0632 f0ff 0b31
000001d0: 6929 8a30 32d7 ac30 4979 3533 0117 032f
000001e0: fa14 2235 219d a731 f322 3633 ef9d c933
000001f0: 2420 d732 24c5 8e30 97b1 292f 0f38 2331
