results/Exp_Curiosity_s0.02/AgentSphereBehavior/AgentSphereBehavior-499995.onnx (onnx, 127664 bytes, 8 tensors)

action_model._continuous_distribution.log_sigma f4 [1, 2]
00000000: ab6c 803d 71d5 28bc
0.06270727 -0.010304795

action_model._continuous_distribution.mu.bias f4 [2]
00000000: 0445 7fbc cb6e 32bd
-0.015580419 -0.04356269

action_model._continuous_distribution.mu.weight f4 [2, 128]
00000000: 70d6 31bb 1fff 5abd f416 22bd aae7 223d
00000010: c617 5bbd 77b7 86bb c74f bc3c 6f70 5abd
00000020: 6e28 43bd 143f 96bd b247 05bd 9f9b 693c
00000030: 7441 4c3c 4c29 dbb9 e5e2 56bc 934c 573d
00000040: 7f7d 9b3c 1c8d 353d 0f06 d3bd 3585 bcbd
00000050: 9bb7 23bd bc5c a8bd 72bb 633d 7b56 c8bd
00000060: 0315 093d 5929 59bd 7e6e 03bc 4fcd 4c3b
00000070: 914b 4b3d 788a 283c dba2 ffbb 15be 2c3d
00000080: ef34 003d 6330 a03d cb02 f03c f168 983d
00000090: 252f 36bd 6cc0 6dbd d776 1fbd 679c 053c
000000a0: d9ee e5bc bb71 eebd 367b 2d3c 9da9 b3bb
000000b0: 5811 eb3c d429 e93b bf88 0abe 4d9d 8bbd
000000c0: 98d4 50bd 088a 75bd 63f3 913c eb41 b03d
000000d0: e4f1 7e3c 81b6 ecbd cf8e a83c e33c 5bbc
000000e0: df2f 44bb 50c5 40bd 3332 a43c d033 d9bc
000000f0: 88c5 a5bd e6b9 2cbd 1207 db3c fa33 0fbd
00000100: 1062 fcbd e704 783d 1739 00bc 05f6 6c3c
00000110: 1117 1e3d f069 12bb abbe a73d a85b d53c
00000120: 00cc aa3b ab60 8bbd f0fc 3b3d bff2 92bd
00000130: f2ae e1bc 2957 f03c 5217 473c 69e2 c83c
00000140: 2135 9b3c e316 153d 13ca 4e3c a746 273d
00000150: 4bf3 633d 791f 433c b0bc 133d 0875 b9bd
00000160: 7a87 803d 9c50 cabc 158e 18bd 6548 0f3d
00000170: cdc3 a33c dd48 9c3c aeff 0fbd b82f 2b3d
00000180: 988c 473c 9f5c 2abd 835a 443c d6e6 493b
00000190: b147 b23c 0761 0b3b 5636 713c 4910 84bc
000001a0: 4cb3 b0bc 5479 72bd 0f3c 3a3d 78c6 8dbd
000001b0: 91bf 4fbc 240c 77bc 1685 d53d 7a35 e03c
000001c0: d4ca 073c f655 95bb 1c3c ed3c 8899 b5bd
000001d0: 97db 9f3d 9683 ddbd 3f70 25bd 6e69 a63d
000001e0: 77f0 0e3d b63a a53d cfca b43d c9b1 573c
000001f0: 9204 143c ae95 053d c98d 923d 5351 3a3d
00000200: 5c2a d93d cda4 4e3c 14d5 173d 85b1 3b3d
00000210: 5628 7a3d 650e 8cbd 523c 003e bc86 9cbc
00000220: 5e4e 973d 46a7 4fbc 8cc1 4abd c6e9 903d
00000230: 9ae0 48bc 31f2 94bc bb1c fc3d ec9a 683d
00000240: aae8 763d 9ffa 0d3c c729 2c3d eaa5 19bd
00000250: 5746 f53d cc62 27bb c868 a73d ee77 a23d
00000260: c1a0 b93d 9423 123e 0ffe a33b 5568 87bd
00000270: 071d 313e ef33 06bc 9a45 b43d 30a6 e5bc
00000280: 7f65 f8bc 1894 05ba 2443 90bd 2812 243a
00000290: fd56 153e dd6e d13c 51bf 003e 0e93 67bd
000002a0: 3715 43bd 0aeb e83c 7f65 903d 5f0e f13d
000002b0: ac00 c3bc 1054 48bd 0129 843c 4737 083d
000002c0: 26a0 233c 3a19 d6bc 70c7 653d 4b24 ee3d
000002d0: b3f3 623d 847c febc e19d 87bd d0c4 193e
000002e0: 5d02 b4bc 71a4 163e b742 233e ed17 c7bc
000002f0: 6ced 5a3d 1c2b f53d 7b25 203d 08a5 6abb
00000300: d0da 9e3c b709 2cbc 46c0 0ebd 7b85 023e
00000310: f1bd 0c3e e02d 223e 5067 233e ceb8 ca3c
00000320: 3cd9 24bd 2544 e53d 0041 213d 6503 49bb
00000330: a475 903d 4a15 653d 5321 443c 6e8c 6d3c
00000340: 7d50 82bd d823 053d edcc 323d ec20 b53c
00000350: 1407 183c c9ad 80bd f231 0bbd 1615 56bc
00000360: b88a 953c b584 35bd 227e adbc 08cd 283d
00000370: 55d5 183b a2d9 183e 773d 013d bf41 ee3b
00000380: acd3 63bd def2 afbd ce4b 473c 2891 6ebd
00000390: 4d8b c2bd 12ef b03d ffd9 163d 1c43 0d3e
000003a0: ff7e b93d 3e99 153e 3c66 72bd 7d51 dd3d
000003b0: e5a6 a8bd 2522 ce3d 4c42 763d d548 aabc
000003c0: 0369 a9bc 4da7 043e 7c4b 96bd b911 463d
000003d0: 6504 9e3d eb44 5e3c 5181 2dbd c8cf 353d
000003e0: 2350 c83c ea7c 293d acc0 d83c 76ed 39bd
000003f0: 6efd ea3d e678 e53c 3a39 c3bc 56fc 363c
-0.0027135871 -0.05346596 -0.03957267 0.039771713 -0.05348947 -0.004111226 0.02298726 -0.05332988
-0.04764598 -0.0733625 -0.032539077 0.014258294 0.012466777 -0.00041801704 -0.013115619 0.05256326
0.01898074 0.044324026 -0.1030389 -0.09205095 -0.03997002 -0.08220813 0.055598684 -0.0978212
0.033467304 -0.053017948 -0.008021949 0.0031250303 0.049632613 0.01028692 -0.0078013963 0.042173464
0.03130048 0.07821729 0.029298207 0.07441891 -0.044478554 -0.058044836 -0.038931694 0.008154965
-0.028067993 -0.11642786 0.010588458 -0.005482866 0.028694794 0.007115582 -0.13528727 -0.06817112
-0.050983995 -0.05994609 0.017816251 0.08606323 0.015560601 -0.11558247 0.020575909 -0.013381216
-0.002993576 -0.047063172 0.020043468 -0.026513964 -0.08094317 -0.042169474 0.02673677 -0.034961678
-0.123233914 0.06055155 -0.007826111 0.0144629525 0.038596217 -0.0022340976 0.08190664 0.026044682
0.005212307 -0.06805547 0.045895517 -0.071752064 -0.02754924 0.029338436 0.012151556 0.024522023
0.018946232 0.03639878 0.01262142 0.040838864 0.055651944 0.011909359 0.03606862 -0.09055525
0.0627584 -0.02469664 -0.037244875 0.03498115 0.019990826 0.019077713 -0.035155945 0.041793555
0.012179516 -0.041592237 0.01198447 0.0030807755 0.0217627 0.002126755 0.014722427 -0.016121047
-0.02156987 -0.05919774 0.045467433 -0.069226205 -0.01267995 -0.015078578 0.10425775 0.02736925
0.008288104 -0.0045573665 0.028959326 -0.088671744 0.07805555 -0.10816114 -0.04039025 0.08125578
0.034897294 0.08067839 0.08827745 0.013164946 0.009034293 0.03261345 0.071559496 0.045487713
0.106037825 0.012612534 0.03706844 0.045823593 0.061073624 -0.06838683 0.1252301 -0.019107215
0.07387994 -0.012674158 -0.049500987 0.07075839 -0.01226058 -0.018181892 0.123101674 0.05678837
0.06028048 0.00866571 0.04203203 -0.037511744 0.11976307 -0.0025541065 0.08174282 0.07933031
0.090638645 0.14271384 0.0050046514 -0.06611697 0.1729623 -0.008191093 0.08802338 -0.028033346
-0.030321835 -0.0005095615 -0.07044056 0.0006258809 0.14583965 0.025565559 0.12572981 -0.056536727
-0.047627654 0.028432388 0.07050609 0.11770319 -0.023804031 -0.048908293 0.016132833 0.03325584
0.009986913 -0.026135076 0.0560984 0.11628016 0.05540819 -0.031065233 -0.0662191 0.15016484
-0.021973783 0.14711167 0.15943418 -0.0243034 0.05344908 0.11971113 0.039098244 -0.0035803933
0.019391447 -0.010500363 -0.034851335 0.12746231 0.13744332 0.15837812 0.1595738 0.024746325
-0.040246233 0.11194638 0.03936863 -0.003067219 0.07053688 0.055928506 0.011970836 0.014498813
-0.06363008 0.032504886 0.043652464 0.022110425 0.009279031 -0.06283147 -0.03398318 -0.013066551
0.018254623 -0.044316012 -0.021178309 0.041211158 0.0023320515 0.1492677 0.031552758 0.007271021
-0.055621788 -0.08591245 0.012164069 -0.0582439 -0.09499226 0.08639349 0.03682899 0.13795131
0.09057426 0.14609239 -0.05917953 0.10806558 -0.082349576 0.10065106 0.06012182 -0.020786682
-0.020679956 0.12954445 -0.07338616 0.048356745 0.07715682 0.013566236 -0.042359654 0.04438761
0.024452275 0.041378893 0.02645906 -0.045392476 0.11474119 0.02801175 -0.023830999 0.01116856

action_model._discrete_distribution.branches.0.weight f4 [1, 128]
00000000: c1a5 8f3c 33d7 21bc b3b8 6c3b 18bb 213c
00000010: ad2f cc3b 8a32 c9bb 1f88 a5bc 7201 3b3c
00000020: 7fd8 cd3a 4f74 cdbb deab c4bb ba88 b83b
00000030: 4a48 f83a cd40 7fbc f361 c53b 2456 1e3c
00000040: aa51 833c a298 b1ba a5a6 b23b 9ba7 87bc
00000050: d2ff f33b 7aad 60bc aae9 273c ebb5 3bbc
00000060: 269a be3b 181f 463b b256 11bc 63ea 76bb
00000070: 850a ecbb 3fc0 3abc bb65 e5ba 54b8 11bc
00000080: 0266 dcb9 68dc 4cbb b54e ad39 411e 0c3b
00000090: a3b6 673c 7bd7 203c 5353 f53b 8d05 26bc
000000a0: 0f89 763c d36a 683b 8a60 67ba f702 8739
000000b0: e000 0e3c d4c6 08b9 af60 53bc 024d 4f3a
000000c0: 1174 98ba f36e 803c a6ba 8dbc 6c2e 07bc
000000d0: 1f43 a43b cf3c 04bc af34 483a 1562 f13b
000000e0: 70c1 af3b 73f5 65bc a2a0 cb3a c592 b3bc
000000f0: 0db2 50bc 2035 d3b9 0ea9 1cbc f519 5fb9
00000100: 18f4 67bb 683e 7e3c 7217 54bb 17c9 043c
00000110: 3457 3a3c 1d7c df38 dc60 26bb 43d1 6f3c
00000120: 9ff1 15bc 9f4c 8bbb a198 10bc dff5 253b
00000130: 3d60 03bc 3b3c 85ba f3c4 3fbc 6ded afba
00000140: 24df 39bb cbef 3b3b 09d2 0c3c d561 043b
00000150: 02db 7aba c346 a2bb e6b0 23bb f206 f6bb
00000160: fd65 a9bb f5e0 58bc 25d4 b63c cfb4 ba3b
00000170: d564 b03c 1d83 333b 72c8 8ebb 2d00 b338
00000180: 9739 223c 13b9 7f3b 61ca 40ba 9861 503b
00000190: a9d1 90bb d59b 463c d83d ebbb 6238 6abc
000001a0: 07cb f53b 3b2f b4bb 9b1b 5a3b 31d3 193c
000001b0: 123c a8bb f069 3a3b bf10 de3b 6b22 763c
000001c0: c725 cebc e7fd 24ba 36f2 353c 6f5a 6dbc
000001d0: 41b8 a5bc d2fc f9bb f629 31bc 73e4 24bc
000001e0: 5fd5 1b3b 0f4b 973b ca07 f7bb 310b c5bb
000001f0: 3019 ebbb b83c 983b b771 e5bb f554 f73b
0.017535092 -0.009877968 0.0036120832 0.009871267 0.0062312693 -0.006140058 -0.02020651 0.011413919
0.001570478 -0.0062699686 -0.0060019335 0.0056315335 0.0018942442 -0.015579415 0.0060236393 0.009664092
0.016030151 -0.0013549516 0.0054519945 -0.016559413 0.0074462676 -0.013713235 0.010248581 -0.011456947
0.005816716 0.0030230936 -0.008870767 -0.0037676326 -0.0072034025 -0.011398374 -0.0017501632 -0.008894045
-0.00042037672 -0.0031259302 0.00033055773 0.0021380337 0.014142665 0.009817 0.0074867397 -0.010133159
0.015047326 0.0035464063 -0.0008826336 0.00025751416 0.008667201 -0.0001304404 -0.012901469 0.00079078984
-0.001163127 0.015677905 -0.017300915 -0.008250814 0.0050128843 -0.0080711385 0.0007637245 0.0073664286
0.0053636357 -0.01403557 0.0015535543 -0.021920571 -0.012737763 -0.00040284637 -0.00956179 -0.00021276607
-0.0035393294 0.0155178085 -0.0032362607 0.008104584 0.01137333 0.000106565865 -0.0025387323 0.014637294
-0.009151845 -0.0042510773 -0.008825452 0.0025323553 -0.00801855 -0.0010165045 -0.011704671 -0.0013422199
-0.0028361762 0.0028676863 0.008594998 0.0020199914 -0.0009569378 -0.004952283 -0.0024977266 -0.007508152
-0.0051696287 -0.013237228 0.022317955 0.0056978236 0.021532455 0.0027391382 -0.004357391 8.535418e-05
0.009901426 0.0039020225 -0.00073543756 0.0031796452 -0.0044195247 0.012122114 -0.007179003 -0.014295669
0.0075010094 -0.0054987944 0.0033280614 0.009388731 -0.005134114 0.0028444491 0.0067768986 0.015022854
-0.025164498 -0.0006293938 0.011105111 -0.014486893 -0.02022946 -0.0076290155 -0.010813227 -0.010064232
0.0023778302 0.004617102 -0.0075387703 -0.006013297 -0.0071746334 0.00464591 -0.0070020813 0.0075479695

network_body._body_endoder.seq_layers.0.bias f4 [128]
00000000: fae8 53bd 8b03 933d e46c ef3c 341b 803d
00000010: f562 6ebd 641e e53b 2b4b 8fbd fd1a 223d
00000020: f152 403d 7197 06bd efbb ba3d 2750 2dbb
00000030: 1bdd cf3b 4329 4c3d c902 fd3c 5409 9a3c
00000040: c816 233d 28ca cbbc 1329 21bc 908c d93d
00000050: 43ca 813d a219 85bc a9cb 223d 7f76 abbd
00000060: 86ba c83c 4e39 4f3d cece a4bd bce3 6c3d
00000070: 4a90 4dbd 7d91 c03b 0bfa 64bd 5f15 6e3c
00000080: f780 953d 5d92 a4bd 9006 9bbc 6676 9d3d
00000090: 506d b6ba 7f9d 01bc f818 333d 11bf f93d
000000a0: 176d 1f3d fb0c 4d3d 3355 83bd 90fb 033d
000000b0: 4115 bb3b df7e 89bc 2d07 e83b 6271 42bd
000000c0: 3e8e d6bd dabe 243d 4e80 653d a603 67bc
000000d0: d4d9 24bd 09be 38bd e29e fcbb c6e8 453d
000000e0: 1acc 5f3d 97e8 253d 323c ea3c a267 733d
000000f0: b4af fa3b 3dea 06bc b901 af3d d2bf 333d
00000100: 9ec3 183d 37f0 593d b929 0ebd 3593 babd
00000110: 3611 2e3d 0cbc 3e3d f398 5f3b 7986 9dbc
00000120: 8a85 fa3b 80a8 19bd ac9e 033c 6538 02bb
00000130: 37df c13c 745e 7e3d f1f6 1abd 689b 4d3d
00000140: ac20 883b c459 89bd bad6 873c de36 80bb
00000150: 3007 28bc 5b82 433d cd81 e43c ec7e 3dbd
00000160: 2d38 013d 9f4f c93d e47d 793d e0a4 4bbd
00000170: 7765 c33d 76f1 053d aef7 1d3d 3e6d 31b9
00000180: 05fa a8bd 5a73 403d dd96 e2bb 6a22 4fbc
00000190: 573f 86bc 4895 183d 75f0 61bd d6cd 4f3d
000001a0: 55e7 403d 4cb5 8a3d 5c49 bc3d 5c1e 3cbc
000001b0: 38b7 a4bd 59d0 03bd e204 40bd 3e6e 293d
000001c0: 8663 eabc 298c a63d 32c0 d13d 34be 2dbd
000001d0: ad6e aabd 84cf 80bd 42f0 72bc 6224 873b
000001e0: ab00 e13d 99e0 0abd 6441 87bc 339b 193d
000001f0: 7282 c8bc a5e2 243c d684 843d 28d0 6a3d
-0.051735856 0.0717841 0.029226728 0.062551886 -0.05819984 0.0069921482 -0.06996759 0.03957652
0.0469541 -0.03285927 0.09117877 -0.002644548 0.0063434965 0.049844038 0.030885117 0.018803276
0.039816648 -0.024876669 -0.009836453 0.10622513 0.063374065 -0.016247574 0.039745007 -0.08372211
0.024503004 0.05059176 -0.08047257 0.057834372 -0.050186433 0.0058767186 -0.055902522 0.014531462
0.07299989 -0.08035729 -0.018924028 0.07688598 -0.0013918076 -0.007911085 0.043724984 0.12194646
0.038922396 0.050061207 -0.06412735 0.03222233 0.005709321 -0.01678413 0.0070809335 -0.04747141
-0.10476349 0.040221073 0.056030564 -0.014099991 -0.0402468 -0.045103107 -0.00770937 0.048317693
0.054638006 0.040505018 0.028593156 0.059425004 0.00765034 -0.008234558 0.085452504 0.043884106
0.03729593 0.053207602 -0.03470776 -0.09110109 0.042496882 0.046566054 0.0034118264 -0.01922916
0.0076453136 -0.03751421 0.008033436 -0.001987004 0.023666007 0.062101796 -0.037833158 0.050197035
0.0041542854 -0.067065746 0.016581882 -0.0039127907 -0.01025562 0.04773174 0.027893925 -0.04626362
0.031547714 0.0982964 0.060911074 -0.049717784 0.09540837 0.03270098 0.038566284 -0.00016920731
-0.082508124 0.046985008 -0.006914957 -0.012642482 -0.016387625 0.03725174 -0.05516096 0.05073341
0.047095615 0.06772861 0.0919368 -0.011481848 -0.08042759 -0.032181118 -0.046879657 0.0413649
-0.02861191 0.08132202 0.102417365 -0.04241772 -0.08321891 -0.062895805 -0.01482779 0.00412421
0.109864555 -0.0339056 -0.016510673 0.037501525 -0.024476264 0.010063802 0.06470649 0.05732742

network_body._body_endoder.seq_layers.0.weight f4 [128, 110]
00000000: 2688 cd3d b423 223e 9a64 51be 5558 aebd
00000010: 7c3e 2a3e c087 56be 56d6 eb3d c9c6 bdbd
00000020: 7129 383d e620 17be 57e5 b9bd 8c84 273e
00000030: 83b2 52bd 4f5b a8bc b5a4 063e 4a46 90be
00000040: 330a 503d 4271 0c3c 27ed 39bc 3a29 67bb
00000050: 438f bcbd fb52 333a df47 34bd 450d 55bd
00000060: 8a34 78bd a21f 8e3c fcb1 25bd b4db 5c3c
00000070: 6a77 c63d 4c28 00be 21ac f3ba 1a38 893d
00000080: 89c3 613d d23e 413c ed98 a43b 452d 89be
00000090: 66fd 1f3e 2fd2 733d c45a f5bd a0f8 debd
000000a0: 25d8 2e3d 9acf ac3d 92ca 423b 191b a33d
000000b0: b279 26be 8898 c73d 4e7a adbd 6df8 8c3d
000000c0: b046 18be d568 0e3b 7105 053e e0e7 343d
000000d0: cd1f 613d d7cd b23d 1d27 9a3e 3027 b63d
000000e0: 80c1 b5bd 0797 e4bd 04ea 973d 9004 043e
000000f0: 8ee9 dfbd 2e8e ca3d e21e 313e 69e8 1ebe
00000100: bae8 64bd f0c9 28be a296 83bd ba82 b03d
00000110: ed06 293c 58aa 25be a3eb 67be 55f8 433d
00000120: a129 28bc d54b 893d 9195 c83b edc8 383d
00000130: 8a61 c33d 29d1 753e a8d9 82be cfaa 07be
00000140: 6f44 94bc 8f57 0d3e dacd 843d 0797 973c
00000150: c8ef 14be 6bcf dbbd 0dd5 193e 6502 9bbd
00000160: e372 9cbd 7387 07be 8964 7ebd 1ac1 d73d
00000170: d0c7 2abd fb77 39be d10b 77bc e3f6 35bd
00000180: 8153 6bbe b019 be3d 1428 7ebe 598e 32bd
00000190: d514 bcbd b582 e13d 6279 903d 06b7 1fbd
000001a0: 3076 06be a46f ba3d 0201 b7bd d0f4 84bd
000001b0: a373 23be 5c43 af3b 53c9 113d 6ad3 3f3e
000001c0: 16ec 0fbc fcbf 3bbe 3694 e73d 223a 113e
000001d0: 75e1 b93d 8a1a fabd be99 e03d a94e a53d
000001e0: ef63 1abe ebb3 053e dde5 8b3e 0616 243e
000001f0: 817f 3a3d 4b8d 15be 1ea2 2a3e ced2 7f3d
00000200: 7aaf af3b ba08 633e ef34 7fbd 2cec 543c
00000210: 3289 4b3d 681c b73d 7aae cdbd 3638 cb3d
00000220: 777f 973c 88aa 9cbc 2991 943d e5e0 443e
00000230: 6a6a 143d 7846 153e 524f 073e f4d8 483d
00000240: 3e55 833d f76f e13d 7ddd 2a3d 23f3 55bd
00000250: 97a1 4b3e 4771 9e3d cbbf 1bbe edd3 493c
00000260: 8007 cd3d 2fcb 2cbe 87ca 4fba a24c 6bbd
00000270: d2cd 06be 5bcd 1abc 69cf c43d beb1 1dbd
00000280: 4a5e ad3c f63a 5d3d d734 553d 4abd 143c
00000290: 3ca8 0d3e 545b 2a3e ce4e e1bd 19df 2a3e
000002a0: 06fc 2c3e 25c6 b23b 28c8 a53d 5ecb adbd
000002b0: 3f98 04bd f881 723d ea5f 1a3e 410f 93bd
000002c0: c71b ea3d 47a5 49bd 81d3 f7bc b608 70bc
000002d0: 2cce 603d db2d 3e3d 3aea ee3c 275c 073d
000002e0: 4618 883c 7b2a 953e 6adf ce3d 0de4 99bc
000002f0: 3a4b d3bd 47a4 acbd 9d56 3d3e 4282 e5bd
00000300: 3694 653d ee97 4f3c c9f0 ca3d 0a91 23bd
00000310: 88ce c03c 14b6 e3bc 46bc d8bd ae77 ba3c
00000320: 83fa 8dbc dedd e8bd 2a11 08be 8a54 343b
00000330: 40c1 253e 7617 a6bd 5405 18b8 624f 383d
00000340: 7490 c8bb 91dd e13d 4918 a63c f23c 31be
00000350: febf 57bd 54a3 353c 279d 3a3c bbe4 173e
00000360: 04fc 8f3e eed4 f8bd da65 9d3e 0318 693c
00000370: 3388 7a3d faf6 39be bb65 863e 7cfa 133e
00000380: 8ed5 9e3c bf53 453d 1ae7 12be 2952 893d
00000390: 3c95 07be 3895 90bc fbab 403e 1535 94bd
000003a0: e537 34be 36b0 1fbd ace9 0d3d bac7 2ebc
000003b0: 7921 433c d277 dc3c b05d 9bbb 1595 133d
000003c0: d838 85bd 2b51 0dbd e02d 2abc af5e 17bc
000003d0: e6b7 02bd 687b 03bc 6929 dabd 8c53 89bc
000003e0: 1b58 953d a39d 63bd 0600 193d dc25 17be
000003f0: 7c0d c13a 1c89 b8bd 3e63 21bd ead1 ecbc
0.10035734 0.15833932 -0.20448533 -0.08512942 0.16625398 -0.20950222 0.11515491 -0.09266431
0.044961397 -0.14758644 -0.09076946 0.16359156 -0.051439773 -0.020551352 0.13148768 -0.28178626
0.050790977 0.008571925 -0.011348045 -0.0035272376 -0.092070125 0.0006840673 -0.044013854 -0.052014608
-0.06059698 0.017349068 -0.040452942 0.013480116 0.09690745 -0.12515372 -0.0018590727 0.06700154
0.055118117 0.011794763 0.005023113 -0.2679235 0.15624008 0.05952662 -0.11980203 -0.10887265
0.0426866 0.08438034 0.0029722792 0.07964153 -0.1625736 0.0974589 -0.084705934 0.06883321
-0.14870715 0.0021729965 0.12990357 0.044166446 0.05496197 0.08730667 0.30107966 0.08894193
-0.08874798 -0.11161619 0.07417682 0.12892365 -0.10933219 0.098904 0.17296937 -0.15518345
-0.055886008 -0.16483283 -0.06425215 0.08618684 0.010316593 -0.16178262 -0.22648482 0.04784425
-0.010263831 0.06703917 0.0061213453 0.045113493 0.095400885 0.2400557 -0.25556684 -0.13248752
-0.018099038 0.13802932 0.064845756 0.018504633 -0.14544594 -0.10732921 0.15022679 -0.07568816
-0.076391004 -0.13235264 -0.062107597 0.10534878 -0.041694462 -0.18112175 -0.015078501 -0.044424903
-0.22981073 0.09282243 -0.24819976 -0.043592785 -0.09183661 0.110112585 0.07054402 -0.038992904
-0.13131022 0.09103325 -0.08935739 -0.06492007 -0.1596208 0.005348606 0.03559239 0.18732992
-0.008784315 -0.18334955 0.11307566 0.14182332 0.09076206 -0.12212093 0.10966824 0.08071644
-0.15077184 0.13056915 0.2732381 0.16024026 0.045531753 -0.1460468 0.16663405 0.0624569
0.0053614946 0.22171298 -0.06230634 0.012995761 0.049691387 0.08940965 -0.100430444 0.09922831
0.018493397 -0.019124284 0.072542496 0.19226415 0.036234297 0.14577663 0.13213852 0.049035028
0.06412743 0.11007684 0.041715134 -0.052233826 0.1988586 0.0773645 -0.15209882 0.012318593
0.10011196 -0.16874383 -0.0007926602 -0.05744613 -0.13164452 -0.009448375 0.09609873 -0.038499586
0.021163125 0.054011308 0.052052345 0.009078333 0.13833708 0.16636401 -0.11001359 0.16686668
0.16893014 0.0054557496 0.080948174 -0.08486055 -0.032371756 0.05920598 0.15075651 -0.07180644
0.11431079 -0.049229886 -0.03025222 -0.014650514 0.05488412 0.04643045 0.029164422 0.033046868
0.016613137 0.29133973 0.101012066 -0.0187855 -0.10317083 -0.08429771 0.18490072 -0.11206485
0.056049548 0.0126705 0.099092074 -0.039933242 0.023535982 -0.027796783 -0.10582785 0.022762146
-0.017331367 -0.11370443 -0.13287798 0.002751621 0.16187 -0.081099436 -3.6244586e-05 0.04499758
-0.006120736 0.110285886 0.020275252 -0.17308405 -0.052673332 0.011086304 0.011390007 0.14833347
0.2812196 -0.12149988 0.3074177 0.014226916 0.061165046 -0.1816062 0.2624949 0.14451021
0.01938894 0.04817557 -0.14345971 0.06705124 -0.13240522 -0.017649278 0.18815605 -0.07236687
-0.17599447 -0.038986407 0.034646675 -0.010667736 0.011909836 0.026912604 -0.004741393 0.036030848
-0.06504983 -0.034501236 -0.010386914 -0.009238883 -0.03191366 -0.008025028 -0.106524296 -0.016763471
0.072921954 -0.055570256 0.037353538 -0.14760536 0.001472875 -0.090105265 -0.039401285 -0.028908689

network_body._body_endoder.seq_layers.2.bias f4 [128]
00000000: 4411 533d 2240 8c3d bdba 833d d75a b9bc
00000010: fb26 723d 81c6 0e3d d5f7 a13d 1246 5b3d
00000020: 2e73 193d 577e b63d aab4 3e3d 776c 05bb
00000030: 5b3f e8bc 26d5 f4bc 12db 373d 811a a03c
00000040: 702b c6ba 89f6 1bbc e359 b93d 1dc6 6c3d
00000050: 9f55 923d 5976 943d 0523 3b3d 18f0 a13d
00000060: b6d9 5f3d 4229 893d 62f4 a03a 9f40 2b3d
00000070: 0619 ab3d 0877 31bc 08ce 133d 4133 443c
00000080: e834 fb3c 715d ae3c c3c8 8d3d a12b 0b3c
00000090: c9bf 933d e309 92bb 896a 4a3d 9e65 5d3d
000000a0: 06ad 8d3c 4acf b33d e1a6 053d d072 293d
000000b0: 39d8 623c fab2 fd3c 9b2a d43d ed8a af3d
000000c0: 3d76 a43d 5e2b 803d 7754 2539 0dc7 b33d
000000d0: 354a 9e3c 153b 7e3d 2c29 553d d65d 7f3d
000000e0: a479 da3c 094d 8e3d 8de1 a03d 62a3 9a3c
000000f0: 98f0 9c3d 9298 a33d cd71 89bc 9a0b 2a3d
00000100: 1918 b33d 39a7 abbc 9686 d13c f009 a93d
00000110: ccba 803d aff3 9d3d 6ced b03d 603d 86bc
00000120: 4cae 0f3d 7e02 653d d0f3 c5bc b72b 993d
00000130: 765f 923d 0ebd 06bb 17b6 4ebd 6ff8 51bd
00000140: f6af 3a3d 7f9a 2ebd c27a 3c3c 050d 15bc
00000150: db5e c8ba df90 2a3d 9dbf ed3c 625d 923d
00000160: 72ba 55bc 2b91 3c3d 42a9 f93c 38e8 9e3c
00000170: 1482 babc 5b23 823d 219d 4e3d 5d1b 29bc
00000180: 04f9 2a3d 7b91 193d 4482 d8bc e3b7 693d
00000190: bd09 743d 3e91 a93c a1da 63bc d6b1 413d
000001a0: 0a9c 293d 72e3 843d 3565 113d 4bcd 993d
000001b0: 6ffa 6e3d 8f63 723d 4ce7 a13d 0180 9fbc
000001c0: 957b ce3c 3226 9f3d 0e7e 5a3d 1ad5 b03d
000001d0: 496b a83d acb5 e43d a86d 263d 69c1 243d
000001e0: 0d32 0fbc ab37 193d f873 c93c 659a 443d
000001f0: 33ed 8a3d 516a 043c 061f 603a 5a43 27bd
0.051530138 0.0684817 0.06432102 -0.022626324 0.059119206 0.034857277 0.07908598 0.05353362
0.03746336 0.08910816 0.046559013 -0.002035884 -0.028350523 -0.029886793 0.044886656 0.019543888
-0.0015119147 -0.009519228 0.09050348 0.057806123 0.07145237 0.072491355 0.045687694 0.079071224
0.054650985 0.066973224 0.0012279863 0.041809674 0.08354382 -0.010831602 0.03608516 0.0119751105
0.030664876 0.02128479 0.06923058 0.008494289 0.072143145 -0.004456745 0.049418006 0.054051988
0.017294418 0.087797716 0.03262985 0.04136926 0.013845497 0.030969132 0.10359689 0.0857142
0.08030365 0.06258272 0.00015767092 0.087782 0.019322494 0.062068064 0.052041218 0.06234535
0.02666933 0.06948287 0.078555204 0.018876735 0.07663077 0.07988085 -0.016777897 0.04151497
0.08744831 -0.020953761 0.02557687 0.082538486 0.06285629 0.077124946 0.08639035 -0.016386688
0.03507833 0.05591058 -0.02416411 0.07479041 0.07147114 -0.0020559463 -0.050466623 -0.051262315
0.045577966 -0.042627808 0.011503877 -0.009097342 -0.0015287058 0.041642066 0.029022032 0.071467176
-0.01304494 0.04603688 0.030476216 0.01939784 -0.022767104 0.063544 0.05044282 -0.010321465
0.041741386 0.037492257 -0.026429303 0.057060134 0.0595796 0.02069914 -0.013907106 0.04728874
0.041408576 0.06488694 0.03549691 0.0750986 0.0583443 0.059176978 0.079054445 -0.019470217
0.025205413 0.07770957 0.05334287 0.08634396 0.08223588 0.11167464 0.04063192 0.040223513
-0.00873996 0.037406605 0.024591431 0.047998805 0.067835234 0.008081988 0.0008549545 -0.040835716

network_body._body_endoder.seq_layers.2.weight f4 [128, 128]
00000000: 4738 a6bd 6083 653d e09f 4bbd 8dd1 9abd
00000010: 3a23 b73d 52cb a83b 6ea3 d13d 4770 0abe
00000020: c3c8 f6bd 389f 563e de5a 8cbd faee a5bd
00000030: 8ec7 b4bc c072 27be 59a8 94bd 15e1 eebd
00000040: 4cc9 2cbd dc97 af3d 43f7 18be 99cd 3c3e
00000050: 30de 05be 40da babd 42e8 a53c c61c 1dbe
00000060: bbbd 84be 3b5a 44be eab8 413e e35e db3d
00000070: 01fa 0abd f000 2fbe 483f dcbd 321c d0bd
00000080: f994 14be 8d83 8cbd 68b9 103e 9f03 493e
00000090: 4716 ecbd 5906 b03d b2db 0d3e 8ad0 d63d
000000a0: 03f6 6b3d a6cf 4dbd 0db0 5ebc 4b09 41be
000000b0: fae9 01be da57 afbc e8e3 36be 8da9 973d
000000c0: 8a69 26be d195 35be c3bb 72be 9aea 0ebd
000000d0: b568 9cbd 2024 2abc a040 e8bd f322 ebbb
000000e0: b292 9e3d 2d40 343c eb90 65bd cb17 acbd
000000f0: ee51 2b3c 85fd 0bbe 2545 d53b c485 463d
00000100: c847 a4bd c905 e1bd 0e5c f9bd 6e05 b73d
00000110: 5654 c1bd 2230 d0bd 04eb 9ebd 1f5d 82bd
00000120: 56c1 0a3e 2db1 50bd 99d3 323e 83b2 ddbd
00000130: e25f d7bd 8438 45bd 0593 243e 1eb1 16bd
00000140: 9536 bbbc a1ce 34be de52 e43d 9c38 a8bd
00000150: bf60 24bd 9c9e a2be acbd 3eba 2a2e 8abe
00000160: 52ca 003e 9257 583d 26a3 513e 86cb a23d
00000170: c3f3 e13c b20a e2bd fc34 c3bd 1f2c ab3d
00000180: 02e2 9fbb 1fb7 a1bc 7e9f f33c c4be 003d
00000190: 1c02 183d 786c 87bd ea9a 5bbb b505 0dbe
000001a0: 7428 13bd e499 2dbe d7ea 8e3c 5de4 ecbc
000001b0: 4e1c 963d d721 59bc a126 3ebe 6ab7 dc3c
000001c0: 8151 eb3d 0333 f5bc cf0a 23bd 559e 6cbd
000001d0: 594f 8dbe 701b 2cbd c80d 9cbd 8116 83bd
000001e0: 4ac2 19bc 37cd e4bd fe79 babd b087 33bc
000001f0: efe5 5bbd 8aed d3bc be79 83bd 72f3 503e
00000200: a30b d1bd 9ef3 b8bd 671b d1bc 1353 77be
00000210: c482 243e ea45 9c3c 7e93 7e3d 1fa7 0dbe
00000220: 73e0 1fbe 963a 1abd 72fa 58be f8b6 c0bd
00000230: 5e79 9a3c a82e 903d b3d8 89bd 5322 36be
00000240: 4054 5b3c 31ac 42bd 8adf 6ebd 28e3 313e
00000250: 82ee 25be 4f58 753d 76ee 3c3d 818c b8bc
00000260: 6fe0 0ebe 9fb7 623d 6660 3abe e259 f3bd
00000270: b37a debc 42a6 b3bd 1b5d 00bb c5bb 123e
00000280: 4e52 3abe 7d64 2c3e 757b 7abd 686f 853c
00000290: a4e5 503d 98fb 67bc 5f7d f83c 2d5c e03d
000002a0: e7e1 423c 2d3d dfbd bfcc 6b3c de7d 53be
000002b0: 0a44 ecbd b686 293e ae76 37bd d6a0 58bd
000002c0: 7a34 ac3d e1a6 7dbc 8f38 13bd 012c 1cbd
000002d0: 4be9 3b3d 2e4e bbbb 45ba 9dbd c6ef 65be
000002e0: d10b 6abe e24e d7bd 8bfb 1bbe e248 b63d
000002f0: 5e8e 053e d873 e63b f324 63bd c257 46bd
00000300: 8ee2 2bbd 229e 1cbe 0db2 f3bd 8d1a 193e
00000310: 6744 9bbd c48b 5ebd ef9e 6f3d e994 d83d
00000320: 9f54 5e3c f5fe fcbd 4e8c 693d 0fa3 00be
00000330: a7b5 743d 38f0 bebd f302 88bd 08e8 abbd
00000340: 004e 4cbd 61bb 513d 46dd cabc 7206 81be
00000350: 0dc5 a7bd 66b2 c7bc 46d7 11be e989 bfbd
00000360: afd9 27be 8ba7 0abe 0cd6 13be 621d 64bd
00000370: d0bd 59bc 8dce 18be cc41 a2bc 2866 1e3d
00000380: 8729 4fbd c431 99be 6777 c9bd 859e c23b
00000390: 9cc7 723c a86f 0ebe 19a6 50bd 6741 c3bd
000003a0: 8690 27be f906 4a3d 18b1 513d 0192 e93d
000003b0: 75ee b4bd f08f 123d a667 c53d 908f 13be
000003c0: 402d 1b3e f6c1 94bd 7826 563e c374 60bd
000003d0: acdc d5bd 44d8 26be 0aac 07be d184 693d
000003e0: 9872 373d 4a0b 85bb c177 8fbc 7cf1 71bd
000003f0: b1ca 3fbd 216b 2ebd 72bc d33c b3d0 9ebc
-0.08116203 0.056033492 -0.049713016 -0.075595 0.08942266 0.005151191 0.1023625 -0.13519393
-0.12050011 0.20959175 -0.06853269 -0.08102222 -0.022067811 -0.16352367 -0.07258672 -0.11664025
-0.04218416 0.08573887 -0.14938073 0.18437804 -0.13073039 -0.09123659 0.02025235 -0.15343007
-0.25926003 -0.19175045 0.18918195 0.107114576 -0.03392983 -0.17090201 -0.107542574 -0.10161628
-0.14509954 -0.06861029 0.14133227 0.19630288 -0.115276866 0.08594961 0.13853338 0.104889944
0.057607662 -0.050246857 -0.013591778 -0.18851201 -0.12686911 -0.021404196 -0.17860377 0.07405386
-0.16251197 -0.17732932 -0.23704438 -0.034891702 -0.07637159 -0.010384589 -0.11340451 -0.007175797
0.07742824 0.011001629 -0.056046408 -0.08402976 0.010456545 -0.13670929 0.006508487 0.048467413
-0.08021504 -0.109874316 -0.12175761 0.089365825 -0.09439914 -0.101654306 -0.077596694 -0.06365418
0.13550314 -0.050950218 0.1746353 -0.10825064 -0.10516335 -0.0481496 0.16071709 -0.036790006
-0.022853175 -0.17656948 0.11148618 -0.082139224 -0.040131327 -0.31761634 -0.0007276188 -0.26988345
0.12577179 0.05281789 0.20472392 0.07948975 0.027582055 -0.11037196 -0.0953159 0.08358025
-0.004879237 -0.01974064 0.029739138 0.03143193 0.037111387 -0.06612486 -0.0033509084 -0.13771708
-0.03592725 -0.16953236 0.017445965 -0.028917486 0.073296174 -0.013252697 -0.18569423 0.026942927
0.11490155 -0.02993155 -0.03980523 -0.057768185 -0.275996 -0.042018354 -0.07619816 -0.06400777
-0.009384701 -0.11171954 -0.091052994 -0.010957643 -0.05368608 -0.025870103 -0.06419705 0.20405367
-0.10207298 -0.09030841 -0.025525762 -0.24152784 0.16065508 0.019076306 0.06215238 -0.13833283
-0.15612964 -0.03765353 -0.21189287 -0.094098985 0.0188567 0.07040149 -0.06730785 -0.17786531
0.013386786 -0.047527496 -0.058318652 0.1737181 -0.16204265 0.05989867 0.04612585 -0.022527935
-0.13952802 0.055350896 -0.18200836 -0.11882378 -0.027158117 -0.087719455 -0.0019586745 0.14329441
-0.18195459 0.16835208 -0.061152894 0.016288474 0.051000252 -0.014159106 0.03033322 0.10955081
0.01189468 -0.1090034 0.014392077 -0.20653483 -0.11536415 0.16555294 -0.044790916 -0.05288776
0.084084466 -0.015481682 -0.03594261 -0.038127903 0.045876782 -0.005716107 -0.07701544 -0.22454748
-0.2285607 -0.105130926 -0.15232675 0.0890062 0.1304259 0.0070328526 -0.05545516 -0.048423536
-0.041964106 -0.15294698 -0.11899195 0.14951535 -0.07581406 -0.05433251 0.05850118 0.10575277
0.01356998 -0.12353317 0.05701857 -0.12562202 0.05974355 -0.09323162 -0.066411875 -0.08393866
-0.049879074 0.05120409 -0.024763715 -0.2520023 -0.08191881 -0.02437706 -0.14242277 -0.09352476
-0.16391633 -0.13540475 -0.14437121 -0.055692084 -0.013289884 -0.14922543 -0.019806765 0.038671643
-0.050576713 -0.2992078 -0.09837227 0.005939307 0.014818098 -0.13909781 -0.050939653 -0.09533959
-0.16363725 0.049323056 0.05119428 0.11404801 -0.088345446 0.0357818 0.0963891 -0.14410233
0.1515398 -0.072635576 0.20913112 -0.054798853 -0.104424804 -0.16293436 -0.13249221 0.05701143
0.04478702 -0.0040601837 -0.017513158 -0.059068188 -0.04682416 -0.042582635 0.025846694 -0.019386625
