results/Exp_Curiosity_s0.02/AgentSphereBehavior/AgentSphereBehavior-29467.onnx (onnx, 127664 bytes, 8 tensors)

action_model._continuous_distribution.log_sigma f4 [1, 2]
0	0x3c0fa94e	0.008768393
1	0xbc0f92a3	-0.008762988

action_model._continuous_distribution.mu.bias f4 [2]
0	0xbcacc1c2	-0.021088485
1	0xbca5dcab	-0.020246824

action_model._continuous_distribution.mu.weight f4 [2, 128]
0	0x3ce11aa6	0.027478527
1	0x3c91739d	0.017755324
2	0xbc907b86	-0.017637026
3	0x3ce4333a	0.027856458
4	0x3d822436	0.06354563
5	0x3c4b1225	0.012394463
6	0xbaf6e6da	-0.001883711
7	0x3bc294b1	0.0059381356
8	0xbd10f904	-0.03539373
9	0x3d11aff2	0.035568185
10	0xbd1fddf5	-0.039030034
11	0x3c517dcc	0.01278634
12	0xbcee38d2	-0.029079828
13	0x3ccd8abf	0.025090573
14	0x3cbfe8d6	0.023426455
15	0xbc2d1a07	-0.010565287
16	0x3bdef606	0.0068042306
17	0x3cf6f393	0.030145442
18	0xbd0137cd	-0.031547356
19	0x3cccaa3e	0.024983522
20	0x3d25e19c	0.04049836
21	0xbc0c1812	-0.008550661
22	0xbcab38be	-0.02090108
23	0x3a75737f	0.00093632186
24	0x3cc5abd4	0.024129786
25	0xbc30fe96	-0.0108028855
26	0xbc405713	-0.01173951
27	0x3ce19b6e	0.027539935
28	0x3ce123b1	0.02748284
29	0xbc1db5dc	-0.009625878
30	0x3d3f0437	0.04663488
31	0x3cc408d4	0.02392999
32	0x3d79ea4e	0.061014466
33	0xbc92806e	-0.017883506
34	0x3d72d75b	0.05928741
35	0xbcae0f75	-0.021247605
36	0x3cbf4be4	0.023351617
37	0xbca16ffc	-0.019706719
38	0x3d097f99	0.033568952
39	0xbbe009b3	-0.0068370937
40	0x3ca05068	0.01956959
41	0xbd294699	-0.041327093
42	0x3d0bb6e2	0.034109958
43	0x3b8a86ac	0.00422748
44	0x3c29a1de	0.010353534
45	0x3c0a24cc	0.008431625
46	0xbc0f19a0	-0.008734137
47	0x3d4a60b0	0.049408615
48	0x3d4d27b3	0.05008669
49	0x3c96c7f1	0.018405886
50	0x3d13ef8e	0.03611713
51	0x3cca1d81	0.024672272
52	0xbd4dd3e8	-0.050250918
53	0x3d78443d	0.060611952
54	0xbd434fc6	-0.0476835
55	0xbc57f7e4	-0.01318166
56	0x3cb06f67	0.021537496
57	0xbd0b5f96	-0.034026705
58	0x3c993d29	0.018705921
59	0x3c8a4764	0.016879745
60	0xbcef8f61	-0.029243173
61	0x3d1f4790	0.038886607
62	0x3c9eaa72	0.019368384
63	0x3c46e632	0.012139844
64	0x3d209b79	0.03921077
65	0x3b9c875e	0.004776879
66	0xbc6f9117	-0.014621994
67	0x3d3574eb	0.044300955
68	0x3d81f11d	0.06344817
69	0x3c2f940a	0.010716448
70	0xbbd1a177	-0.006397422
71	0x3c168e95	0.009189268
72	0xbad3ef71	-0.0016169382
73	0x3d1994b7	0.03749534
74	0x3cf41fd5	0.029800335
75	0xbcf30534	-0.029665567
76	0xbb84fa02	-0.0040581236
77	0xba6c9c12	-0.0009025942
78	0x3d17c743	0.037055265
79	0xbd158dae	-0.03651207
80	0x3cc5b5bb	0.024134507
81	0x3bbed134	0.005823279
82	0x3c94609f	0.018112479
83	0x3d43a415	0.047763903
84	0x3d098746	0.033576272
85	0x3c421302	0.011845352
86	0x3c8d027d	0.0172131
87	0x3b14d557	0.0022710168
88	0x3d300ef0	0.042982996
89	0xbcb9f9d8	-0.022702143
90	0x3d6fc159	0.058534
91	0xbbee2afc	-0.0072683077
92	0x3c842d01	0.01613474
93	0xba8dd4ea	-0.00108209
94	0xbbec2a19	-0.007207167
95	0x3b8f5af1	0.0043748547
96	0x3c20967e	0.009801505
97	0x3cf23e1b	0.02957063
98	0xbc4c323d	-0.01246315
99	0xbc10ad37	-0.00883036
100	0xbc0d8948	-0.008638687
101	0xbbe15d7e	-0.0068776
102	0x3cb2cb66	0.021825504
103	0x3ca09c74	0.019605853
104	0x3d07f7d9	0.03319535
105	0x3d4140f9	0.047181103
106	0xbc913947	-0.017727507
107	0x3cafa18c	0.021439336
108	0x3d284dea	0.04108993
109	0xbcf68763	-0.030093854
110	0xbcbe3839	-0.023220168
111	0xbcd86a89	-0.026417987
112	0x3c85cdae	0.016333427
113	0x3d6181a5	0.05505528
114	0x3be08426	0.006851691
115	0xbcbe0976	-0.02319787
116	0x3b229ce7	0.002481276
117	0x3d1618de	0.03664481
118	0xbcc889a3	-0.024479693
119	0x3cc8c9fa	0.024510372
120	0x3d7633a7	0.060107853
121	0xbc911c2b	-0.017713627
122	0xbcca4c67	-0.024694635
123	0x3d9125e7	0.070873074
124	0x3cf7dfad	0.030258024
125	0xbc9d359e	-0.019190606
126	0x3d9c3f78	0.07629293
127	0x3d1aabcc	0.037761495
128	0x3cbe62b9	0.023240434
129	0x3c10bfd5	0.008834799
130	0xbbfcf919	-0.0077201244
131	0x3c906eae	0.017630901
132	0x3d0aba6d	0.033869196
133	0x3b8deaff	0.0043309922
134	0x3c183777	0.009290568
135	0x3becf1b3	0.007230961
136	0xbd0fc1d9	-0.035096977
137	0x3c3b8ff0	0.011447892
138	0xbcbc8343	-0.02301181
139	0x3c87428f	0.01651123
140	0xbbd6cb23	-0.0065549775
141	0xbc563776	-0.013074746
142	0x3d6fff90	0.058593333
143	0xbc1aa27d	-0.009438154
144	0xba84b893	-0.0010125808
145	0x3d168c62	0.036754973
146	0xbd1d13ef	-0.03834909
147	0x3cd01de4	0.025404878
148	0x3ba97eb7	0.0051725763
149	0xb9cf96f7	-0.00039594594
150	0xbc9380c4	-0.018005736
151	0xbb6344ac	-0.0034678383
152	0x3d125389	0.035724197
153	0xbbf56dfe	-0.0074899187
154	0xbb436bd3	-0.0029818907
155	0x3d45b1ac	0.048265144
156	0x3d868090	0.0656749
157	0xbbdfdfd6	-0.0068321032
158	0x3cad5efc	0.021163456
159	0xbcc04a53	-0.02347294
160	0x3cf4414c	0.029816292
161	0xbc827513	-0.015924966
162	0x3ccdec90	0.025137216
163	0xbcc2ebfd	-0.023794169
164	0x3d075b28	0.033045918
165	0x3bb157dc	0.005412085
166	0x3c94af7b	0.018150082
167	0xbd0145a9	-0.031560574
168	0x3c2441f3	0.010025489
169	0xbcc39ede	-0.023879465
170	0x3ccc6943	0.024952536
171	0x3b7348c3	0.0037122227
172	0xbbcb333b	-0.0062011755
173	0x3bd6ceff	0.0065554376
174	0xbbda6fdc	-0.0066661667
175	0x3c8dc7ad	0.017307127
176	0x3d654a99	0.055979345
177	0x3d517a86	0.051142238
178	0xbc447148	-0.011989899
179	0x3d2034f6	0.039113007
180	0xbcf4f31f	-0.029901085
181	0x3cb49f06	0.022048485
182	0xbc358569	-0.011079171
183	0x3cdd328a	0.027001638
184	0x3b56f5ff	0.0032800434
185	0xbd3ab19c	-0.045579538
186	0x3d763e9c	0.060118303
187	0x3d368580	0.04456091
188	0xbcead4c5	-0.02866591
189	0x3d152f56	0.036422096
190	0xbaff2b61	-0.0019467884
191	0x3c79add1	0.015239195
192	0x3cdfacd2	0.027304087
193	0x3bd545d4	0.0065085683
194	0xbbb447ae	-0.005501709
195	0x3db1de4d	0.08684979
196	0x3d510d24	0.051037923
197	0xbc9de353	-0.019273436
198	0xbbc480de	-0.0059968075
199	0x3cd463d8	0.025926515
200	0xbbde1c67	-0.006778288
201	0x3cb4091d	0.021977002
202	0x3d6df906	0.058098815
203	0xbce0865d	-0.02740782
204	0x3c5fb660	0.013654321
205	0x3aa126cd	0.0012294889
206	0x3cc7dd27	0.024397446
207	0xbc356355	-0.011071046
208	0xbc5f3a01	-0.013624669
209	0xbccdbc02	-0.025114063
210	0x3ce0cc9b	0.027441313
211	0x3d65424c	0.05597143
212	0x3a971630	0.0011526998
213	0xbb9b9aa1	-0.004748658
214	0x3c15fef1	0.009155021
215	0x39c8d522	0.0003830577
216	0xbce39b48	-0.027784005
217	0xbd197b2b	-0.037470978
218	0x3d11350c	0.03545098
219	0xbd045c20	-0.03231442
220	0x3cfdb20f	0.030968694
221	0xbc80714d	-0.015679026
222	0xbd264cae	-0.04060047
223	0xba8930c0	-0.0010466799
224	0x3bf6a6c1	0.007527203
225	0xbb192933	-0.0023370504
226	0x3c92048c	0.017824434
227	0xbcc84201	-0.024445536
228	0xbca5c022	-0.020233218
229	0xbccdff1c	-0.02514606
230	0x3d3db4f3	0.046315145
231	0x3c927f5f	0.017883
232	0xbc817fea	-0.015808064
233	0x3d158222	0.036501057
234	0x3b9d4bc2	0.004800291
235	0x3c710baa	0.014712254
236	0x3c4c2620	0.012460262
237	0xbcb64947	-0.022251738
238	0xbcb56d50	-0.02214685
239	0xbcc58624	-0.024111815
240	0xbca81975	-0.020519951
241	0x3c58dba9	0.013235965
242	0x3ca7f951	0.020504626
243	0xbc5f7b2f	-0.013640209
244	0x3cd254ec	0.02567526
245	0x3d4cc49e	0.049992196
246	0xbc83b96f	-0.016079633
247	0x3cbbdc56	0.022932213
248	0x3d2b5ad2	0.04183466
249	0xbc8d1784	-0.017223127
250	0x3c87f424	0.016595908
251	0x3d0963cd	0.033542443
252	0x3c7b3c5f	0.015334218
253	0xbc5c543c	-0.013447817
254	0x3d374678	0.04474494
255	0xbb736e7c	-0.0037144711

action_model._discrete_distribution.branches.0.weight f4 [1, 128]
0	0xbb4a7377	-0.0030891576
1	0x3c7c93df	0.015416115
2	0xbc0318ad	-0.008001489
3	0x3bd09cf3	0.006366366
4	0x3a42c0a2	0.0007429217
5	0x3c000bef	0.007815345
6	0x3b42bbdf	0.002971403
7	0x3a4e54e2	0.0007870925
8	0xbc348cee	-0.011019928
9	0x3ca29677	0.019847138
10	0x3a4b6ece	0.00077603466
11	0x3c1878ca	0.009306142
12	0x3c200a4b	0.009768079
13	0x3b3f74bc	0.0029213866
14	0x3c0f500f	0.008747115
15	0x3a7fe4bd	0.00097615627
16	0xbadcb587	-0.0016838767
17	0x3c0c2579	0.008553856
18	0x3aa226a7	0.0012371138
19	0xbb1bad71	-0.0023754502
20	0xbaf9bb5f	-0.0019053033
21	0xbbdcb718	-0.0067356937
22	0x3a8a64ea	0.0010558639
23	0x3c3e9ec3	0.011634531
24	0xbbea5ea5	-0.007152396
25	0xbc175b77	-0.0092381155
26	0x3c2e3874	0.010633577
27	0xbbc6db07	-0.0060685906
28	0x3bd15637	0.0063884514
29	0xbca1bf6a	-0.019744594
30	0x3c62f23a	0.013851697
31	0xbc44db9b	-0.012015249
32	0x3c8fbd96	0.017546456
33	0xba186a7c	-0.0005814207
34	0x3c1190b4	0.008884598
35	0xbbe13f23	-0.0068739816
36	0xbb121913	-0.0022292777
37	0xbbc26213	-0.0059321015
38	0xbc06074f	-0.008180453
39	0x3bf0b852	0.0073461914
40	0xbc79df6f	-0.015251025
41	0xbbb77c02	-0.0055994997
42	0x3cbabe57	0.02279584
43	0xbba4ee2d	-0.0050332756
44	0x3bb5eca9	0.0055518937
45	0x3c651538	0.01398211
46	0x3c6cfedf	0.014465063
47	0x3b4538af	0.00300936
48	0x3c1cad38	0.009562783
49	0xbc109186	-0.008823758
50	0xbaeeadba	-0.0018209734
51	0x3a49f131	0.0007703482
52	0x3c062df8	0.008189671
53	0xbc38e9e7	-0.011286235
54	0x39c49932	0.00037498173
55	0x3b7c0847	0.0038457082
56	0xbc2a0cf5	-0.010379066
57	0x3b8951dd	0.004190667
58	0x3b8286a4	0.0039833356
59	0xbae04caf	-0.0017112697
60	0x3bb5616f	0.0055352966
61	0xbb72ec5d	-0.0037067153
62	0x3c64e2df	0.013970106
63	0x3c14001c	0.009033229
64	0x38236a86	3.8961436e-05
65	0x3b386db3	0.0028141558
66	0x3bf425e2	0.007450805
67	0xbc4b1299	-0.012394571
68	0xbbfca6fa	-0.007710335
69	0xbc4c45d7	-0.012467823
70	0xbaeb9da0	-0.0017976053
71	0x3bc06761	0.0058716987
72	0xbcb5bd5b	-0.022185018
73	0xbaaa6eb3	-0.0013002962
74	0x3a1fb8bf	0.0006092898
75	0xbaeb8eca	-0.0017971632
76	0x3bd67707	0.006544951
77	0xbb99ddb3	-0.004695618
78	0x3983302b	0.00025022155
79	0x3b833e65	0.0040052407
80	0xbb08c2e7	-0.0020868124
81	0xbbfd4a4b	-0.0077298037
82	0xbc44dc21	-0.012015373
83	0xbbefd12f	-0.007318638
84	0xbc258b35	-0.01010399
85	0x3b6a39ef	0.0035740098
86	0x3c24c4a8	0.010056652
87	0x38bc7c6c	8.987714e-05
88	0xbbdd71fb	-0.0067579723
89	0x3a50fe58	0.00079724705
90	0xbafacd83	-0.0019134734
91	0xbc267672	-0.0101600755
92	0x3c03951f	0.008031159
93	0xbbbece46	-0.0058229296
94	0x3c28d353	0.01030429
95	0xbbec92ca	-0.007219647
96	0xba04d84e	-0.00050676323
97	0x3c397a63	0.011320683
98	0xbb4da1ba	-0.0031376914
99	0xbc5e8a67	-0.013582802
100	0xba27ccef	-0.0006401082
101	0xbb142cf0	-0.0022609793
102	0x3a24a007	0.00062799494
103	0x3b1a9b40	0.0023591071
104	0xba995de6	-0.0011700958
105	0x3a3d4cad	0.00072212034
106	0xbb9c28df	-0.0047656144
107	0x3c3f379b	0.011670972
108	0xba75c7e2	-0.0009375793
109	0x3b3b7e59	0.0028609245
110	0xbbba184f	-0.0056791673
111	0xbc4ac33f	-0.012375652
112	0xbbcd1b20	-0.006259337
113	0xb98a8d69	-0.0002642677
114	0x3bcea4a3	0.0063062473
115	0xbb5480d2	-0.0032425416
116	0xbc6b87fb	-0.014375682
117	0xbbacb67c	-0.0052707773
118	0x3b76db75	0.0037667428
119	0x3c343bc3	0.011000576
120	0xbb2cfa57	-0.0026394331
121	0xbc067fa1	-0.00820914
122	0xbbda5373	-0.00666278
123	0xbaae50e5	-0.0013299255
124	0xb938a99f	-0.00017610796
125	0xbc67708f	-0.014125957
126	0x3b00ddca	0.0019663447
127	0xbb4d45c5	-0.0031322103

network_body._body_endoder.seq_layers.0.bias f4 [128]
0	0x3d185a1a	0.037195303
1	0x3a6e00bb	0.00090790883
2	0xbc8c2946	-0.017109524
3	0x3c950156	0.018189114
4	0xbbfebc07	-0.0077738794
5	0x3c8b9439	0.017038452
6	0xbb8155a6	-0.0039469777
7	0x3cd9b5be	0.02657592
8	0x3cd73bd9	0.026273655
9	0x392bab8e	0.0001637174
10	0x3cdff866	0.027340125
11	0x3ce321cf	0.027726082
12	0x3d3566aa	0.04428736
13	0x3c3732bd	0.011181531
14	0x390b1304	0.00013263157
15	0x3ce5e5f9	0.028063761
16	0x3c24ded9	0.010062897
17	0xbc76f219	-0.015072369
18	0x3cc65873	0.024212098
19	0xbcd4e96f	-0.025990216
20	0x3b90d538	0.004419949
21	0xbd02cd2f	-0.03193396
22	0x3c10e93d	0.008844671
23	0x3c5fa05f	0.013649075
24	0x3baca75e	0.005268975
25	0xbc9eec39	-0.01939975
26	0xbc169cf2	-0.009192692
27	0xbc6ddace	-0.014517499
28	0xbca71d16	-0.020399611
29	0xbb95c78c	-0.004570907
30	0x3cff2716	0.031146567
31	0xbcd0ab67	-0.025472356
32	0x3b998f05	0.0046862387
33	0xbc078cf4	-0.008273352
34	0x3c2b03db	0.010437931
35	0x3c293f17	0.010329983
36	0x3c26456b	0.0101483865
37	0xbc8f6560	-0.017504394
38	0xbadeb738	-0.0016991859
39	0xbcb1f258	-0.021722004
40	0xbbe98260	-0.0071261376
41	0xbc87b1b3	-0.016564226
42	0xbc357807	-0.01107598
43	0x3d2be8c9	0.041970048
44	0xbb7f3b21	-0.0038945156
45	0x3b8170ea	0.003950228
46	0xbcc051ef	-0.023476569
47	0xbc71751c	-0.014737394
48	0xbc475b84	-0.012167815
49	0x3b6afd75	0.0035856639
50	0xbc6cc80d	-0.014451993
51	0x3cc49dd6	0.024001043
52	0x3c2cc94b	0.010546039
53	0x3c967a9e	0.018369015
54	0xbca83cd2	-0.020536814
55	0xbcc0ee79	-0.023551213
56	0x3c9e7038	0.01934062
57	0xbc05e25b	-0.008171643
58	0x3cb8df1c	0.022567324
59	0x3c3ec0b4	0.011642624
60	0x3ccdf118	0.025139377
61	0x3c81ef2f	0.015861122
62	0x3bef8927	0.007310051
63	0xbc187da4	-0.009307299
64	0xbc859015	-0.016304055
65	0xbc563804	-0.013074879
66	0x3cbe9716	0.023265403
67	0x3c55d7e0	0.013051957
68	0xbc51a76a	-0.012796262
69	0x3b8b1ce9	0.0042453897
70	0x3d507e0c	0.050901458
71	0x3d1e51bf	0.038652178
72	0x3afe319b	0.0019393446
73	0x3c8cebd2	0.017202292
74	0xbc8c9a6e	-0.017163482
75	0xbc99155e	-0.018686946
76	0xbbd11192	-0.0063802684
77	0xbcc02641	-0.02345574
78	0x3bd47c5b	0.006484551
79	0xbceacb6f	-0.028661458
80	0xbd1c3579	-0.038136933
81	0xbb6d42ca	-0.003620314
82	0xbcbd6919	-0.023121404
83	0xbca60dcf	-0.020270256
84	0x3c61ef91	0.013790027
85	0x3c8c1a2c	0.017102323
86	0xba4d8789	-0.00078403257
87	0x3d00249a	0.031284906
88	0x3c8962ab	0.016770681
89	0x3cdd3a4d	0.027005339
90	0x3d25a9e8	0.04044524
91	0x3ce1bb05	0.027554998
92	0x3cb7e7fd	0.022449488
93	0x3c55580f	0.013021483
94	0x3c8e3234	0.017357923
95	0x3c7dc306	0.015488392
96	0x3c94fa03	0.018185621
97	0x3b7778a7	0.0037761123
98	0x3c5aee06	0.013362413
99	0xbce8d1a0	-0.02842027
100	0x3cce2a69	0.025166707
101	0x3b93fe77	0.0045164186
102	0x3c4aae22	0.012370618
103	0xbba5ce10	-0.005059965
104	0xbaf19215	-0.0018430377
105	0xbc2bc309	-0.010483512
106	0x3d73b278	0.059496373
107	0xbce5ca8a	-0.02805068
108	0xbc6c7e43	-0.0144344
109	0x3d14571b	0.036215883
110	0xbbaa03ea	-0.005188455
111	0x3c1b4819	0.009477639
112	0x39eb92fb	0.00044932202
113	0xbc441273	-0.011967289
114	0xbbd487b5	-0.006485904
115	0xbc60e777	-0.0137270605
116	0xbc799493	-0.015233177
117	0xbc0fe820	-0.00878337
118	0x3cf978f0	0.030453175
119	0xbc481f9e	-0.012214569
120	0x3c54fbae	0.012999458
121	0xbc63597a	-0.013876313
122	0x3cc0345c	0.023462467
123	0x3d0de781	0.034644607
124	0x3c3c6c07	0.011500365
125	0x3d04d615	0.032430727
126	0x3bffdb9a	0.007808161
127	0x3c7e0484	0.015504006

network_body._body_endoder.seq_layers.0.weight f4 [128, 110]
0	0x3d856a12	0.06514372
1	0xbd5ef99b	-0.05443726
2	0x3d7e7975	0.06212755
3	0x3df3ec40	0.119102955
4	0x3e74d63d	0.2390985
5	0x3d195686	0.03743603
6	0x3e171a93	0.14756231
7	0x3d29f84a	0.041496553
8	0xbdb3c702	-0.08778192
9	0xbdaf3a3a	-0.08556028
10	0xbd28efe0	-0.041244388
11	0xbde27354	-0.11057153
12	0xbd4f0bc1	-0.05054832
13	0x3d233112	0.03984172
14	0xbd643b0f	-0.055720385
15	0x3d5e1e8c	0.05422835
16	0x3e3b22b4	0.18274957
17	0xbe30ef85	-0.1727887
18	0x3d3a1f8f	0.045440253
19	0x3dd05ca3	0.10173919
20	0xbda8d637	-0.08243983
21	0x3dce75b3	0.10081043
22	0xbcdd33fa	-0.027002323
23	0xbc959e64	-0.018264003
24	0x3dee0f1e	0.11623977
25	0x3ca1eeff	0.019767283
26	0xbd7c445f	-0.06158864
27	0xbe3c9ad4	-0.18418437
28	0x3e248c90	0.16069245
29	0xbc89b480	-0.016809702
30	0x3e15d5c8	0.14632332
31	0x3c8da5a7	0.017290903
32	0xbd97eb93	-0.07417979
33	0xbe1f825e	-0.15577075
34	0xbd7a2810	-0.061073363
35	0x3e104912	0.14090374
36	0x3ab3282c	0.0013668588
37	0xbc462cd4	-0.012095649
38	0x3d125646	0.035726808
39	0x39d5de05	0.00040791943
40	0xbd8df760	-0.06931949
41	0xbdeca771	-0.115553744
42	0x3e1cbcee	0.15306446
43	0xbd26627a	-0.04062126
44	0x3e46c4e7	0.1941105
45	0x3e06035f	0.13087223
46	0x3e0d2dc1	0.13786985
47	0xbdd84825	-0.105606355
48	0xbca399dc	-0.019970827
49	0xbbdeca13	-0.0067989915
50	0x3e1497a7	0.14510976
51	0x3d2b8173	0.0418715
52	0x3de95e6d	0.113949634
53	0x3d95d3de	0.07315801
54	0xbe03ae37	-0.12859426
55	0x3e187c04	0.14891058
56	0xbd9b40bf	-0.07580709
57	0xbd1af374	-0.03782983
58	0x3d8b533b	0.06802984
59	0xbdd61479	-0.104531236
60	0xbd79952e	-0.060933284
61	0xbd5c8324	-0.053836003
62	0xbd0e8c75	-0.03480192
63	0x3d1c9db8	0.03823635
64	0x3d06de3e	0.03292679
65	0xbd24581e	-0.040123098
66	0xbe004b6a	-0.12528768
67	0xbd46ddff	-0.048551556
68	0x3e331b0f	0.17490791
69	0xbe0d27e4	-0.13784748
70	0x3d8cdeac	0.06878409
71	0xbd0120e4	-0.031525508
72	0x3e124ae0	0.14286375
73	0x3d71846f	0.05896419
74	0x3d4eb3c2	0.0504644
75	0x3dee7edf	0.116452925
76	0xbe552f37	-0.20818792
77	0x3d87007c	0.06591889
78	0xbdba6330	-0.0910095
79	0x3dc31ce8	0.09526998
80	0xbd7e3c5b	-0.06206928
81	0x3d919590	0.07108605
82	0xbd82b383	-0.063818954
83	0x3d8659b8	0.06560081
84	0x3e0e911c	0.13922542
85	0xbc1f02f0	-0.00970529
86	0x3c12a77c	0.008951064
87	0xbd536c38	-0.051616877
88	0x3df6ea22	0.12056376
89	0x3c42a150	0.01187928
90	0xbdb2e64a	-0.087353304
91	0x3c8a53b8	0.016885623
92	0x38bc0111	8.964737e-05
93	0x3ba621db	0.005069954
94	0xbbe335c7	-0.006933901
95	0x3dc5e7ad	0.09663329
96	0xbc3d1d8b	-0.011542688
97	0xbd33a683	-0.04385997
98	0x3dadca4c	0.08485851
99	0x3a6dc9a6	0.00090708805
100	0x3caf7e8e	0.02142265
101	0x3d86a67a	0.06574722
102	0xbd41f14a	-0.04734925
103	0x3da4a2d5	0.0803887
104	0x3dc8f748	0.0981279
105	0xbe19585f	-0.14975117
106	0xbccfa2b8	-0.025346145
107	0x3dd369ee	0.10322939
108	0x3d9843f9	0.0743484
109	0xbb80dd52	-0.0039326334
110	0x3e2520f9	0.1612586
111	0xbde3db45	-0.11125807
112	0x3dc332e8	0.09531194
113	0x3eb4497d	0.35212317
114	0x3d90ee2a	0.07076676
115	0x3cd7d9f3	0.026349043
116	0x3de72273	0.112858675
117	0x3e5ea6ce	0.21743318
118	0x3cca6260	0.024705112
119	0x3dd07f80	0.10180569
120	0xbde5f9e0	-0.112293005
121	0xbdcab957	-0.09898632
122	0xbe054ea8	-0.13018286
123	0xbc20953d	-0.009801206
124	0xbd3c0042	-0.045898683
125	0xbe0ec94f	-0.1394398
126	0xbd7975fc	-0.060903534
127	0x3e3cb9ed	0.184303
128	0xbd293b00	-0.041316032
129	0xbd541554	-0.051778153
130	0xbd17c2d8	-0.03705105
131	0x3d95297f	0.072833054
132	0x3cf3f153	0.029778158
133	0xbe05ae44	-0.13054758
134	0xbd3b50f6	-0.045731507
135	0x3cff067d	0.031131024
136	0x3d70c1fa	0.05877874
137	0x3d2e8a8f	0.04261261
138	0x3d5f4a3e	0.054514162
139	0xbce6473f	-0.028110145
140	0xbdf27e77	-0.118405275
141	0x3e042afd	0.12907024
142	0x3ad77a60	0.0016439669
143	0xbd7d377d	-0.061820496
144	0xbd929562	-0.07157399
145	0x3d201713	0.039084505
146	0xbdfc5c98	-0.12322348
147	0x3d343966	0.044000052
148	0xbdcadf02	-0.099058166
149	0x3daaac1f	0.08333611
150	0x3dda0597	0.106455974
151	0x3e054ee7	0.1301838
152	0xbe0d10dd	-0.13775964
153	0x3dc323dc	0.09528324
154	0xbc242818	-0.010019325
155	0xbdd6540c	-0.104652494
156	0x3d9272b9	0.07150788
157	0x3e184135	0.14868625
158	0xbc5af3ad	-0.013363761
159	0x3d825a6d	0.063649036
160	0xbc926e9c	-0.017875008
161	0x3e377e48	0.17919266
162	0xbd470732	-0.048590846
163	0x3d5c4804	0.053779617
164	0xbda6b019	-0.08139057
165	0xbd3c148d	-0.045918036
166	0x3ddce004	0.10784915
167	0xbdb0809f	-0.086182825
168	0xbd866ef0	-0.065641284
169	0xbd4ff84c	-0.050773904
170	0x3de53ded	0.11193452
171	0x3d9cb782	0.07652189
172	0x3c31dcff	0.010855912
173	0xbd90e0a6	-0.07074098
174	0xbdd7e19b	-0.10541078
175	0x3d6d0cd0	0.057873547
176	0xbdbe98f0	-0.09306514
177	0x3ddf569a	0.1090519
178	0x3d4c842b	0.049930733
179	0x3cec657f	0.02885699
180	0xbdab71b6	-0.08371298
181	0x3c88fe8c	0.01672294
182	0x3dda02be	0.10645054
183	0x3dc503ee	0.0961989
184	0x3da19f2c	0.07891688
185	0xbe0b9a5d	-0.13633104
186	0x3d9d66e2	0.07685639
187	0x3e0fa283	0.14026837
188	0xbcbb4d02	-0.022863869
189	0x3ddde9e3	0.10835626
190	0xbd8779b9	-0.06615014
191	0x3d488def	0.048963483
192	0xbd99cc2d	-0.075096466
193	0x3d183abf	0.0371654
194	0xbc82e8de	-0.01598018
195	0xbd68a996	-0.056802355
196	0xbd8a1692	-0.06742586
197	0xbd05a83e	-0.03263115
198	0xbd7ba767	-0.061438944
199	0xbc4e18fc	-0.012579199
200	0x3d8dac5a	0.06917639
201	0x3d85889d	0.065201975
202	0xbdfe2c7a	-0.12410827
203	0x3da49c4c	0.08037624
204	0x3dd86dad	0.10567794
205	0x3e15f0f0	0.14642692
206	0x3e009abc	0.12559026
207	0xbd80a67b	-0.06281754
208	0xbe1450a0	-0.14483881
209	0x3dd200f3	0.10254087
210	0x3e281bb2	0.16416815
211	0x3d968694	0.073498875
212	0x3ce84d21	0.02835709
213	0xbcf2249f	-0.029558478
214	0xbbf6e801	-0.0075349812
215	0xbc05c193	-0.0081638275
216	0x3d1dc6a6	0.038519524
217	0xbd4e06d3	-0.050299477
218	0x3cfc90ef	0.030830828
219	0x3e0a1617	0.13484989
220	0xbdd47c22	-0.10375239
221	0xbcd700c5	-0.026245484
222	0x3de79c16	0.11309068
223	0xbc5d2277	-0.013496987
224	0xbcecb72e	-0.02889594
225	0xbe31fd6e	-0.17381832
226	0xbd73ad09	-0.05949119
227	0xbda4448b	-0.08020886
228	0x3d012e1c	0.031538114
229	0x3c8abc73	0.016935563
230	0xbd1af73a	-0.03783343
231	0x3dbc1c24	0.09185055
232	0x3c27e4ee	0.010247452
233	0xbd7cbd20	-0.0617038
234	0xbdc2e147	-0.095156245
235	0x3e004987	0.12528048
236	0x3d29e7ef	0.041480955
237	0x3d6bc584	0.057561412
238	0x3ce2d96e	0.02769157
239	0x3d2cc946	0.042184137
240	0xbc28dc32	-0.010306405
241	0x3cde5f10	0.027144939
242	0x3dd587fe	0.10426329
243	0x3e12261c	0.1427235
244	0xbe1c26c5	-0.15249164
245	0xbd69e456	-0.057102524
246	0x3e93e465	0.2888519
247	0xbd9d520b	-0.07681664
248	0x3d95a7b5	0.07307378
249	0xbd3e2131	-0.046418373
250	0xbd108d48	-0.035290986
251	0xbd0f670d	-0.035010386
252	0x3de6087f	0.11232089
253	0x3c901a68	0.017590716
254	0x3e03fee6	0.12890205
255	0x3dc32895	0.09529225

network_body._body_endoder.seq_layers.2.bias f4 [128]
0	0xbca59629	-0.020213204
1	0xbca03568	-0.019556716
2	0x3cc82a8f	0.024434356
3	0xbc8a46f3	-0.016879534
4	0x3c59dd02	0.013297321
5	0xbce49a17	-0.027905507
6	0xbb7b799d	-0.0038372048
7	0xbcbcb697	-0.023036284
8	0x3d09c77b	0.033637505
9	0xbc0ebbea	-0.008711794
10	0x3cfec2c5	0.031098733
11	0xbcaba846	-0.020954262
12	0x3d075391	0.03303868
13	0xbbabd3a7	-0.005243737
14	0xbc4ef074	-0.012630571
15	0x3cd4b439	0.025964843
16	0x3b2b5ac3	0.0026146627
17	0x3c034edd	0.008014408
18	0x3d09830f	0.033572253
19	0xbc3dea2b	-0.0115914745
20	0x3bbe04e9	0.005798925
21	0xbb25c77a	-0.00252959
22	0x3cd77600	0.026301384
23	0x3b969e05	0.004596474
24	0xbbb6b2ab	-0.005575498
25	0x3c98eb87	0.018666996
26	0x3ccc6bbc	0.024953716
27	0x3bc069b8	0.0058719777
28	0x3b66cc9a	0.0035217167
29	0x3ca61fd2	0.020278845
30	0x3b32e5c6	0.00272976
31	0x3bba6434	0.0056882147
32	0x3bdd2386	0.0067486195
33	0x3cd13845	0.025539527
34	0xbc25353b	-0.010083492
35	0x3cc54aa2	0.02408344
36	0x3acf932c	0.0015836707
37	0x3b3eb095	0.002909695
38	0xbc8f20e0	-0.01747173
39	0x3cb40cc0	0.021978736
40	0xbca4d397	-0.020120425
41	0x3d234930	0.03986472
42	0x3c347496	0.011014124
43	0xbc876db8	-0.01653181
44	0xbb594d26	-0.0033157556
45	0x3a2fab38	0.0006701234
46	0x3caeacac	0.02132257
47	0xbc96d0d8	-0.018410131
48	0x3c82a6fc	0.015948765
49	0x3c1be86e	0.009515865
50	0xbc6c436c	-0.0144203715
51	0xbbaf631d	-0.0053523914
52	0x3cf5f632	0.030024622
53	0x3c23b9c0	0.009993017
54	0x3cc419bc	0.023938052
55	0xbc1e4248	-0.009659357
56	0xb9abfeb2	-0.00032805424
57	0x3d07a134	0.03311272
58	0xbc515d9b	-0.012778665
59	0x3c3ab5f7	0.011395923
60	0x3d0406a1	0.032232884
61	0x3c4c08d1	0.012453274
62	0xbc9bff6e	-0.019042697
63	0xbc7ffb20	-0.015623838
64	0x3c191d04	0.009345297
65	0xbca1e290	-0.019761354
66	0x3ce170fc	0.027519695
67	0x3c36197f	0.011114477
68	0x3cc30271	0.023804875
69	0x3b767f18	0.0037612375
70	0x3c885b76	0.016645174
71	0x39ad90ed	0.0003310511
72	0x3c87cb5c	0.016576461
73	0x3b314470	0.0027048849
74	0xbc7bf1e0	-0.015377492
75	0x3d01e3bd	0.03171133
76	0xbc4099cd	-0.011755419
77	0x3b86fdea	0.0041196244
78	0x3b720edb	0.0036935124
79	0x3c5c5fd5	0.0134505825
80	0xbc1fb730	-0.009748265
81	0x3c4b60ac	0.012413185
82	0xbc98612a	-0.018601019
83	0x3c3cf4c4	0.011532966
84	0xbbaddc2d	-0.005305788
85	0xbc927567	-0.017878247
86	0xbcf1a4a9	-0.029497461
87	0xbb8ede20	-0.0043599755
88	0xbbdc36a5	-0.0067203813
89	0x3cecc88f	0.028904228
90	0x3c070a5e	0.008242218
91	0x3c9053e0	0.01761812
92	0x3bbc4d31	0.0057465066
93	0x3c855e46	0.016280305
94	0x3ca49bff	0.020093916
95	0xbcaaa884	-0.020832308
96	0xbccfa731	-0.025348278
97	0xbb7495ae	-0.0037320661
98	0xbaa15c2c	-0.0012310795
99	0x3c9c5c72	0.01908705
100	0x3ccc5e8a	0.024947423
101	0x3cb44734	0.022006609
102	0xbb219e5b	-0.0024661038
103	0x371c8740	9.329815e-06
104	0xbb6017e1	-0.003419392
105	0xbba08df0	-0.004899733
106	0x3a6d0ed9	0.0009043045
107	0xbc878108	-0.01654102
108	0xbca85d22	-0.020552222
109	0x3cfc8e24	0.030829497
110	0x3d12d942	0.035851724
111	0x3d199e01	0.0375042
112	0xba9bda21	-0.0011890569
113	0x3c3cc0db	0.01152059
114	0xbc9d99b5	-0.019238332
115	0x3cd7c82b	0.026340565
116	0xbc917d82	-0.017760042
117	0xbc8e839e	-0.017396744
118	0x3ca7d03f	0.020485042
119	0xbca65411	-0.020303758
120	0x3cbef621	0.023310723
121	0x3cf2b2b7	0.029626234
122	0xbbbf3e75	-0.005836303
123	0xbaebfd6a	-0.00180046
124	0xbc0e790b	-0.008695851
125	0x3cd3d397	0.02585773
126	0x3c464580	0.012101531
127	0xbbe50824	-0.006989496

network_body._body_endoder.seq_layers.2.weight f4 [128, 128]
0	0xbba83021	-0.0051326905
1	0xbde83296	-0.113377735
2	0xbca3bb42	-0.019986752
3	0xbdbf685b	-0.09346076
4	0x3dcaf445	0.09909872
5	0x3e2c0c64	0.16801602
6	0x3e307845	0.17233379
7	0xbe0e0acc	-0.13871306
8	0x3d4dbb36	0.050227366
9	0x3dc1697f	0.0944395
10	0x3d807b9c	0.062735766
11	0x3e01c6b4	0.12673455
12	0xbe3d0e7f	-0.18462561
13	0x3cc9f2e0	0.024651945
14	0x3d6809b2	0.05664987
15	0x3dff9a64	0.124806195
16	0x3d8f449f	0.0699551
17	0x3d4ae22b	0.049532097
18	0x3da860d2	0.08221592
19	0x3beaf5a2	0.007170395
20	0xbd2c8d5a	-0.04212699
21	0xbd792203	-0.06082345
22	0xbd058fe0	-0.032607913
23	0x3e196285	0.14978988
24	0xbe3b17ad	-0.1827075
25	0xbd87a1a6	-0.06622629
26	0x3e25efb6	0.16204724
27	0x3c8fe8c9	0.017567055
28	0x3daa5bf5	0.08318321
29	0x3ee08821	0.43853858
30	0xbe6478c5	-0.22311695
31	0xbe237d16	-0.15965685
32	0x3dc43d45	0.09581999
33	0x3e83ce03	0.25743112
34	0x3cff1cae	0.031141605
35	0x3bc84bc9	0.00611255
36	0x3dfe2862	0.12410046
37	0xbdae8135	-0.08520738
38	0xb8d56869	-0.000101760794
39	0x3d240562	0.040044196
40	0xbe1c4cbb	-0.15263645
41	0xbdb2893f	-0.08717584
42	0x3dc0c4ea	0.094125584
43	0xbd8d0123	-0.068849824
44	0xbd2706d2	-0.04077799
45	0xbd2e11c4	-0.04249741
46	0xbe039ca8	-0.12852728
47	0x3c3f9fa4	0.011695776
48	0x3ba99f08	0.0051764287
49	0x3dd94fcc	0.10610923
50	0x3ce97e7f	0.0285027
51	0x3c90f82e	0.017696466
52	0x3d8b5b63	0.0680454
53	0x3e1460ac	0.14490002
54	0x3d1ecd53	0.03877003
55	0x3e31e067	0.17370759
56	0xbcbbf6ff	-0.022944925
57	0xbbeaaee2	-0.007161961
58	0xbdb6c582	-0.089243904
59	0x3dfd9e2f	0.12383687
60	0x3d3373fe	0.04381179
61	0xbe473104	-0.19452292
62	0x3dba701f	0.09103417
63	0x3e083e95	0.13305123
64	0xbccc6c07	-0.024953855
65	0xbd6fec01	-0.05857468
66	0x3d9f53ab	0.0777963
67	0x3cef56f7	0.029216273
68	0x3cbdc247	0.023163928
69	0x3ddb6c0f	0.1071397
70	0x3d384241	0.04498506
71	0xbdbe7202	-0.09299089
72	0x3d37d35f	0.044879314
73	0x3cb0c35e	0.021577533
74	0x3e60cc27	0.21952878
75	0x3d140bde	0.03614413
76	0x3d2064a7	0.03915849
77	0xbc98e5d5	-0.01866428
78	0xbddb7269	-0.107151814
79	0x3d832098	0.06402701
80	0x3c71f9f1	0.014769063
81	0xbdbd4765	-0.09242133
82	0x3df7ebb1	0.121055014
83	0xbd27df25	-0.04098429
84	0xbd314ee7	-0.043288138
85	0x3df22d00	0.11824989
86	0xbe02cc04	-0.12773138
87	0x3d584a70	0.052805364
88	0xbd7bdf10	-0.061492026
89	0x3dacbb3f	0.08434152
90	0x3e26e2b9	0.16297425
91	0xbd245c77	-0.040127244
92	0x3d7f5b46	0.062342905
93	0x3da25588	0.0792647
94	0xbd434ee1	-0.047682647
95	0xbd666cd9	-0.05625615
96	0x3cbd4fb4	0.023109294
97	0xbd90a0b4	-0.07061902
98	0x3dd8e3c0	0.10590315
99	0xbca06df9	-0.019583689
100	0x3b9da132	0.0048104757
101	0x3d704a0b	0.058664363
102	0xbd6cec08	-0.057842284
103	0x3e067609	0.13130964
104	0x3dd90f23	0.1059859
105	0x3db89c3b	0.090141736
106	0x3dfffefb	0.124998055
107	0xbd53d904	-0.051720634
108	0xbe69a0b9	-0.22815217
109	0xbc839736	-0.016063314
110	0x3e22f16c	0.15912408
111	0x3d29a409	0.0414162
112	0x3e22b256	0.15888342
113	0x3c10ef96	0.008846184
114	0xbdd99e09	-0.10625846
115	0x3de441ca	0.11145361
116	0x3db0e0ce	0.08636628
117	0xbc6c0c44	-0.014407221
118	0x3d76f263	0.06028975
119	0xbd342e0d	-0.04398923
120	0x3e2e991b	0.17050593
121	0xbdad5391	-0.08463205
122	0x3bb41bd5	0.005496482
123	0xbe4cc0eb	-0.19995467
124	0xbc881185	-0.016609916
125	0x3e4df3fc	0.20112604
126	0xbd5d8e15	-0.054090578
127	0x3d14edf4	0.036359742
128	0xbc4238e9	-0.011854389
129	0xbd74dda1	-0.059781674
130	0x3d884c5c	0.066551894
131	0x3d24c508	0.040226966
132	0xbd8cab45	-0.068686046
133	0xbc81eec9	-0.015860932
134	0x3d950332	0.07276
135	0x3c0acad5	0.0084712105
136	0x3d89cc14	0.06728378
137	0x3d33fd3a	0.043942668
138	0xbdeec89f	-0.11659359
139	0xbdb79754	-0.089644104
140	0x3d8e9f36	0.06963961
141	0x3cfc03d4	0.030763544
142	0x3d95fc2d	0.07323489
143	0x3d92d09a	0.07168694
144	0x3d9f2caf	0.077721946
145	0xbe77f9f3	-0.24216442
146	0x3d4671ab	0.048448246
147	0xbc34124c	-0.01099069
148	0x3d2f9de5	0.04287519
149	0x3cf5e2eb	0.03001543
150	0xbe4f3fc1	-0.20239164
151	0xbe0de997	-0.13858639
152	0x3cf9b1b1	0.030480238
153	0x3b9e982d	0.004839918
154	0x3d0055a2	0.031331666
155	0x3dacac5f	0.08431315
156	0xbd8b3fb2	-0.06799258
157	0xbda0551f	-0.078287356
158	0x3dd983e6	0.10620861
159	0xbd5901d5	-0.052980263
160	0x3de1a0d5	0.110170044
161	0xbd36dbc5	-0.044643182
162	0xbc91aaa3	-0.017781561
163	0x3d0cad31	0.034344856
164	0xbd236a1f	-0.039896127
165	0xbd8d76fb	-0.06907459
166	0x3d8f47aa	0.06996091
167	0xbe22fef0	-0.15917563
168	0x3bf2667a	0.00739747
169	0xbd757b55	-0.05993207
170	0x3dc1f71d	0.09470961
171	0x3e19dbdd	0.15025277
172	0x3d1e561c	0.03865634
173	0xbdbdfa69	-0.092762776
174	0xbd8c732d	-0.068579055
175	0x3daca4be	0.084298596
176	0xbd6248a7	-0.055245068
177	0x3d0e1266	0.034685515
178	0x3b3dece2	0.0028980304
179	0xbd8ce99f	-0.06880497
180	0xbc49505a	-0.012287224
181	0xbd822be0	-0.06356025
182	0x3e100191	0.14063098
183	0x3c1f548e	0.009724749
184	0xbe6f2a34	-0.23355943
185	0xbc99b8aa	-0.018764812
186	0x3e056fe8	0.1303097
187	0xbd465007	-0.048416164
188	0xbce219c4	-0.027600177
189	0x3dc94b68	0.09828836
190	0x3de9570f	0.11393558
191	0x3c03a956	0.008035978
192	0xbd911fe9	-0.070861645
193	0xbd4a8956	-0.04944738
194	0x3d221b60	0.039576888
195	0xbb946ce2	-0.0045295814
196	0xbda96360	-0.082709074
197	0x3d11cd09	0.035595927
198	0xbe49349f	-0.1964898
199	0x3ce87b28	0.028379038
200	0xbcb850eb	-0.022499522
201	0xbd45692c	-0.048196003
202	0x3da170e4	0.0788286
203	0xbce6be33	-0.028166866
204	0xbc86c904	-0.016453274
205	0xbd6256d7	-0.0552586
206	0x3dc55ff6	0.09637444
207	0x3df953d7	0.12174194
208	0x3db51034	0.08840981
209	0x3dc9ef13	0.09860053
210	0x3e0e4e4c	0.13897055
211	0x3dcb22b8	0.099187315
212	0x3a80285a	0.0009777651
213	0xbe04fdc7	-0.12987433
214	0xbddf92d2	-0.109166756
215	0xbd66bbb1	-0.05633134
216	0x3c5cf3d8	0.013485871
217	0x3beef4ec	0.0072923806
218	0xbe31c169	-0.17358936
219	0xbc2e73fa	-0.010647768
220	0xbdfe87ef	-0.12428271
221	0xbe3cc494	-0.18434364
222	0x3d668a71	0.05628437
223	0xbda4a13f	-0.08038568
224	0xbd47184d	-0.04860716
225	0x3e56dc40	0.20982456
226	0xbccc3fa4	-0.02493269
227	0x3cd7ac26	0.026327204
228	0xbdf17a28	-0.117908776
229	0x3e19e240	0.15027714
230	0x3b4f63f5	0.0031645272
231	0xbd02aab7	-0.031901088
232	0x3ccf08f8	0.025272831
233	0xbd8e02bb	-0.069341145
234	0x3e3e59bf	0.18588923
235	0xbcdb34df	-0.02675861
236	0xbd7b4f5a	-0.061354972
237	0x3c314101	0.010818721
238	0xbd3d7435	-0.0462534
239	0x3c690b27	0.01422385
240	0xbdd55cf0	-0.10418117
241	0xbc2a8be8	-0.010409333
242	0xbca62a7a	-0.020283926
243	0xbaace5dd	-0.0013191063
244	0x3c2566af	0.010095282
245	0x3dde490d	0.10853777
246	0x3e2ea03e	0.17053315
247	0x3d2a5142	0.0415814
248	0xbd872e93	-0.0660068
249	0x3d563478	0.05229613
250	0xbd3cb660	-0.046072364
251	0x3b0870ab	0.0020819108
252	0xbd5d2e82	-0.05399943
253	0xbd0e4b8f	-0.034740027
254	0x3d60a971	0.054849092
255	0x3dbdc595	0.092662014
