results/FirstRunAnacondaTest/AgentSphereBehavior/AgentSphereBehavior-22566.pt (torch, 470095 bytes, 39 tensors)

network_body._body_endoder.seq_layers.0.weight f4 [128, 15]
0	0xbe05dc5e	-0.13072345
1	0x3e35647a	0.1771411
2	0x3e3365c5	0.17519291
3	0x3ec1d7bc	0.37859905
4	0x3e8425bd	0.25810042
5	0x3e040ce7	0.12895547
6	0xbcf2de04	-0.02964688
7	0xbcd4843c	-0.02594196
8	0x3df7daaf	0.121022575
9	0x3f129f13	0.5727398
10	0x3c790e3d	0.015201149
11	0x3e9a8496	0.3017928
12	0x3e514b15	0.20438798
13	0xbf170f02	-0.59007275
14	0xbccc3c14	-0.024930991
15	0x3d522f34	0.051314548
16	0x3e57fadb	0.21091788
17	0xbec7217f	-0.38892743
18	0xbe13802d	-0.14404364
19	0x3d2580cd	0.040406037
20	0x3ec69d60	0.38791943
21	0x3a9756e7	0.0011546285
22	0x3dc3c0f5	0.09558288
23	0x3f0cfb77	0.55071205
24	0x3e09b1cb	0.13446729
25	0x3db25f0e	0.087095365
26	0x3e6593af	0.22419618
27	0x3f0da20a	0.55325377
28	0xbe82de74	-0.25560343
29	0xbe0ae67f	-0.1356449
30	0xbd344689	-0.04401258
31	0xbecb69b7	-0.39729092
32	0x3f03825a	0.51370776
33	0xbdd51b52	-0.104056016
34	0x3e8d9556	0.27652997
35	0xbd07fc13	-0.03319938
36	0x3ea2a35f	0.31765267
37	0xbe0871cf	-0.13324665
38	0x3d7be3e7	0.06149664
39	0x3e93c5f2	0.28861958
40	0x3ecae995	0.39631334
41	0x3ebce0fa	0.36890393
42	0xbe069125	-0.13141306
43	0xbe3e4e07	-0.18584453
44	0x3db9ce33	0.090725325
45	0x3ef8ab1d	0.4856805
46	0x3e9102a8	0.2832234
47	0x3e96d86f	0.29462
48	0xbe85cc0e	-0.26132244
49	0x3e868e1d	0.262803
50	0xbd9247fd	-0.07142637
51	0x3de2bc20	0.11071038
52	0xbde409aa	-0.11134656
53	0x3ebba4b9	0.3664911
54	0x3e4bcd53	0.19902544
55	0x3e192c1f	0.14958237
56	0x3e16a1da	0.14710179
57	0xbf057e69	-0.5214601
58	0x3e54f4db	0.2079653
59	0x3f11df52	0.56981385
60	0x3df6cd11	0.12050832
61	0x3e0bd437	0.13655172
62	0xbdffb6c2	-0.1248603
63	0x3e5abe56	0.2136167
64	0x3de49cba	0.11162706
65	0xbe3d6165	-0.18494184
66	0xbe79dbe5	-0.2440029
67	0x3e29f239	0.16596307
68	0x3d042388	0.032260448
69	0xbe914689	-0.28374127
70	0xbe86b904	-0.2631303
71	0xbdb1b739	-0.08677525
72	0xbe7941a7	-0.2434145
73	0xbf4c1c65	-0.79730827
74	0x3daf6ffd	0.08566282
75	0x3dedb129	0.11606056
76	0x3d9abab4	0.07555142
77	0x3ec971da	0.39344674
78	0xbee81425	-0.4532787
79	0xbea68c9e	-0.32529157
80	0xbdadbab5	-0.08482877
81	0x3e51ae16	0.20476565
82	0xbea121fd	-0.31471244
83	0xbe4b0294	-0.19825202
84	0xbea789c4	-0.32722294
85	0xbd9bd5fd	-0.076091744
86	0xbea1c8c4	-0.31598485
87	0xbd3c111c	-0.045914754
88	0xbe30264a	-0.17202106
89	0x3b8f0e6b	0.0043657324
90	0x3e6b75db	0.22994177
91	0xbe8596b9	-0.26091555
92	0x3f7bc2f1	0.9834433
93	0x3e338c08	0.17533886
94	0x3d7b9df7	0.061429944
95	0xbe6bd4df	-0.23030423
96	0x3e1047c1	0.14089872
97	0x3eb5cfdf	0.35510156
98	0xbea46058	-0.32104754
99	0x3f2319d4	0.63711286
100	0xbe9c28dc	-0.30499923
101	0x3e01b1b0	0.12665439
102	0xbe1b17dd	-0.15145822
103	0x3d21c334	0.0394928
104	0x3e096ba1	0.13419963
105	0x3d036837	0.03208181
106	0xbe618da5	-0.2202669
107	0x3de18480	0.110116005
108	0x3e086f80	0.13323784
109	0xbe6b89d3	-0.23001795
110	0x3d93b5ae	0.07212387
111	0x3dd04682	0.10169698
112	0xbb9b4d2e	-0.004739425
113	0x3cf79869	0.030224042
114	0xbd64f9e9	-0.055902395
115	0xbea28828	-0.31744504
116	0xbec1cd5a	-0.37851983
117	0xbeba3cfd	-0.36374655
118	0xbe1fb810	-0.15597558
119	0x3efc9135	0.49329534
120	0x3d18b49e	0.037281625
121	0x3cabaad8	0.020955488
122	0xbebc2c32	-0.36752468
123	0xbe869c9b	-0.26291355
124	0xbefba7d5	-0.49151483
125	0x3e060b27	0.13090192
126	0x3e804aae	0.25056976
127	0xbda6996f	-0.08134734
128	0x3ec209e3	0.37898168
129	0xbe118fea	-0.14215055
130	0xbaf51de2	-0.0018700922
131	0xbec1143c	-0.3771075
132	0x3d341c75	0.04397245
133	0xbeb1844b	-0.34671244
134	0xbce0eebd	-0.02745759
135	0xbea3cffe	-0.31994623
136	0xbcd1429c	-0.025544457
137	0xbde9ce58	-0.1141631
138	0xbcfb272b	-0.030658325
139	0xbb8a67d2	-0.004223802
140	0xbe0601c5	-0.13086613
141	0xbb04166f	-0.0020154973
142	0xbf0f7d7f	-0.56050867
143	0x3ea0ecba	0.31430608
144	0xbeddc4f9	-0.4331434
145	0x3d0d3137	0.034470763
146	0xbe033971	-0.12814881
147	0x3d689497	0.05678233
148	0x3e85a58f	0.26102874
149	0xbef3dbf4	-0.47628748
150	0x3e81ad2a	0.25327426
151	0xbdd7ecab	-0.10543188
152	0xbe83cf86	-0.25744265
153	0xbe21bd57	-0.15794884
154	0xbdc0d94e	-0.094164476
155	0xbed5c456	-0.41751355
156	0xbe1af68d	-0.15133114
157	0xbde01afb	-0.10942646
158	0xbe546b50	-0.20744061
159	0x3e86a35b	0.26296505
160	0xbd090bc2	-0.03345848
161	0x3e8d1886	0.27557772
162	0xbe7a413b	-0.24438946
163	0xbd9ca272	-0.076481715
164	0xbec3c5fc	-0.38236988
165	0xbcc2427e	-0.023713347
166	0x3e9b6c75	0.30356184
167	0xbebf8eb1	-0.37413552
168	0xbe1cf9a8	-0.15329611
169	0x3d84b75e	0.06480287
170	0x3e5f803a	0.21826258
171	0x3ed7237f	0.4201927
172	0xbdd5a103	-0.10431101
173	0xbd87021f	-0.065922014
174	0x3dbd1a2d	0.09233508
175	0x3dbd18e5	0.09233264
176	0x3bd97e92	0.006637403
177	0xbf1b1ae8	-0.6058793
178	0x3e31daf9	0.17368688
179	0xbd44e87a	-0.04807327
180	0x3c5cdf92	0.013481038
181	0x3e09a7c4	0.13442904
182	0xbd640a76	-0.05567404
183	0x3e896db2	0.26841503
184	0x3f028104	0.5097811
185	0x3dfaa5e1	0.1223867
186	0xbe5cc120	-0.21558046
187	0x3eaf8b49	0.34285954
188	0x3e1ab677	0.15108667
189	0xbe393463	-0.1808639
190	0xbc705c3e	-0.01467043
191	0xbe267a19	-0.16257514
192	0xbea81bc3	-0.3283368
193	0x3e3d9b5f	0.185163
194	0xbf1c2423	-0.6099264
195	0x3e2ff2b5	0.17182429
196	0xbe02890f	-0.12747596
197	0x3d9475f3	0.072490595
198	0xbd2f3b4d	-0.042781163
199	0xbdd46819	-0.103714176
200	0xbe49b03b	-0.19696133
201	0x3e000202	0.12500766
202	0x3e7e5bb0	0.24839664
203	0xbe62591e	-0.22104308
204	0x3e4f7a97	0.20261608
205	0x3e52eaed	0.2059743
206	0xbe9b53b7	-0.30337307
207	0x3e2023ff	0.15638731
208	0x3c9a2ce0	0.018820226
209	0xbe490340	-0.19630146
210	0x3d762bfd	0.060100544
211	0xbd9baefc	-0.07601735
212	0x3ebe1166	0.3712265
213	0xbe2ea8ab	-0.17056529
214	0x3ca75345	0.020425448
215	0xbeb32ca4	-0.34994996
216	0xbe40240b	-0.1876375
217	0x3f20f90f	0.62880033
218	0x3e499b17	0.19688068
219	0x3de48105	0.11157421
220	0x3e5ff79f	0.21871804
221	0xbefd3c13	-0.49459895
222	0x3c18be61	0.009322734
223	0x3d9dbd1b	0.07702085
224	0x3da94c28	0.08266479
225	0x3daeee21	0.08541513
226	0x3e53563f	0.20638369
227	0x3cd90e26	0.026496004
228	0x3f0453b4	0.5169022
229	0x3ca74b41	0.020421626
230	0x3c965167	0.018349363
231	0xbe6e34a0	-0.23262262
232	0xbd6a4bda	-0.057201244
233	0x3df9165f	0.1216247
234	0x3e36e437	0.17860495
235	0xbdda2fc6	-0.10653643
236	0xbee03611	-0.4379125
237	0xbca75c47	-0.020429743
238	0x3d3ef0d7	0.0466164
239	0x3c2d28c8	0.010568805
240	0xbf0b5bde	-0.54437053
241	0x3e50f9bb	0.20407765
242	0xbe5994fc	-0.2124824
243	0xbced0c39	-0.028936492
244	0xbe8471ef	-0.25868174
245	0x3e975dd3	0.2956377
246	0x3e99e41d	0.3005685
247	0xbea9bb71	-0.3315082
248	0x3ee6d6c5	0.4508573
249	0xbe4c0d54	-0.1992696
250	0xbe1b0820	-0.15139818
251	0xbd0a27c0	-0.033729315
252	0xbde5f968	-0.11229211
253	0x3dc86412	0.09784712
254	0x3d59f9e5	0.053216834
255	0x3d9512ad	0.07278953

network_body._body_endoder.seq_layers.0.bias f4 [128]
0	0xbc12833b	-0.008942421
1	0xbb5310df	-0.00322061
2	0x3bb43370	0.005499296
3	0xbb24ade4	-0.002512806
4	0x3c63cfc0	0.013904512
5	0xbc6cf245	-0.014462058
6	0x3966fa83	0.00022027832
7	0xbc15add0	-0.009135678
8	0xbb15e9e6	-0.002287501
9	0x3c91bfb9	0.017791616
10	0x3ccc66f1	0.02495143
11	0x3c2971d2	0.010342078
12	0x3b8fda9b	0.0043900735
13	0x3b239b08	0.0024964232
14	0x3bc93469	0.006140281
15	0xbbc534d1	-0.006018259
16	0xbc6a9f86	-0.01432026
17	0x3ae3d2c8	0.0017381543
18	0xbbad55e5	-0.0052897804
19	0x3ac074c3	0.0014683235
20	0x3a0f071c	0.00054560765
21	0xbc5888d8	-0.01321622
22	0x38d30ca4	0.000100636185
23	0x3c830e24	0.015997954
24	0x3c412494	0.011788506
25	0xbc1fbef6	-0.0097501185
26	0x3bc9ff7e	0.0061644902
27	0x3ca2ab66	0.01985712
28	0xbc6d6ed5	-0.014491756
29	0xb87ae859	-5.9821035e-05
30	0x3cbc4ce2	0.02298588
31	0xbba9f183	-0.005186261
32	0xbb4a6f90	-0.003088925
33	0xbae14a36	-0.0017188254
34	0xbb842475	-0.0040326663
35	0xbca58083	-0.02020288
36	0x3c6e104b	0.014530252
37	0x3add2d80	0.0016874522
38	0xbcb36be1	-0.021902027
39	0xbc15483f	-0.009111463
40	0xba9bf4f8	-0.0011898568
41	0x3b3d11cb	0.0028849717
42	0xbbf41eeb	-0.007449975
43	0xbb9e4440	-0.0048299134
44	0xbb86523b	-0.004099158
45	0xbb8d7320	-0.0043167025
46	0x3c3bfb8f	0.01147355
47	0xbb6f778c	-0.0036539761
48	0xbc2902b1	-0.010315583
49	0x3c846a99	0.016164111
50	0x3af73ff9	0.001886367
51	0x3b9c122e	0.0047629094
52	0xbbfcfd29	-0.0077206087
53	0xbb8c276b	-0.00427716
54	0xba95c4fc	-0.0011426504
55	0x3b004952	0.0019574952
56	0xbb0c5d7d	-0.0021418028
57	0xbc2184c7	-0.009858317
58	0xbb30e05b	-0.0026989195
59	0xbc966fb0	-0.018363804
60	0xbbfca1a4	-0.0077096988
61	0xb9329e51	-0.0001703438
62	0x3b318ae2	0.0027090837
63	0xbc5900f0	-0.013244852
64	0xbc95909d	-0.018257434
65	0xbc1e245d	-0.009652224
66	0xbb79968e	-0.0038084122
67	0x3b566ad5	0.0032717485
68	0xbbe191b1	-0.006883823
69	0xbcf3e263	-0.029771036
70	0x3bf7907f	0.007555067
71	0xbcb2282b	-0.02174767
72	0x3aff58f9	0.0019481472
73	0xbbf0b934	-0.0073462967
74	0x3bc9c650	0.006157674
75	0xbb20ea10	-0.0024553575
76	0xbbd8f1c4	-0.0066206176
77	0xbbaacc0d	-0.005212313
78	0xbbcff4a3	-0.0063463016
79	0x3ba36700	0.004986644
80	0x3bcf0893	0.006318161
81	0xbc046d74	-0.008082736
82	0x3bf53595	0.007483194
83	0x3b123860	0.0022311434
84	0xbc81d659	-0.01584928
85	0xbcee41e0	-0.029084146
86	0x3cba67b4	0.022754528
87	0xbbb09f37	-0.0053900736
88	0x3b18833c	0.002327158
89	0xbbef7311	-0.007307418
90	0x3b3e4cb5	0.002903742
91	0x3baac60c	0.0052115973
92	0x3b72b287	0.003703268
93	0x3ad3d0c4	0.001616024
94	0xbc1e3d1e	-0.009658126
95	0x3aa02196	0.0012217041
96	0xbc53e77c	-0.012933608
97	0xbbc4ac46	-0.006001982
98	0x3c57b119	0.013164782
99	0x3ca0208e	0.019546773
100	0x3c2806b4	0.010255504
101	0xbcb33834	-0.021877386
102	0xbc3fb42a	-0.011700669
103	0xbb884455	-0.0041585364
104	0xbb3303cd	-0.0027315498
105	0x3acb9f4c	0.0015535145
106	0xbc08a861	-0.008340926
107	0x3b5f378f	0.0034060215
108	0x39ca430a	0.0003857839
109	0xbc124d85	-0.008929615
110	0x3c7611eb	0.01501892
111	0xbaca2ef0	-0.0015425365
112	0x3c5e6287	0.013573295
113	0xbb2d176c	-0.0026411666
114	0x3c4c443e	0.012467442
115	0x3c9450e7	0.018104983
116	0x3b5eb3f1	0.0033981765
117	0xbb95a577	-0.004566844
118	0xbab6e372	-0.0013953282
119	0xbbe2a0fe	-0.0069161644
120	0xbc290669	-0.01031647
121	0xbbc9a723	-0.0061539575
122	0xbb544acb	-0.0032393213
123	0x3ba923f3	0.005161756
124	0xbc722096	-0.014778277
125	0x3c3aec96	0.011408946
126	0xbb3d09c6	-0.0028844937
127	0xbc8d91b4	-0.01728139

network_body._body_endoder.seq_layers.2.weight f4 [128, 128]
0	0xbd8e02a4	-0.069340974
1	0x3c4d1b14	0.012518663
2	0xbdf0e5e3	-0.117625974
3	0xbdb8d08c	-0.09024152
4	0xbd708016	-0.058715902
5	0xbc487e2f	-0.012237116
6	0xbdd4f237	-0.10397761
7	0x3d2d8f66	0.042373084
8	0xbd3b43f6	-0.04571911
9	0x3db4f497	0.08835714
10	0x3d6e010c	0.058106467
11	0x3db4cc47	0.08828025
12	0xbdfb5733	-0.12272491
13	0x3dbb07c2	0.09132339
14	0xbd41c1a5	-0.047303814
15	0x3d9b40ad	0.07580695
16	0x3dafdb3d	0.08586738
17	0x3d9b3594	0.075785786
18	0xbb3fa0cd	-0.0029240132
19	0x3d312ec1	0.04325748
20	0x3b8ac77e	0.004235207
21	0xbe1a1c25	-0.15049799
22	0x3dd708e8	0.104997456
23	0x3d3b4184	0.045716777
24	0xbddef701	-0.10886956
25	0x3d5744d4	0.052555874
26	0x3e06867e	0.13137242
27	0xbdabab0e	-0.083822355
28	0x3dac18d1	0.08403171
29	0x3e0d8bbc	0.13822836
30	0x3d0d439d	0.03448831
31	0xbdbbb3a3	-0.09165122
32	0xbd201709	-0.039084468
33	0xbbfd89d0	-0.007737376
34	0xbdfafe79	-0.12255568
35	0xbd3872f1	-0.04503149
36	0x3c899756	0.016795795
37	0xbd92b103	-0.071626686
38	0xbcaf16ed	-0.021373237
39	0x3df5dfe0	0.120055914
40	0x3c76fea7	0.015075362
41	0x3d57a8fc	0.05265139
42	0x3c984342	0.018586759
43	0x3d7a9d6c	0.061185285
44	0xbd659f2a	-0.056059994
45	0x3dae8dbd	0.08523128
46	0x3d8c38d8	0.068467796
47	0xbcc38eef	-0.023871867
48	0x3d00c842	0.03144098
49	0xbd4595c5	-0.048238534
50	0xbcf49d3b	-0.02986013
51	0xbd9a4c9f	-0.075341456
52	0xbce1d026	-0.027565073
53	0xbe5e0987	-0.21683322
54	0x3d90d2d5	0.07071463
55	0xbc1e649d	-0.009667543
56	0x3dac5bb5	0.08415929
57	0xbd171844	-0.036888376
58	0xbc990bf1	-0.018682452
59	0xbda93f32	-0.08264007
60	0xbde2393c	-0.11046073
61	0xbbe469b7	-0.00697061
62	0xbcad694e	-0.021168377
63	0x3e1bb5f5	0.1520613
64	0x3ccb91e3	0.024849838
65	0x3d9560f4	0.07293883
66	0xbd8c9b24	-0.06865528
67	0xbe5c8753	-0.21535997
68	0x3d0524e7	0.032505896
69	0x3cb508ae	0.022098865
70	0x3d08add7	0.03336891
71	0x3df4b957	0.11949413
72	0x3d486bf4	0.048931077
73	0xbda6b2a8	-0.08139545
74	0x3d2a5ea2	0.041594155
75	0xbe076e0f	-0.13225578
76	0x3d9dcbe6	0.07704906
77	0x3cd37b32	0.02581558
78	0xbc46df4d	-0.0121382
79	0xbd27e010	-0.040985167
80	0xbcc15c8f	-0.023603706
81	0x3d0b9025	0.034073014
82	0x3d9c227e	0.07623766
83	0x3d2ee81b	0.04270182
84	0x3d6910de	0.05690085
85	0xbbfdc612	-0.007744559
86	0x3dde9deb	0.10869964
87	0x3e128392	0.14308003
88	0x3d8f0182	0.069827095
89	0x3d157e0e	0.03649717
90	0xbce57347	-0.02800907
91	0xbe67aa50	-0.22623563
92	0x3e14ab5b	0.14518492
93	0xbd3d4a87	-0.046213653
94	0xbd10bcb4	-0.03533621
95	0x3dd66ef6	0.10470383
96	0x3c9ae7d0	0.018909365
97	0xbcd65336	-0.026162725
98	0xbd543acc	-0.051813886
99	0x3d2eda5d	0.042688716
100	0xbd220952	-0.03955967
101	0x3e06d34c	0.13166541
102	0xbc14331e	-0.00904539
103	0x3c90458a	0.017611284
104	0xbcb3cc64	-0.021948047
105	0xbd928fd7	-0.071563415
106	0xbd4f9856	-0.05068239
107	0x3d5ef12a	0.05442921
108	0x3d047dc1	0.03234649
109	0xbd68522d	-0.056718994
110	0x3d91f68b	0.071271025
111	0x3d88212b	0.06646951
112	0x3d6d2c3b	0.05790351
113	0xbe4519cf	-0.19248126
114	0xbd3251dd	-0.043535102
115	0x3d518d93	0.051160406
116	0x3de6d85d	0.11271737
117	0xbd259ea8	-0.04043451
118	0x3e1244a0	0.14283991
119	0xbe0f758c	-0.14009684
120	0xbd91b780	-0.07115078
121	0x3b01c55d	0.0019801476
122	0xbd809caa	-0.06279881
123	0xbcba0c39	-0.022710906
124	0x3c8db76a	0.017299373
125	0x3d21f9e0	0.03954494
126	0xbd2085d2	-0.03919012
127	0xbe2ca98d	-0.16861553
128	0x3e4f3d8d	0.20238324
129	0xbdecf7d0	-0.11570704
130	0x3d543b73	0.051814508
131	0x3cca922a	0.0247279
132	0x3bba3dcc	0.0056836363
133	0x3b83f4a2	0.0040269652
134	0xbe12b7ef	-0.14327978
135	0x3d2221f7	0.039583173
136	0xba3e1516	-0.0007251067
137	0x3c3313b3	0.01092999
138	0xbdb981d9	-0.090579696
139	0xbd0ec7e9	-0.034858618
140	0x3e2c0bc4	0.16801363
141	0x3e1ac467	0.15113984
142	0xbc9d05d0	-0.01916781
143	0x3db1d36d	0.086829044
144	0x3dc1b44a	0.094582155
145	0x3d42363f	0.047415014
146	0x3d9fbbd4	0.07799497
147	0xbd096d9b	-0.033551794
148	0x3d84475b	0.064589225
149	0x3d6bbcd8	0.057553142
150	0xbc76d7c6	-0.015066093
151	0xbcc982ef	-0.024598567
152	0xbd87cfa5	-0.06631402
153	0xbd6ffc46	-0.058590196
154	0xbcc5b7cf	-0.024135498
155	0xbd607f66	-0.054808997
156	0x3d51d643	0.051229727
157	0xbca9736c	-0.02068492
158	0xbdb09820	-0.086227655
159	0x3d8208ca	0.06349333
160	0xbd64bd50	-0.055844605
161	0xbe0a6603	-0.13515477
162	0x3dcc9e97	0.09991186
163	0x3de18b56	0.11012904
164	0xbcb7db1d	-0.022443349
165	0xbd1a1056	-0.037613235
166	0xbe2e5bca	-0.17027202
167	0xbd6f8b7a	-0.058482625
168	0x3d779ba5	0.06045117
169	0xbe3cdee9	-0.18444408
170	0xbd88085f	-0.06642222
171	0xbdce46e8	-0.10072118
172	0x3cc0e791	0.02354792
173	0x3dc0b053	0.09408631
174	0x3cfb04f6	0.030642014
175	0xbc692210	-0.014229313
176	0x3d3ebbe9	0.046565924
177	0x3da0932a	0.07840569
178	0xbdc4d449	-0.09610803
179	0xbdfaccc4	-0.12246087
180	0x3dbc42d4	0.09192434
181	0xbc23a60d	-0.00998832
182	0xbcb91d87	-0.022597088
183	0xbddbf947	-0.10740905
184	0x3e000b7d	0.12504382
185	0xbdaf4bdb	-0.0855939
186	0x3ca41bd8	0.020032808
187	0xbdcb9ae0	-0.099416494
188	0xbc58e6b6	-0.0132385995
189	0x3d89ac8e	0.06722365
190	0xbc9744a1	-0.018465342
191	0x3e1ddcb2	0.1541622
192	0x3e1206cc	0.14260405
193	0x3c8bc346	0.017060887
194	0xbd99913c	-0.074984044
195	0x3c8ee10d	0.017441297
196	0xbc165c01	-0.009177209
197	0xbe2b2ed0	-0.16717076
198	0x3bbd10fc	0.005769847
199	0xbd9d34ad	-0.07676063
200	0x3d37cc9a	0.044872858
201	0xbd2428e7	-0.04007807
202	0x3d46dabb	0.04854844
203	0xbb2f4a0d	-0.0026747019
204	0x3d92da46	0.071705386
205	0x3d7005b6	0.058599196
206	0x3e0e59d0	0.13901448
207	0xbd86465d	-0.065563895
208	0xbdc998cf	-0.09843599
209	0xbda24ab4	-0.07924405
210	0xbd1a5fad	-0.0376889
211	0xbce457f7	-0.027873976
212	0x3db60373	0.08887377
213	0xbd8a67e2	-0.06758095
214	0x3dcc3f9c	0.0997307
215	0x3dbfd181	0.093661316
216	0x3cbfa35d	0.023393327
217	0xbd041ef3	-0.032256078
218	0x3d0ee635	0.03488751
219	0x3e1886eb	0.14895217
220	0x3bdc8ca4	0.006730633
221	0xbda2bbce	-0.07945977
222	0xbd427db1	-0.04748315
223	0x3d67775b	0.05651031
224	0x3c28f950	0.010313347
225	0xbd1fc65b	-0.039007526
226	0x3e6ad57a	0.22932997
227	0xbd914e79	-0.070950456
228	0xbc6d10f1	-0.014469371
229	0xbd19f640	-0.037588358
230	0x3d0033bd	0.03129934
231	0xbdcf14cd	-0.10111389
232	0xbd55033c	-0.052005038
233	0xbca51f63	-0.020156568
234	0x3c1c9e6d	0.009559256
235	0xbc953d56	-0.018217724
236	0x3dfda973	0.123858355
237	0xbac820d2	-0.001526857
238	0xbd138f2a	-0.036025204
239	0x3d6246e4	0.055243388
240	0xbda9e5df	-0.082957976
241	0x3db05f36	0.0861191
242	0x3d93d298	0.07217902
243	0xbdc14253	-0.094364785
244	0x3df2cadc	0.118550986
245	0x3c2800df	0.010254114
246	0xbc8de60a	-0.017321605
247	0x3d8856de	0.066571936
248	0xbd6b15e5	-0.057393927
249	0xbcebd546	-0.02878822
250	0xbc833343	-0.016015654
251	0x3d830301	0.06397057
252	0x3d60678d	0.054786254
253	0x3de50ad2	0.111837044
254	0xbdbde2fe	-0.09271811
255	0x3e0fa7ed	0.14028902

network_body._body_endoder.seq_layers.2.bias f4 [128]
0	0x3b0ea45a	0.0021765442
1	0xbb8db81a	-0.004324925
2	0x3c8eded8	0.017440245
3	0xbbd6a54e	-0.0065504676
4	0xbbd83385	-0.0065979385
5	0xbb9180b1	-0.00444039
6	0x3c14cc67	0.009081936
7	0xbca245d8	-0.019808695
8	0xbac0b13c	-0.0014701257
9	0xbbda03bd	-0.0066532777
10	0xbbd54a66	-0.006509113
11	0xbc3711fd	-0.011173722
12	0x3ac1c322	0.0014782886
13	0xbbd11d0b	-0.006381636
14	0xbb45fc6f	-0.0030210277
15	0xbc08d179	-0.008350723
16	0xbc4bcff6	-0.0124397185
17	0x3c165c2e	0.009177251
18	0xbc30d13c	-0.010792073
19	0xbc2a1d7c	-0.010383006
20	0xbc163f30	-0.0091703385
21	0x3c12d266	0.008961296
22	0xbb951ad6	-0.0045503182
23	0xbc27139c	-0.010197546
24	0x3b5101b9	0.0031891896
25	0x3c5a92de	0.01334068
26	0x3c8f2d9d	0.017477805
27	0xbbc7686b	-0.0060854456
28	0x3ca7f761	0.020503702
29	0x3c06a9bf	0.008219182
30	0x3a14dd18	0.00056786975
31	0xbbdbd00d	-0.006708151
32	0xbc0e2198	-0.008675002
33	0x3b72d2f2	0.0037052003
34	0x3ca243aa	0.019807655
35	0xbc61fff1	-0.013793931
36	0x3b0116ee	0.0019697505
37	0x3c21dc26	0.009879148
38	0x3bf4fd57	0.0074764895
39	0xbbadfdc3	-0.005309792
40	0xbb6de298	-0.003629839
41	0x3ba49d4c	0.005023634
42	0x3b328c9d	0.0027244457
43	0xbbd21b03	-0.0064119115
44	0x3aad963f	0.0013243629
45	0x3ab70e54	0.0013966062
46	0xbbcc72d5	-0.006239275
47	0x3c0c2ec0	0.008556068
48	0x3c99c762	0.018771831
49	0xbbc0eaa3	-0.005887346
50	0x3a9e36dd	0.0012070794
51	0xbb459cc1	-0.0030153247
52	0xbbc28a84	-0.0059369225
53	0xbc0d506a	-0.008625129
54	0xbb5c186f	-0.00335839
55	0xbc18f105	-0.009334807
56	0x3bf4d26c	0.0074713733
57	0x3be50bf1	0.006989949
58	0x3a485760	0.00076424144
59	0x3c5ebccd	0.013594818
60	0xbc989dcf	-0.018629937
61	0x3bd29479	0.0064263907
62	0x3cb6df7a	0.022323359
63	0x3c8020e5	0.015640685
64	0x3a6e1783	0.0009082483
65	0xbbceebc0	-0.0063147247
66	0x3ab7f4a6	0.0014034703
67	0x3b8e2f51	0.0043391366
68	0x3c4600e6	0.012085175
69	0x3c2be74c	0.010492157
70	0x3aeba85f	0.0017979256
71	0xbc18c514	-0.009324331
72	0x3ca36b9e	0.019948777
73	0xbbaa7513	-0.0052019446
74	0x3b4ff16d	0.0031729594
75	0x3bdfee8f	0.0068338583
76	0x3c0b65c1	0.008508147
77	0x3c11fbfe	0.008910177
78	0x3c621d51	0.013800935
79	0x3b77f838	0.003783716
80	0xbc4fc212	-0.012680547
81	0xbc2aa659	-0.010415637
82	0xba811d30	-0.0009850617
83	0xb98981ec	-0.00026227476
84	0xbc4022f4	-0.0117270835
85	0xbc65642d	-0.014000935
86	0xbc06dea5	-0.0082317935
87	0xbbce9446	-0.0063042967
88	0x3b17ce07	0.0023163573
89	0xbbd67c33	-0.0065455674
90	0xbc0382a6	-0.0080267545
91	0xbc191ae8	-0.009344794
92	0xbad566d7	-0.0016281259
93	0xbbfdb35b	-0.007742328
94	0xbc0a5801	-0.008443833
95	0xbb9f8306	-0.004867914
96	0xbc7167dd	-0.014734236
97	0xbac49985	-0.0014999366
98	0xbc0f1807	-0.008733756
99	0xbbc12aa1	-0.0058949743
100	0xbc1ab2fd	-0.009442088
101	0xbb1f80d8	-0.0024338271
102	0xbc2b627d	-0.010460493
103	0xbb6fbd27	-0.003658125
104	0x3c4a3a05	0.0123429345
105	0xbba680f9	-0.0050812927
106	0x3c65ae0c	0.014018547
107	0xbc438c6e	-0.0119353365
108	0xbbc232e7	-0.005926478
109	0xb89f7e29	-7.60521e-05
110	0xbc18c0ce	-0.009323312
111	0x3bc96915	0.00614656
112	0x3c5edeb0	0.0136028975
113	0xbc9187f5	-0.017765025
114	0xbc20645b	-0.009789552
115	0x3ba8dcd3	0.0051532774
116	0xbb17f9ea	-0.0023189732
117	0xbc19d96c	-0.009390216
118	0x3ad9c4f9	0.0016614489
119	0xbba7e85c	-0.005124135
120	0xbc02596a	-0.007955888
121	0x3c26235a	0.010140264
122	0xbc0a1d72	-0.008429872
123	0xbbd34e2c	-0.006448528
124	0xbb9ddf63	-0.0048178895
125	0x3b686302	0.0035459404
126	0x3b4ad191	0.0030947665
127	0x3c51cb07	0.012804753

action_model._continuous_distribution.log_sigma f4 [1, 2]
0	0xbbb9d7cc	-0.005671477
1	0xba6144c2	-0.00085933146

action_model._continuous_distribution.mu.weight f4 [2, 128]
0	0x3b1d804a	0.0024032765
1	0xbc3f718d	-0.011684787
2	0x3ce308ae	0.0277141
3	0xbca1d934	-0.01975689
4	0xbd28e455	-0.04123338
5	0xbb9a3e75	-0.0047071525
6	0x3c42a586	0.011880284
7	0xbbf07e62	-0.0073392848
8	0x3bcea173	0.0063058673
9	0xbad5ecde	-0.0016321202
10	0xbcc8e232	-0.02452192
11	0xbbcedf5d	-0.006313248
12	0x3c6e4d43	0.014544788
13	0xbcd79bdc	-0.026319437
14	0xbb9d2916	-0.0047961576
15	0xbc2ac1b8	-0.010422163
16	0xbd07fb6a	-0.03319875
17	0x3cda3576	0.02663682
18	0xbc7ffe47	-0.015624589
19	0xbc9c4afe	-0.019078728
20	0xbc83a638	-0.01607047
21	0x3d37a82e	0.044838123
22	0xbb4c37be	-0.0031161155
23	0xbc33ee7a	-0.01098215
24	0x3ce26656	0.027636688
25	0x3c8b2744	0.016986497
26	0x3d078b6a	0.03309194
27	0xbd08989f	-0.033348676
28	0x3d171287	0.036882903
29	0x3d0f2b01	0.03495312
30	0x3c0b6df1	0.008510099
31	0xbd09c7d1	-0.033637825
32	0x3a4c1d79	0.0007786374
33	0x3c46eda5	0.01214162
34	0x3d059550	0.0326131
35	0xbd20f4a7	-0.03929582
36	0xba1942ac	-0.00058464217
37	0x3c8f42fe	0.017487999
38	0x3c8d1205	0.017220506
39	0xbc96d211	-0.018410714
40	0x3ad654e7	0.0016352207
41	0x3c585a0f	0.013205065
42	0x3bc361d2	0.005962589
43	0xbd26d962	-0.040734656
44	0xbb108969	-0.002205456
45	0x3be4e9d7	0.0069858837
46	0xbd1d1c9c	-0.038357362
47	0x3d30a4bf	0.043125864
48	0x3cf2d31e	0.029641684
49	0xbc6e0534	-0.014527608
50	0xbc7161fb	-0.014732833
51	0xbbe53389	-0.006994669
52	0xbb349876	-0.0027556694
53	0xbc9aae26	-0.018881869
54	0xbc8f4c6b	-0.017492494
55	0xbc824263	-0.015900796
56	0x3d0e6108	0.034760505
57	0x3bb032e3	0.00537716
58	0xb9d93698	-0.0004143014
59	0x3c6f6418	0.014611267
60	0xbcd16d08	-0.025564685
61	0x39d1e533	0.00040034353
62	0x3c46873d	0.012117204
63	0x3ca8733e	0.020562764
64	0xba7fffe7	-0.00097656104
65	0xbbc8c1ae	-0.006126604
66	0x3b2bc7c4	0.00262116
67	0x3c5f60bc	0.013633903
68	0x3cec0843	0.028812533
69	0x3cad6e75	0.021170834
70	0x3bd07b27	0.006362337
71	0xbce98e75	-0.028510312
72	0x3c9d6087	0.019211067
73	0xbba18ef3	-0.004930371
74	0x3c21e74e	0.0098818075
75	0x3c97d959	0.018536257
76	0x3caae8b9	0.020862924
77	0x3c2fc41d	0.010727909
78	0x3c8f464c	0.017489575
79	0x3c8573ca	0.016290564
80	0xbc6bc4bd	-0.014390168
81	0xbbf5b2ec	-0.007498136
82	0x3bcaff61	0.0061949943
83	0xbc132c73	-0.0089827655
84	0xbcb4e956	-0.02208392
85	0xbc9a0f47	-0.018806113
86	0xbb3bdf18	-0.002866691
87	0xbcd1b5d4	-0.025599398
88	0x3c8fd37e	0.017556902
89	0xbc859e0f	-0.01631072
90	0xbd6bfba6	-0.057613038
91	0xbb73b288	-0.003718527
92	0xbb8abcb8	-0.004233923
93	0xbc1f7fb5	-0.009735038
94	0xbd0ef069	-0.03489724
95	0xbccfd591	-0.025370391
96	0xbc8e422e	-0.017365541
97	0xb9f14add	-0.0004602288
98	0xbb0c57bb	-0.0021414596
99	0xbbe00d5d	-0.0068375305
100	0xbb532811	-0.0032219926
101	0xbbeed4f2	-0.0072885687
102	0xbc470c7c	-0.012148973
103	0xbbfa0e03	-0.007631065
104	0x3c9d99e5	0.019238422
105	0xbc48d915	-0.012258788
106	0x3c99b13d	0.018761272
107	0xbca62790	-0.020282537
108	0xbcbd3293	-0.023095405
109	0x3c2f7e4b	0.010711263
110	0xbc6f6ba8	-0.01461307
111	0x3c9a18b2	0.018810604
112	0x3c46ec5b	0.0121413125
113	0xbc7b8eec	-0.015353899
114	0xbcb5595b	-0.022137335
115	0x3c94d3ba	0.018167365
116	0xbbe62282	-0.0070231566
117	0xbc7c4771	-0.015397892
118	0xba80cc72	-0.0009826554
119	0xbcbe111b	-0.023201516
120	0xbc8f36ef	-0.017482249
121	0x3c94b1bf	0.018151162
122	0xbcacc4d2	-0.021089945
123	0xbcbd4aea	-0.02310701
124	0xbc86c707	-0.016452326
125	0x3c39fcc2	0.011351766
126	0x3ca91fb2	0.020644996
127	0x3c6626fc	0.014047381
128	0xbb9cdad7	-0.00478683
129	0xbcb246a7	-0.021762205
130	0x3c3c4859	0.011491858
131	0xbc8c533a	-0.01712953
132	0xbc3457dd	-0.011007276
133	0x3d3f4b74	0.046702817
134	0x3c8902a8	0.0167249
135	0x3b320223	0.0027161918
136	0x3ce19ccc	0.027540587
137	0x3d21ab9e	0.039470308
138	0x3c93811d	0.018005902
139	0x3a48517b	0.0007641536
140	0x3caa0940	0.020756364
141	0x3cbf10ec	0.023323499
142	0xbbf3481b	-0.007424367
143	0x3bb5a662	0.005543516
144	0x3c256240	0.010094225
145	0x3cd81d26	0.026381087
146	0xbaa0f364	-0.0012279567
147	0xbaf3e268	-0.0018606903
148	0x3c07c55d	0.008286801
149	0x3d0c8af3	0.0343122
150	0xbc5356d9	-0.012899124
151	0xba14fc11	-0.0005683313
152	0x3ca3e85a	0.020008255
153	0x39723c82	0.0002310146
154	0x3c735199	0.014850997
155	0x3d42fa0a	0.047601737
156	0xbc0ba8dd	-0.008524147
157	0xbc98a50a	-0.018633384
158	0x3c795c2c	0.015219729
159	0xbcaff748	-0.021480218
160	0x3b18858a	0.0023272955
161	0x3c1ff630	0.0097632855
162	0x3a0e1f27	0.0005421512
163	0x3b89bc8a	0.004203384
164	0x3c0cbe03	0.008590224
165	0xbbc37caa	-0.005965789
166	0xbd08324b	-0.033251088
167	0xbc860c80	-0.016363382
168	0xbbf7c0f2	-0.0075608427
169	0x3c54e5d4	0.012994248
170	0xbbaf7239	-0.0053541926
171	0x3cdc1c2f	0.026868908
172	0xbc83059a	-0.015993882
173	0x3bf17a40	0.0073693097
174	0xbc3e311b	-0.011608387
175	0x3c9fe75d	0.019519502
176	0xbc07918a	-0.008274445
177	0xbc20d8a4	-0.009817276
178	0xbd028b9d	-0.031871427
179	0x3cadf627	0.021235539
180	0x3bdf5d3f	0.0068165357
181	0xbbf2f9b4	-0.007415021
182	0xbcb19c18	-0.021680877
183	0xbcad0ba0	-0.021123707
184	0x3befbca4	0.007316189
185	0x3bdef886	0.0068045286
186	0xbcb9bf70	-0.022674292
187	0x3ca3df29	0.020003872
188	0xbbfabf5a	-0.0076522054
189	0xbc32ce3f	-0.010913431
190	0xbb3c2cd0	-0.0028713234
191	0xbc763220	-0.015026599
192	0xbc9fc4da	-0.019503046
193	0x3c2bc076	0.010482898
194	0xbbddaa17	-0.006764661
195	0x3c405bfa	0.011740679
196	0xbc860bde	-0.01636308
197	0xbb9515e0	-0.004549727
198	0xbba810ad	-0.005128941
199	0x3c30a045	0.010780399
200	0xb9871cab	-0.00025770566
201	0xbad79645	-0.0016447982
202	0x3be06458	0.0068478994
203	0xbc16e413	-0.009209651
204	0x3bbe607f	0.005809843
205	0x3cdc2397	0.02687244
206	0x3c8557ae	0.01627716
207	0x3c85c938	0.0163313
208	0x3c09e87e	0.008417247
209	0x3c320847	0.010866231
210	0x3c69c816	0.014268896
211	0xbc877c45	-0.016538749
212	0x3c0a91dd	0.008457628
213	0x3c485456	0.0122271385
214	0x3c476ae6	0.012171483
215	0xbc6e9019	-0.014560723
216	0x3cd98017	0.026550336
217	0x3cde6309	0.027146833
218	0x3cb22632	0.021746729
219	0x3c1596b2	0.009130167
220	0x3c93ad05	0.018026838
221	0x3bb7c460	0.0056081265
222	0x3c01f290	0.007931367
223	0xbc82cb7e	-0.015966173
224	0x3cc02a95	0.023457805
225	0xbc5063b3	-0.012719083
226	0x3b613330	0.0034362786
227	0xbbc36d0f	-0.0059639285
228	0xba14bad2	-0.00056735903
229	0xbcf3f135	-0.029778102
230	0xba74ad3f	-0.0009333677
231	0xbc6d214a	-0.014473269
232	0xbcb668a1	-0.022266688
233	0x3ca2726b	0.01982995
234	0xbd01bda9	-0.031675015
235	0xbc94cd7f	-0.018164394
236	0xbccba07e	-0.024856802
237	0x3cc0aac6	0.023518931
238	0x3c68cfb1	0.014209674
239	0x3c86373e	0.016383763
240	0xbc523c5c	-0.012831774
241	0xbc286bd5	-0.010279615
242	0x3c0fe85d	0.008783427
243	0x3cb6a58b	0.022295734
244	0xbc9d0a36	-0.019169908
245	0x3c19226a	0.009346584
246	0xbc988ec0	-0.018622756
247	0x3d1c30c7	0.038132455
248	0x3c419d1a	0.011817241
249	0xbb4e01a9	-0.0031434095
250	0x3c936477	0.017992241
251	0x3ca6f4c8	0.020380393
252	0x3c93ae70	0.018027514
253	0x3bb874b5	0.005629147
254	0x3cd8f19e	0.0264824
255	0xbc9eb1a9	-0.019371824

action_model._continuous_distribution.mu.bias f4 [2]
0	0x3c3e9523	0.011632237
1	0xbb33e50d	-0.0027449757

action_model._discrete_distribution.branches.0.weight f4 [1, 128]
0	0x3c52183f	0.0128231635
1	0x3a90af26	0.0011038526
2	0xbbf1f798	-0.007384252
3	0x3cc0a358	0.023515388
4	0xbb8da06b	-0.004322102
5	0x3c74b11f	0.014934807
6	0xbc31e5fa	-0.010858053
7	0x3ba054db	0.004892928
8	0xbc19912b	-0.00937299
9	0xbbd3331a	-0.0064453008
10	0xbb8a218c	-0.004215425
11	0xbb96257b	-0.0045821047
12	0xbbe399ef	-0.0069458405
13	0xbba16646	-0.004925522
14	0xbaed268d	-0.0018093154
15	0xbbb2c384	-0.005455436
16	0xbc0a5e9a	-0.008445406
17	0x3a0d895b	0.00053991907
18	0x3bd6bdca	0.0065533863
19	0xbbf5fe38	-0.007507112
20	0x3ba5c18f	0.0050584744
21	0x3c01d283	0.007923725
22	0x3b566540	0.0032714158
23	0x3c14c6be	0.009080587
24	0x3c0eaf8a	0.008708844
25	0xbbffbfb0	-0.0078048334
26	0xbc3b51a9	-0.0114330435
27	0xbb961a8f	-0.0045808027
28	0xbb115672	-0.002217677
29	0xbc88d897	-0.01670484
30	0x3b484d7a	0.0030563758
31	0xbab3bf55	-0.0013713638
32	0xbb3ea027	-0.0029087157
33	0xbca4060f	-0.02002242
34	0xbc81eb0a	-0.015859146
35	0x3b334518	0.0027354416
36	0x3acabeac	0.0015468202
37	0x3985f6e5	0.00025551688
38	0x3ba650aa	0.005075534
39	0xbc0a0b0c	-0.008425485
40	0x3bc19d94	0.0059086774
41	0x3bf8c000	0.0075912476
42	0x3c255c46	0.0100928005
43	0x3c6b7a10	0.014372364
44	0x3bc619ee	0.0060455715
45	0xbc838754	-0.01605574
46	0xba1fa284	-0.00060895854
47	0xbc2dcdc7	-0.010608143
48	0x3b92ef00	0.0044840574
49	0xbb536c23	-0.00322605
50	0x3c1779db	0.009245361
51	0x3b87fb27	0.0041498127
52	0xbb77162d	-0.0037702427
53	0xbb0ac254	-0.0021172957
54	0x3bc90b9c	0.006135417
55	0x3c2cdca9	0.010550656
56	0xbb9a0210	-0.004699953
57	0xbb807a4b	-0.0039208285
58	0xbc846bd1	-0.016164692
59	0xbc74d2c2	-0.014942827
60	0xbbe9b072	-0.0071316296
61	0x3b06d52b	0.0020573835
62	0x3b47466f	0.0030406972
63	0xbba5e9cb	-0.0050632707
64	0x3c5d3937	0.013502411
65	0x3a31fb34	0.00067894463
66	0xbbe156b5	-0.0068767914
67	0x3c14fefd	0.009093997
68	0x3c039234	0.008030463
69	0xbbde0a0b	-0.0067760996
70	0x3bff86e7	0.007798064
71	0x3b8dd54b	0.004328405
72	0xbc08ab7b	-0.008341665
73	0xbbffd71a	-0.0078076245
74	0x3be87888	0.0070944466
75	0xbb87a3c7	-0.004139397
76	0x3b65a852	0.0035042954
77	0x3c3eb75b	0.011640395
78	0xbbf31822	-0.0074186483
79	0xbbdccb1a	-0.006738079
80	0x3c01f50e	0.007931961
81	0xbb89e0cc	-0.004207706
82	0xbc603443	-0.013684335
83	0x3c8d3858	0.01723878
84	0x3b7610fd	0.0037546747
85	0x3bbb48d5	0.0057154694
86	0x3c11830a	0.00888134
87	0xbc7e41e3	-0.015518638
88	0x3c6d0630	0.014466807
89	0xbb73d6c2	-0.0037206863
90	0x3b26c375	0.0025446091
91	0x3bcb3d7f	0.0062023993
92	0xbbc00ee8	-0.005861152
93	0x3b7a0988	0.0038152654
94	0x3acb5353	0.0015512503
95	0xbb918a2f	-0.0044415216
96	0x3ba2f347	0.0049728486
97	0xb9f51a45	-0.00046749614
98	0xbc33c2b7	-0.010971717
99	0xba8dd6b5	-0.0010821434
100	0xbcbf2ae9	-0.02333589
101	0x3a29883b	0.00064671383
102	0x3bf9e857	0.007626574
103	0x3b9889cf	0.0046551
104	0x3ac9e62c	0.001540368
105	0x3bc6ccf6	0.0060669137
106	0x3bb35d25	0.00547375
107	0x36e98498	6.959377e-06
108	0x3cb51973	0.022106862
109	0xbbaa22ad	-0.005192122
110	0x3bcfa307	0.006336573
111	0xb9b7096d	-0.00034911503
112	0x3c3be3a2	0.011467846
113	0xba42a85a	-0.0007425599
114	0xbbf8a093	-0.0075875013
115	0xbb7bc913	-0.003841941
116	0x3bade2a9	0.005306561
117	0xbc33dec1	-0.010978402
118	0x3c841f60	0.016128242
119	0x39b0ee51	0.00033746895
120	0x3bd8a2d3	0.006611207
121	0xbbc0ff09	-0.0058897776
122	0x3c1cdf33	0.009574699
123	0xbc4cb5a9	-0.012494483
124	0xbbc04ba1	-0.0058683907
125	0xbc9073da	-0.017633367
126	0x3ac9d3d5	0.0015398214
127	0x3c2735d0	0.010205701

exp_avg f4 [128, 15]
0	0x37c9c793	2.4054001e-05
1	0x37d1db20	2.501678e-05
2	0x37974ef6	1.8037372e-05
3	0x379048dc	1.7200065e-05
4	0x37c645e7	2.363599e-05
5	0x37bd1c5d	2.2543763e-05
6	0x368d7add	4.2164306e-06
7	0x373e9650	1.135988e-05
8	0x37bb9dc0	2.2365595e-05
9	0x37bf53ff	2.2808088e-05
10	0x35d8f705	1.6165146e-06
11	0x363c1610	2.8027025e-06
12	0x378b1e8c	1.6584316e-05
13	0x37bcd2a9	2.2509443e-05
14	0xb6dd80fc	-6.601329e-06
15	0x38b67cac	8.701658e-05
16	0x389eaf32	7.56666e-05
17	0x3865dc68	5.4803124e-05
18	0x385c1708	5.2473537e-05
19	0x38957412	7.1264934e-05
20	0x38864a3c	6.403445e-05
21	0xb60c5235	-2.0909476e-06
22	0xb70d38cb	-8.417478e-06
23	0x37fddd0c	3.0262883e-05
24	0x3821b4dd	3.8553833e-05
25	0xb7d178e8	-2.4971043e-05
26	0xb7de70c0	-2.6516966e-05
27	0x38a05d37	7.646757e-05
28	0x386bd098	5.6222634e-05
29	0xb74f65d7	-1.2361873e-05
30	0xb68bd3c8	-4.1671774e-06
31	0xb768690d	-1.3852737e-05
32	0x3704533e	7.887194e-06
33	0x36d47ab3	6.3323764e-06
34	0x36a9b0ea	5.057188e-06
35	0xb6b5fe70	-5.423841e-06
36	0xb7818d63	-1.5443837e-05
37	0xb7679f0c	-1.3805704e-05
38	0xb82469b8	-3.9199105e-05
39	0xb80a163a	-3.2922464e-05
40	0xb7d27ce0	-2.50921e-05
41	0xb7e1c278	-2.6912647e-05
42	0x371610a7	8.944574e-06
43	0xb6f07fd3	-7.167438e-06
44	0x37a0665c	1.9121151e-05
45	0xb7ccb7ce	-2.4404286e-05
46	0xb7a5c55c	-1.9761435e-05
47	0x37da46d1	2.6020602e-05
48	0x38006c5c	3.0618496e-05
49	0xb8486942	-4.7781745e-05
50	0xb809c59e	-3.284739e-05
51	0x38941cea	7.0625756e-05
52	0xb6e0407a	-6.6832263e-06
53	0x381d3d3a	3.748874e-05
54	0x3806598c	3.2031487e-05
55	0x38ba5ed1	8.886832e-05
56	0x38aa2b08	8.114247e-05
57	0x358e2460	1.0590411e-06
58	0xb72fa9aa	-1.0470316e-05
59	0x381eaaa8	3.782907e-05
60	0x371a0eac	9.182531e-06
61	0x3720f67a	9.5941305e-06
62	0x36ee722f	7.1062454e-06
63	0x370b0e9c	8.288447e-06
64	0x376d4950	1.414337e-05
65	0x376bc2b2	1.4052423e-05
66	0xb6c1f75e	-5.7806456e-06
67	0x36d6bbd4	6.399563e-06
68	0x36b02cc4	5.25042e-06
69	0x36aee5fb	5.2123773e-06
70	0xb6a4f8f4	-4.916563e-06
71	0xb6942004	-4.414471e-06
72	0x3676f2a4	3.6798092e-06
73	0x369a9e9c	4.608022e-06
74	0xb6520f66	-3.1301402e-06
75	0xb68e6f10	-4.244859e-06
76	0xb6871006	-4.025179e-06
77	0xb6949491	-4.428039e-06
78	0xb6931912	-4.38386e-06
79	0xb7189ce2	-9.096433e-06
80	0xb7039a8a	-7.84419e-06
81	0xb6ce17e5	-6.14206e-06
82	0xb6cf60da	-6.1803557e-06
83	0xb65d34c1	-3.2962273e-06
84	0xb59c2b44	-1.1635498e-06
85	0xb68480af	-3.9488873e-06
86	0xb64028f4	-2.8634067e-06
87	0xb71c8ee0	-9.33159e-06
88	0x3606f06a	2.0107495e-06
89	0xb6fd4e65	-7.549114e-06
90	0xb7ae0201	-2.074335e-05
91	0xb7396147	-1.1049508e-05
92	0xb8056fe3	-3.1813874e-05
93	0xb7f60322	-2.9326944e-05
94	0xb80ce370	-3.359042e-05
95	0xb79eda8f	-1.8936842e-05
96	0x3772bcb8	1.44682635e-05
97	0x3690eff0	4.319467e-06
98	0x37963431	1.7905697e-05
99	0x3714c3d0	8.867079e-06
100	0x3810093a	3.434087e-05
101	0x38156cfe	3.5625875e-05
102	0xb8168f80	-3.589643e-05
103	0xb7ab90f0	-2.045228e-05
104	0xb59b4018	-1.1567054e-06
105	0xb742cc7a	-1.16109095e-05
106	0xb737e450	-1.0960808e-05
107	0xb781f007	-1.548977e-05
108	0xb77bc73a	-1.5007152e-05
109	0xb7527446	-1.2544047e-05
110	0xb74365cf	-1.164661e-05
111	0xb74bd6e5	-1.2149777e-05
112	0xb7833b5c	-1.5644058e-05
113	0x3505ad88	4.979888e-07
114	0x35b37e90	1.3373374e-06
115	0xb721c963	-9.643237e-06
116	0xb711b471	-8.684686e-06
117	0x325b4800	1.2763849e-08
118	0x36cfce08	6.193066e-06
119	0x36d90dc1	6.468705e-06
120	0xb6079329	-2.0202226e-06
121	0xb5ca53e2	-1.5074586e-06
122	0xb55e30cd	-8.277246e-07
123	0xb5501d06	-7.7528273e-07
124	0xb67f37c3	-3.8030419e-06
125	0xb654e584	-3.1724057e-06
126	0xb6464c42	-2.9548687e-06
127	0xb60cbfac	-2.0973193e-06
128	0x35938a91	1.0992682e-06
129	0x3619e156	2.292994e-06
130	0x34810c53	2.403709e-07
131	0x359f1b44	1.1854358e-06
132	0xb6b01289	-5.2473665e-06
133	0x35d654d8	1.5968935e-06
134	0xb6ac7462	-5.139548e-06
135	0x36a4690e	4.899811e-06
136	0x374ba35c	1.2137778e-05
137	0xb5d9b76c	-1.6221143e-06
138	0xb64cb246	-3.0502138e-06
139	0xb5a89710	-1.256094e-06
140	0x36c3b32c	5.832311e-06
141	0xb5554f00	-7.9463643e-07
142	0x37267b48	9.923075e-06
143	0xb5a7700d	-1.2475081e-06
144	0x3708e647	8.159847e-06
145	0xb6cf84a9	-6.1845244e-06
146	0xb62f4a55	-2.61203e-06
147	0x35ac83b3	1.2853328e-06
148	0x37df7097	2.66361e-05
149	0xb8940e3f	-7.0598435e-05
150	0xb5593170	-8.091074e-07
151	0x34936120	2.7451551e-07
152	0xb5ba9ba7	-1.3903381e-06
153	0xb4c55444	-3.675542e-07
154	0x35b0686c	1.3143413e-06
155	0x35e146bc	1.6784393e-06
156	0xb6aa89dc	-5.0824437e-06
157	0x2f24ba00	1.4981794e-10
158	0xb5914b0a	-1.0825181e-06
159	0xb5ee01e5	-1.7732933e-06
160	0xb6740e6d	-3.636723e-06
161	0xb669640a	-3.4777936e-06
162	0x369a2910	4.594338e-06
163	0x366d073a	3.5319958e-06
164	0x35332a14	6.674393e-07
165	0x3709073c	8.167521e-06
166	0x36ddfb9b	6.615604e-06
167	0xb68e7dbd	-4.2465676e-06
168	0xb690f0f2	-4.319584e-06
169	0x376b4e7a	1.4025363e-05
170	0x37407602	1.1471568e-05
171	0xb7bcdb21	-2.2513386e-05
172	0xb663fe5c	-3.3973693e-06
173	0xb6c5405b	-5.8785495e-06
174	0xb6eb7452	-7.0170872e-06
175	0xb7e0757b	-2.6757587e-05
176	0xb7d4f8fb	-2.538831e-05
177	0x3743ecec	1.1678068e-05
178	0x3755405c	1.2710774e-05
179	0x3678b6c6	3.7061268e-06
180	0x38a4aa4c	7.85185e-05
181	0x3888765e	6.507033e-05
182	0x38529c85	5.021367e-05
183	0x384b6894	4.8496368e-05
184	0x38ab844f	8.17856e-05
185	0x3894230d	7.063719e-05
186	0xb83606aa	-4.3398388e-05
187	0xb7cd6ea5	-2.4489427e-05
188	0x37ed62f4	2.829868e-05
189	0x3820df23	3.8354785e-05
190	0xb89a14f1	-7.347193e-05
191	0xb899a95a	-7.327153e-05
192	0x38db6721	0.00010461943
193	0x38add9c8	8.289848e-05
194	0xb78c1497	-1.6698888e-05
195	0xb7304730	-1.0506992e-05
196	0xb6d7fdd6	-6.4370497e-06
197	0x3721a7f2	9.635451e-06
198	0x37360318	1.0848766e-05
199	0x36f95362	7.4304853e-06
200	0x36bf021e	5.69249e-06
201	0xb6f1d106	-7.206693e-06
202	0x36546c6a	3.1653567e-06
203	0x363015ee	2.6238808e-06
204	0x359ab85c	1.152755e-06
205	0xb7286d20	-1.0038988e-05
206	0xb720f8c4	-9.594663e-06
207	0x371b9d66	9.275367e-06
208	0x378ac155	1.654091e-05
209	0xb6df8b07	-6.662103e-06
210	0x3786aa4e	1.605335e-05
211	0x371e40e6	9.432644e-06
212	0x37925c2f	1.7447483e-05
213	0x37894ca1	1.6367356e-05
214	0x378419f3	1.574771e-05
215	0x372bbc88	1.023629e-05
216	0xb34f3000	-4.82396e-08
217	0xb78a84fc	-1.6512808e-05
218	0xb6959583	-4.4579515e-06
219	0xb68e803f	-4.2468596e-06
220	0xb7241d40	-9.781972e-06
221	0xb74c6323	-1.218243e-05
222	0x38086a7a	3.252409e-05
223	0x375271d0	1.2543474e-05
224	0x37d7be67	2.571866e-05
225	0xb824349a	-3.9149636e-05
226	0xb8058a84	-3.1838674e-05
227	0xb7d9fc74	-2.5985973e-05
228	0xb7cd692b	-2.4486877e-05
229	0xb81dfe12	-3.766834e-05
230	0xb7f039cc	-2.8637143e-05
231	0x3769f15e	1.394408e-05
232	0x36389226	2.7503206e-06
233	0x361f8d26	2.3775006e-06
234	0xb5251788	-6.150153e-07
235	0x38084572	3.2489603e-05
236	0x380efdd0	3.409182e-05
237	0xb81147d1	-3.463758e-05
238	0xb7a56124	-1.9714767e-05
239	0x36436be8	2.9120074e-06
240	0xb66b04e6	-3.502058e-06
241	0xb6baad45	-5.563403e-06
242	0xb53f09f0	-7.1167506e-07
243	0xb53138ae	-6.602012e-07
244	0xb4dd4c60	-4.1220028e-07
245	0xb629b2ce	-2.528704e-06
246	0xb6884040	-4.0605955e-06
247	0xb714bd29	-8.86553e-06
248	0x35176a36	5.640644e-07
249	0xb5fde1bc	-1.8915666e-06
250	0xb6e46f76	-6.8079053e-06
251	0xb70491aa	-7.901728e-06
252	0xb64769b9	-2.971485e-06
253	0xb6d4e028	-6.3441876e-06
254	0x375787c6	1.2846611e-05
255	0x369666df	4.482324e-06

exp_avg_sq f4 [128, 15]
0	0x32083603	7.928523e-09
1	0x320c0621	8.150466e-09
2	0x3208ccc4	7.9628e-09
3	0x320a6a45	8.05682e-09
4	0x32154ffd	8.691129e-09
5	0x32170cc8	8.792263e-09
6	0x3212ee64	8.552522e-09
7	0x32147856	8.642095e-09
8	0x3210925a	8.41518e-09
9	0x3212e8bc	8.551236e-09
10	0x31ff9464	7.438347e-09
11	0x3201d164	7.556398e-09
12	0x31eda832	6.9167294e-09
13	0x31f21bdd	7.0462947e-09
14	0x324e858a	1.2021141e-08
15	0x3356654b	4.9917883e-08
16	0x3358a92e	5.0445287e-08
17	0x33313bd2	4.126543e-08
18	0x33364998	4.244211e-08
19	0x3363b335	5.3015544e-08
20	0x33673174	5.3828856e-08
21	0x3335d27d	4.2333784e-08
22	0x333bea2f	4.375232e-08
23	0x336a2015	5.451155e-08
24	0x336f6148	5.5735e-08
25	0x333335e4	4.17257e-08
26	0x33376698	4.2701316e-08
27	0x3365e986	5.3530606e-08
28	0x33664e6d	5.3622376e-08
29	0x33818706	6.031591e-08
30	0x32ce6e2a	2.4031653e-08
31	0x32d16033	2.4374549e-08
32	0x32d45e6c	2.4722986e-08
33	0x32d98bdc	2.5325726e-08
34	0x32d5b1c4	2.4877302e-08
35	0x32d88e52	2.521043e-08
36	0x32dd6d96	2.577762e-08
37	0x32e383ac	2.6486155e-08
38	0x32d98ebd	2.5327035e-08
39	0x32dda193	2.5801262e-08
40	0x32ecc514	2.7563637e-08
41	0x32ec0ea3	2.7480672e-08
42	0x32cf3189	2.4120498e-08
43	0x32d2b599	2.4529799e-08
44	0x32e7fcaa	2.7006838e-08
45	0x340dbe4b	1.3200876e-07
46	0x340fdd7b	1.3398487e-07
47	0x340769dc	1.2611366e-07
48	0x34095408	1.278969e-07
49	0x341b7360	1.4477473e-07
50	0x341d8b67	1.4672479e-07
51	0x33d5e1aa	9.9596335e-08
52	0x33e2189d	1.0528422e-07
53	0x3418bb02	1.4224136e-07
54	0x341ad3f5	1.4419477e-07
55	0x33e318d5	1.0575028e-07
56	0x33e29269	1.0550577e-07
57	0x33f66216	1.14731094e-07
58	0x340487ba	1.2342835e-07
59	0x33b02e62	8.2040756e-08
60	0x31408f70	2.8021212e-09
61	0x3142de26	2.8356992e-09
62	0x313983d2	2.6995974e-09
63	0x313e1aa9	2.7663793e-09
64	0x31089559	1.98755e-09
65	0x310a2693	2.010357e-09
66	0x31742f02	3.5533394e-09
67	0x317bd04e	3.6643715e-09
68	0x3098c768	1.111613e-09
69	0x309b0397	1.1278755e-09
70	0x316805a7	3.3763656e-09
71	0x31710232	3.5071364e-09
72	0x2f01d016	1.1806409e-10
73	0x2f5be69c	1.9999863e-10
74	0x31be2963	5.534433e-09
75	0x2f6a63f9	2.1317693e-10
76	0x2f715759	2.1949854e-10
77	0x2f926d34	2.663484e-10
78	0x2f991d18	2.785121e-10
79	0x2e856a32	6.067004e-11
80	0x2e9ad262	7.040481e-11
81	0x2fda9e36	3.9766385e-10
82	0x2fd9f50b	3.9646184e-10
83	0x2e578564	4.9003815e-11
84	0x2e7e3f13	5.7808935e-11
85	0x2fcff582	3.7827524e-10
86	0x2fdc157b	4.003303e-10
87	0x2edbd23d	9.996313e-11
88	0x2f4a8fc9	1.8422876e-10
89	0x3047dd27	7.2710055e-10
90	0x332a6cdb	3.9680213e-08
91	0x332b2d98	3.9855507e-08
92	0x332ecfe6	4.0701615e-08
93	0x33313392	4.1257927e-08
94	0x3322ca37	3.7902478e-08
95	0x3323f85f	3.8177287e-08
96	0x33224c49	3.7787945e-08
97	0x33277818	3.8991942e-08
98	0x33200fb2	3.7267178e-08
99	0x33239180	3.8083726e-08
100	0x331d0a67	3.6563872e-08
101	0x331d4cb7	3.6624183e-08
102	0x331dde4e	3.6756596e-08
103	0x33219138	3.761781e-08
104	0x33205766	3.733239e-08
105	0x309bf01a	1.1345975e-09
106	0x30a23ddb	1.1804632e-09
107	0x3107a1d5	1.9737076e-09
108	0x310ea42a	2.0757036e-09
109	0x30a1c6ae	1.177076e-09
110	0x30a6afed	1.2128091e-09
111	0x316113cf	3.275307e-09
112	0x315d5748	3.2209346e-09
113	0x30d53877	1.5513838e-09
114	0x30d41e45	1.5433633e-09
115	0x311a02a6	2.2411455e-09
116	0x311c5e6a	2.2754656e-09
117	0x30b49010	1.3137669e-09
118	0x30d28abd	1.5318943e-09
119	0x31da5ca5	6.3551675e-09
120	0x2f3e59dc	1.7312324e-10
121	0x2f47770b	1.8141237e-10
122	0x2e1eabcb	3.6077624e-11
123	0x2e4b6121	4.6243124e-11
124	0x2f037631	1.195637e-10
125	0x2f13035a	1.3370763e-10
126	0x2f486a1f	1.8227596e-10
127	0x2f510fec	1.9014096e-10
128	0x2f86715a	2.4455e-10
129	0x2f8870d3	2.4818422e-10
130	0x2ec9c7fb	9.1759454e-11
131	0x2ed2514e	9.564137e-11
132	0x2f60038e	2.0373944e-10
133	0x2f83eca1	2.3996896e-10
134	0x30276b97	6.090714e-10
135	0x316480f2	3.3251664e-09
136	0x3179d8d7	3.6357528e-09
137	0x31418e8f	2.8166232e-09
138	0x314e2935	3.0000369e-09
139	0x31d9d055	6.339216e-09
140	0x31e6c5d9	6.7163737e-09
141	0x314a3a82	2.9428127e-09
142	0x315f9dbd	3.2540435e-09
143	0x320db17b	8.247635e-09
144	0x321538ed	8.685885e-09
145	0x31972a4f	4.3994883e-09
146	0x319a4e4b	4.4908908e-09
147	0x325b0aae	1.2749906e-08
148	0x32708203	1.39994e-08
149	0x32c7e8b6	2.3272474e-08
150	0x2fb3a938	3.2680147e-10
151	0x2fb73e1e	3.3331643e-10
152	0x2fc84f33	3.6436063e-10
153	0x2fca853c	3.6838255e-10
154	0x2fa40a91	2.9838934e-10
155	0x2faf2486	3.1858266e-10
156	0x302ecba2	6.359021e-10
157	0x3031748e	6.455786e-10
158	0x2fc790f5	3.6300887e-10
159	0x2fd16295	3.8086925e-10
160	0x3068c0a0	8.4674845e-10
161	0x306b4d27	8.560214e-10
162	0x2fd7b6b0	3.923808e-10
163	0x3001bbc5	4.7196763e-10
164	0x31366b6c	2.6545548e-09
165	0x32844ad3	1.5400849e-08
166	0x3285e3d1	1.5586837e-08
167	0x32578f8a	1.2547284e-08
168	0x325e8167	1.2951523e-08
169	0x3289f729	1.6061295e-08
170	0x328ccf6c	1.639247e-08
171	0x328b7e31	1.6239115e-08
172	0x328b7d0e	1.6238598e-08
173	0x327c72a4	1.4694397e-08
174	0x32805dca	1.4943812e-08
175	0x328f045a	1.664937e-08
176	0x328db09b	1.6494871e-08
177	0x322535bf	9.6164845e-09
178	0x3236c1a0	1.06378195e-08
179	0x328acb2b	1.6157705e-08
180	0x3354b1d5	4.9521834e-08
181	0x33562136	4.9855963e-08
182	0x33398655	4.3195843e-08
183	0x333d0347	4.4007972e-08
184	0x335f44b9	5.1983736e-08
185	0x3360ae72	5.231272e-08
186	0x332c564a	4.012535e-08
187	0x333261d1	4.1532818e-08
188	0x3353db2b	4.9326598e-08
189	0x33598850	5.0648225e-08
190	0x3328d601	3.9310184e-08
191	0x33296016	3.943577e-08
192	0x3349db12	4.6998203e-08
193	0x3351f984	4.8888538e-08
194	0x333d6b3d	4.4102524e-08
195	0x31ef3255	6.9615376e-09
196	0x31f55128	7.139665e-09
197	0x320682d3	7.8295725e-09
198	0x320765cf	7.881183e-09
199	0x31de8f1b	6.4773196e-09
200	0x31e67349	6.7069874e-09
201	0x321d2176	9.146211e-09
202	0x321ff302	9.310272e-09
203	0x31eaf7bf	6.838462e-09
204	0x31f30998	7.0733215e-09
205	0x3214f9b0	8.671506e-09
206	0x3214b0cf	8.654935e-09
207	0x31f17d33	7.0282566e-09
208	0x31fded94	7.3902786e-09
209	0x3223680e	9.511508e-09
210	0x32764a41	1.4335968e-08
211	0x327c0157	1.4668635e-08
212	0x327c39c5	1.4681466e-08
213	0x32816b1f	1.506629e-08
214	0x32726f49	1.4111557e-08
215	0x3278905f	1.4468326e-08
216	0x3281e15f	1.5120063e-08
217	0x32874dc6	1.5751436e-08
218	0x32821072	1.514147e-08
219	0x3284e220	1.5469652e-08
220	0x32785591	1.44549555e-08
221	0x327b8ede	1.4642607e-08
222	0x32833075	1.5272443e-08
223	0x3285e321	1.5586524e-08
224	0x329cc92a	1.8252269e-08
225	0x32759e7c	1.4296912e-08
226	0x3278bc59	1.4478325e-08
227	0x326ac057	1.3664326e-08
228	0x326f5761	1.3931499e-08
229	0x3277a5b4	1.4414969e-08
230	0x327b4395	1.4625489e-08
231	0x3245e0c0	1.1518011e-08
232	0x324cec1b	1.1928047e-08
233	0x327780ff	1.4406623e-08
234	0x327deca1	1.4780341e-08
235	0x323e1dd1	1.1066235e-08
236	0x323e3716	1.1071981e-08
237	0x32689fa0	1.3540472e-08
238	0x327b49ef	1.4626933e-08
239	0x323ddbb9	1.1051207e-08
240	0x305158d0	7.6159967e-10
241	0x305ddcd9	8.0713175e-10
242	0x300508b2	4.8397475e-10
243	0x300b9a05	5.078678e-10
244	0x30c52273	1.4343428e-09
245	0x30cbaa2d	1.4818561e-09
246	0x3070cee3	8.7605495e-10
247	0x3074dcf1	8.908066e-10
248	0x310236b2	1.894858e-09
249	0x31049cae	1.929759e-09
250	0x3085ad81	9.726336e-10
251	0x308460ca	9.631773e-10
252	0x30ea47c1	1.7046135e-09
253	0x3100913f	1.8709014e-09
254	0x31292498	2.4613538e-09
255	0x2f26c409	1.5167258e-10

exp_avg f4 [128]
0	0x3801dc3f	3.0961117e-05
1	0x3827e606	4.003013e-05
2	0xb7303ad0	-1.0504111e-05
3	0xb826b364	-3.9744555e-05
4	0x37fa190b	2.9813984e-05
5	0xb5e92921	-1.7371823e-06
6	0xb77105ac	-1.436604e-05
7	0xb7a2a8e8	-1.9390558e-05
8	0x36e70229	6.884588e-06
9	0x38ba88ca	8.89465e-05
10	0x36f9b4c4	7.441822e-06
11	0x376f44fa	1.426157e-05
12	0x3888a99a	6.516576e-05
13	0x38017329	3.0863248e-05
14	0xb7597d76	-1.2963419e-05
15	0xb7825ba4	-1.5539881e-05
16	0xb7a9f184	-2.0258834e-05
17	0x374b2124	1.2107459e-05
18	0xb7f10db7	-2.8735825e-05
19	0xb649614f	-3.0007975e-06
20	0x37de4aa4	2.649922e-05
21	0x3732047a	1.0610669e-05
22	0xb745e2b0	-1.1794895e-05
23	0x37ef595d	2.8532633e-05
24	0x386662e6	5.492838e-05
25	0xb8f08146	-0.00011468171
26	0x37dae038	2.6092035e-05
27	0x37f4b654	2.917197e-05
28	0xb8517ffd	-4.994868e-05
29	0xb6a6f6f6	-4.9759356e-06
30	0x37672ce4	1.3779125e-05
31	0xb7e12f4e	-2.6844118e-05
32	0xb80c2dae	-3.3421144e-05
33	0x376eafc4	1.4226829e-05
34	0x37ec268e	2.8151346e-05
35	0xb7b4922d	-2.152574e-05
36	0xb5a0baa4	-1.1975249e-06
37	0xb7b77a71	-2.1872316e-05
38	0x37879144	1.6160899e-05
39	0xb767451d	-1.3784765e-05
40	0xb761472a	-1.3427614e-05
41	0x3681f8b2	3.8734515e-06
42	0xb8b82ece	-8.782522e-05
43	0xb726295f	-9.9040035e-06
44	0xb8837398	-6.268098e-05
45	0x3649cd40	3.0070805e-06
46	0x368fb6b2	4.2830006e-06
47	0xb7bfe4a0	-2.2875436e-05
48	0xb7e65c16	-2.7461017e-05
49	0x3741a93e	1.1543101e-05
50	0x378a4c85	1.6486514e-05
51	0x37dcd5d2	2.6325612e-05
52	0xb64be8a8	-3.038478e-06
53	0xb74c66e4	-1.2183304e-05
54	0x382422a4	3.913291e-05
55	0x3794d0e8	1.7740254e-05
56	0xb8803a28	-6.114348e-05
57	0xb7b5f760	-2.1692074e-05
58	0xb850da4a	-4.9794362e-05
59	0xb611a934	-2.1705173e-06
60	0x365e02d4	3.3082224e-06
61	0xb5ef17e0	-1.7813836e-06
62	0x371616da	8.946017e-06
63	0xb7c976f0	-2.4016452e-05
64	0xb7846bfd	-1.5785912e-05
65	0x36a874e2	5.020397e-06
66	0x38a60e7c	7.918195e-05
67	0x36111d12	2.1623605e-06
68	0xb793c666	-1.7616152e-05
69	0x35c98896	1.5015419e-06
70	0x3803cdea	3.1424606e-05
71	0xb6a3614c	-4.8691054e-06
72	0x370dce1f	8.452246e-06
73	0xb7db11d6	-2.611514e-05
74	0x342700c0	1.555336e-07
75	0xb8f23e0c	-0.00011551016
76	0xb887f3b4	-6.482695e-05
77	0xb741435f	-1.15193825e-05
78	0xb7c97758	-2.4016641e-05
79	0x37874e30	1.6129663e-05
80	0xb803d564	-3.143157e-05
81	0xb7f005f9	-2.861301e-05
82	0x3827c6e4	4.0001134e-05
83	0x35984120	1.1343836e-06
84	0x377eceff	1.5187775e-05
85	0xb8266201	-3.9668757e-05
86	0x382fb261	4.188938e-05
87	0x37b25cb0	2.1262415e-05
88	0x34e6e0fe	4.3004542e-07
89	0xb7fe09ca	-3.0283718e-05
90	0xb833ca8f	-4.2865573e-05
91	0xb78b0a9d	-1.6575033e-05
92	0x38b64219	8.690748e-05
93	0x381e522a	3.7746657e-05
94	0x37191f6f	9.126829e-06
95	0x371eeec5	9.473127e-06
96	0x369e3f88	4.716163e-06
97	0xb81e5160	-3.7745922e-05
98	0xb7e3999a	-2.7132035e-05
99	0xb717b48a	-9.042336e-06
100	0x3786b97a	1.6060414e-05
101	0xb7b6ada1	-2.1776943e-05
102	0xb8175ec8	-3.6089477e-05
103	0x36ca1b46	6.023244e-06
104	0x37410f07	1.1507195e-05
105	0x37cba2b3	2.4275249e-05
106	0x36e77ddc	6.8989884e-06
107	0xb71c9f6c	-9.335443e-06
108	0x3841d890	4.6216475e-05
109	0xb7598584	-1.2965294e-05
110	0x37a1f7f4	1.9308158e-05
111	0x3871a003	5.76079e-05
112	0x37a940d4	2.0176558e-05
113	0x3723eee9	9.771183e-06
114	0x371290a4	8.735955e-06
115	0xb81ca1d8	-3.7344027e-05
116	0xb7649cc4	-1.3626359e-05
117	0x37d68cf0	2.5576417e-05
118	0x37f0848e	2.8671955e-05
119	0xb7e08164	-2.6763133e-05
120	0xb7a02631	-1.909127e-05
121	0xb6a20e40	-4.829635e-06
122	0xb84e5b1e	-4.9199087e-05
123	0xb7907039	-1.7218395e-05
124	0xb70d43d0	-8.420044e-06
125	0x37ceff64	2.467604e-05
126	0xb833d660	-4.2876578e-05
127	0xb7f27818	-2.8904571e-05
