results/FirstRunAnacondaTest/AgentSphereBehavior/AgentSphereBehavior-4224.onnx (onnx, 76923 bytes, 5 tensors)

action_model._discrete_distribution.branches.0.weight f4 [1, 128]
0.0013943651 0.0049145604 -0.0020183318 0.009132119 -0.009902948 -0.0020148447 -0.023143113 -0.0014491382
-0.022169868 0.019132486 -0.0034902326 -0.008043041 -0.0035271295 -0.0013623791 -0.007657878 -0.0035068442
0.008015963 -0.0016178511 -0.003631721 -0.00066509657 0.006238348 -0.00020545612 -0.015457821 0.0036355425
0.0011044636 -0.009699175 0.0086374385 0.017978227 -0.0012809179 0.0028193027 0.004953099 -0.0018714285
-0.00056073617 -0.010310991 0.0072212615 0.0023725156 0.0010510962 0.014322919 -0.0011107696 0.0031660802
-0.0020944579 -0.007652034 -0.0077648647 -0.008752752 -0.0026803592 -0.013693842 0.003506935 0.0019678574
-0.0066399905 -0.0071855905 -0.0006046511 0.0080567505 0.0059595364 -0.005921881 0.0049370374 0.015241928
-0.00861169 -0.008347864 0.002283449 -0.010204952 0.0070568263 -0.00017753486 0.010318178 0.016124088
0.010251593 0.0061122454 -0.01198491 0.007303636 0.015172568 -0.0028441052 0.0033881806 0.008718989
0.0043259445 0.0107029965 -0.009092934 -0.0038980532 -0.0043876623 -0.0016375814 0.0103664445 -0.0056074453
0.0007047259 0.0050129006 0.00050385174 0.008344756 0.007498137 -0.0034572822 -0.010158859 0.006112445
-0.002753625 -0.005172755 0.009911499 0.0058804913 -0.0057600853 0.01682264 0.0034481303 0.006972201
-0.0070316507 -0.004143896 0.010810288 -0.00011808791 -2.4154599e-05 -0.0061159837 0.0044620414 0.006697438
-0.0077938773 -0.0065477923 -0.011939706 -0.00976369 -0.005241142 -0.0030865273 -0.013577796 -0.010009742
0.0015919114 0.012657349 -0.009781633 0.0012584317 -0.014028258 -0.008945419 0.003289256 0.017067684
-0.0073489845 -0.00890258 -0.00063569745 -0.0017853819 0.007057497 0.002400764 -0.0055875233 0.003991109
00000000: 21c3 b63a 520a a13b fd45 04bb e29e 153c
00000010: f93f 22bc 7c0b 04bb a096 bdbc 02f1 bdba
00000020: 959d b5bc bbbb 9c3c 63bc 64bb f6c6 03bc
00000030: 6a27 67bb db91 b2ba f0ee fabb 15d3 65bb
00000040: 6355 033c 130e d4ba 2b02 6ebb e059 2eba
00000050: 0e6b cc3b b56f 57b9 cd42 7dbc 4842 6e3b
00000060: a6c3 903a 4ae9 1ebc 0b84 0d3c 1347 933c
00000070: 79e4 a7ba 0dc4 383b 9b4d a23b b84a f5ba
00000080: 5efe 12ba 6eef 28bc 55a0 ec3b 357c 1b3b
00000090: f0c4 893a adaa 6a3c 3e97 91ba 037e 4f3b
000000a0: 2c43 09bb eabd fabb 6870 febb b467 0fbc
000000b0: f7a8 2fbb 235c 60bc 9bd4 653b 2bf7 003b
000000c0: 4794 d9bb 1a75 ebbb 7381 1eba 7600 043c
000000d0: 3748 c33b 570c c2bb dfc6 a13b 48b9 793c
000000e0: 0c18 0dbc 7bc5 08bc eba5 153b ac32 27bc
000000f0: f33c e73b a728 3ab9 930d 293c aa16 843c
00000100: 4cf6 273c 3b49 c83b 5b5c 44bc 5753 ef3b
00000110: 5d96 783c 2b64 3abb 3d0c 5e3b 17da 0e3c
00000120: a7c0 8d3b 9f5b 2f3c 88fa 14bc 7b76 7fbb
00000130: 61c6 8fbb 1da4 d6ba 05d8 293c a9be b7bb
00000140: 5bbd 383a 4243 a43b eb14 043a 72b8 083c
00000150: efb2 f53b 9293 62bb 5871 26bc e84a c83b
00000160: 2976 34bb 3780 a9bb d763 223c 23b1 c03b
00000170: 19bf bcbb a2cf 893c 07fa 613b 1077 e43b
00000180: c369 e6bb 85c9 87bb a21d 313c f7a5 f7b8
00000190: 9b9f cab7 9768 c8bb 5136 923b 2f76 db3b
000001a0: c863 ffbb dd8e d6bb c29e 43bc e2f7 1fbc
000001b0: e3bd abbb 5647 4abb 6775 5ebc e7ff 23bc
000001c0: afa7 d03a c560 4f3c 2443 20bc f6f1 a43a
000001d0: c7d6 65bc cf8f 12bc 8f90 573b 87d1 8b3c
000001e0: c0cf f0bb 20dc 11bc efa4 26ba 7a03 eaba
000001f0: 9342 e73b 2356 1d3b 8b17 b7bb d9c7 823b

network_body._body_endoder.seq_layers.0.bias f4 [128]
0.0 0.0 0.0 0.0 0.0 0.0 0.0 0.0
0.0 0.0 0.0 0.0 0.0 0.0 0.0 0.0
0.0 0.0 0.0 0.0 0.0 0.0 0.0 0.0
0.0 0.0 0.0 0.0 0.0 0.0 0.0 0.0
0.0 0.0 0.0 0.0 0.0 0.0 0.0 0.0
0.0 0.0 0.0 0.0 0.0 0.0 0.0 0.0
0.0 0.0 0.0 0.0 0.0 0.0 0.0 0.0
0.0 0.0 0.0 0.0 0.0 0.0 0.0 0.0
0.0 0.0 0.0 0.0 0.0 0.0 0.0 0.0
0.0 0.0 0.0 0.0 0.0 0.0 0.0 0.0
0.0 0.0 0.0 0.0 0.0 0.0 0.0 0.0
0.0 0.0 0.0 0.0 0.0 0.0 0.0 0.0
0.0 0.0 0.0 0.0 0.0 0.0 0.0 0.0
0.0 0.0 0.0 0.0 0.0 0.0 0.0 0.0
0.0 0.0 0.0 0.0 0.0 0.0 0.0 0.0
0.0 0.0 0.0 0.0 0.0 0.0 0.0 0.0
00000000: 0000 0000 0000 0000 0000 0000 0000 0000
00000010: 0000 0000 0000 0000 0000 0000 0000 0000
00000020: 0000 0000 0000 0000 0000 0000 0000 0000
00000030: 0000 0000 0000 0000 0000 0000 0000 0000
00000040: 0000 0000 0000 0000 0000 0000 0000 0000
00000050: 0000 0000 0000 0000 0000 0000 0000 0000
00000060: 0000 0000 0000 0000 0000 0000 0000 0000
00000070: 0000 0000 0000 0000 0000 0000 0000 0000
00000080: 0000 0000 0000 0000 0000 0000 0000 0000
00000090: 0000 0000 0000 0000 0000 0000 0000 0000
000000a0: 0000 0000 0000 0000 0000 0000 0000 0000
000000b0: 0000 0000 0000 0000 0000 0000 0000 0000
000000c0: 0000 0000 0000 0000 0000 0000 0000 0000
000000d0: 0000 0000 0000 0000 0000 0000 0000 0000
000000e0: 0000 0000 0000 0000 0000 0000 0000 0000
000000f0: 0000 0000 0000 0000 0000 0000 0000 0000
00000100: 0000 0000 0000 0000 0000 0000 0000 0000
00000110: 0000 0000 0000 0000 0000 0000 0000 0000
00000120: 0000 0000 0000 0000 0000 0000 0000 0000
00000130: 0000 0000 0000 0000 0000 0000 0000 0000
00000140: 0000 0000 0000 0000 0000 0000 0000 0000
00000150: 0000 0000 0000 0000 0000 0000 0000 0000
00000160: 0000 0000 0000 0000 0000 0000 0000 0000
00000170: 0000 0000 0000 0000 0000 0000 0000 0000
00000180: 0000 0000 0000 0000 0000 0000 0000 0000
00000190: 0000 0000 0000 0000 0000 0000 0000 0000
000001a0: 0000 0000 0000 0000 0000 0000 0000 0000
000001b0: 0000 0000 0000 0000 0000 0000 0000 0000
000001c0: 0000 0000 0000 0000 0000 0000 0000 0000
000001d0: 0000 0000 0000 0000 0000 0000 0000 0000
000001e0: 0000 0000 0000 0000 0000 0000 0000 0000
000001f0: 0000 0000 0000 0000 0000 0000 0000 0000

network_body._body_endoder.seq_layers.0.weight f4 [128, 15]
-0.42483413 -0.33194473 -0.39811286 0.090266846 0.7238716 -0.24617131 -0.16091877 0.3574742
-0.003724404 0.014924921 -0.10713176 0.2617378 -0.034525994 0.05611247 0.25722238 -0.2949165
0.17602012 0.12657958 0.22412144 0.017621385 -0.089909814 0.11298856 -0.24582975 0.2422055
0.35830882 -0.17123292 -0.3283801 -0.29940006 -0.18444899 -0.06445397 -0.10429865 -0.21277936
-0.14162128 0.18267806 -0.0425044 0.17129788 0.08846977 0.30326787 0.048425045 -0.22584382
0.22428614 -0.08805887 -0.16480643 -0.14471662 -0.35750997 0.23005868 0.4610298 -0.0024477644
0.21921267 -0.04005269 -0.10922987 0.24452701 0.27426636 0.040834073 0.050617702 -0.19182843
-0.0701518 -0.29100385 0.0487974 -0.1343485 -0.0061139013 0.36229673 -0.16285935 0.014393739
0.19808036 -0.0134812705 0.09465648 0.16882643 -0.1257277 -0.19183582 0.42504653 0.20499529
0.3145515 -0.18772332 0.3243361 -0.2993042 0.36744404 -0.17770474 0.28733212 0.2188083
-0.39767876 -0.1566452 -0.3843146 -0.10010711 -0.028276945 -0.16300271 -0.16614275 0.15043312
0.051864658 -0.27486742 0.10599509 0.61383027 -0.098232746 -0.17094544 -0.4098877 -0.36362913
-0.24353401 -0.09125156 0.37020862 0.2546016 0.051992375 0.32077754 -0.38272962 -0.21477483
0.5099025 0.36272728 0.06151775 0.023179641 0.57756543 -0.11678371 0.15101895 -0.047745652
-0.23623624 0.07281079 0.012374715 0.08118882 -0.18307902 -0.48464924 0.34453222 0.46061155
0.42295852 -0.11579283 -0.08847265 0.083533876 0.41639087 -0.22624597 0.010172045 0.26436988
-0.102604866 -0.10404305 0.11998217 -0.1296726 -0.0062320908 0.19653058 0.07945314 0.18724999
-0.3775352 -0.43265778 -0.430404 -0.22374824 -0.013899677 -0.6783648 -0.03218117 0.3319396
0.1347456 0.3406406 -0.14075615 -0.59196496 -0.17736465 -0.14549145 -0.28464788 -0.46653202
-0.13177446 -0.09987969 0.14918728 0.12029493 0.072341196 0.14442015 0.22232223 0.7362011
-0.5007294 0.30727166 -0.07662629 0.52345014 -0.14891693 -0.30055296 0.2412338 0.41810983
-0.08572955 -0.16685703 -0.19847645 -0.11954441 0.25574756 -0.4819229 -0.2457892 0.4153029
0.17694557 0.32491514 -0.15357187 -0.056106247 0.31014416 -0.26526704 -0.336563 0.12286501
0.06702837 -0.019591343 -0.18642075 -0.13534541 0.21199113 -0.07655761 -0.2898116 -0.24434529
-0.008618448 -0.095227614 -0.06328519 0.069764905 -0.20210041 -0.41778624 -0.04678874 -0.4064187
-0.25025013 0.21177514 -0.23817493 0.05096916 -0.41938424 -0.0037654208 -0.107770965 0.11634031
-0.18980858 -0.2817114 0.2925861 -0.3427189 0.07585767 -0.16998361 0.14420909 0.2561351
0.0028490657 0.01532619 0.1687549 -0.22197036 0.13134974 0.15364166 -0.43695742 -0.04536562
-0.07332793 -0.20869705 -0.23461404 -0.17269899 0.18608251 0.40055153 0.14382216 -0.06536081
-0.040998496 0.13619871 0.18158293 -0.13116992 -0.15657295 -0.14815718 0.0036458115 -0.29598925
-0.13182819 -0.02898371 -0.5148558 -0.08187033 -0.19186695 0.17205524 0.2037131 -0.54474586
0.22317605 0.050773777 -0.10231621 0.3840389 -0.24247172 0.097414136 -0.15470514 -0.094207264
00000000: dc83 d9be a9f4 a9be 73d5 cbbe d3dd b83d
00000010: a64f 393f 5514 7cbe e4c7 24be dc06 b73e
00000020: 2115 74bb a887 743c e567 dbbd 7f02 863e
00000030: 216b 0dbd 30d6 653d a7b2 833e 4cff 96be
00000040: 9e3e 343e 149e 013e 1780 653e b95a 903c
00000050: a322 b8bd 8c66 e73d cbba 7bbe b804 783e
00000060: 4174 b73e af57 2fbe 7021 a8be f74a 99be
00000070: 32e0 3cbe 7100 84bd 889a d5bd d5e2 59be
00000080: 2b05 11be f50f 3b3e 1819 2ebd b668 2f3e
00000090: a42f b53d ed45 9b3e 5759 463d 9a43 67be
000000a0: 44ab 653e 3558 b4bd 04c3 28be 9830 14be
000000b0: 8c0b b7be 8194 6b3e 190c ec3e ac6a 20bb
000000c0: 4979 603e 4a0e 24bd e9b3 dfbd 4a65 7a3e
000000d0: a46c 8c3e a141 273d 8254 4f3d ac6e 44be
000000e0: bfab 8fbd 75fe 94be c8df 473d a792 09be
000000f0: 1f57 c8bb f57e b93e 9ac4 26be b8d3 6b3c
00000100: 94d5 4a3e 8ce0 5cbc 42db c13d d6e0 2c3e
00000110: c3be 00be 9c70 44be b39f d93e 49ea 513e
00000120: e50c a13e 8b3a 40be 620f a63e 663e 99be
00000130: a021 bc3e 3bf8 35be 321d 933e 480f 603e
00000140: 8d9c cbbe 9967 20be e2c4 c4be f504 cdbd
00000150: 0da5 e7bc 2fea 26be 5321 2abe 240b 1a3e
00000160: 0970 543d 6cbb 8cbe f413 d93d fb23 1d3f
00000170: 402e c9bd 520c 2fbe cddc d1be 992d babe
00000180: fb60 79be 19e2 babd fc8b bd3e 245b 823e
00000190: f5f5 543d f43c a43e 23f5 c3be efed 5bbe
000001a0: f888 023f 64b7 b93e 09fa 7b3d 3be3 bd3c
000001b0: 54db 133f 4c2c efbd b6a4 1a3e f290 43bd
000001c0: eae7 71be d31d 953d 51bf 4a3c 5346 a63d
000001d0: 1179 3bbe f223 f8be 8766 b03e 47d5 eb3e
000001e0: 058e d83e cb24 edbd 2631 b5bd cf13 ab3d
000001f0: 2f31 d53e 06ad 67be a6a8 263c 7d5b 873e
00000200: 8022 d2bd 8614 d5bd 36b9 f53d e5c8 04be
00000210: 9136 ccbb 503f 493e 54b8 a23d 76be 3f3e
00000220: 4b4c c1be 5285 ddbe ea5d dcbe 421e 65be
00000230: 79bb 63bc 51a9 2dbf 67d0 03bd fdf3 a93e
00000240: c0fa 093e 7268 ae3e 6122 10be 048b 17bf
00000250: 149f 35be b6fb 14be 5ebd 91be 49dd eebe
00000260: e2ef 06be b98d ccbd 8dc4 183e 305d f63d
00000270: 9f27 943d e0e2 133e 70a8 633e ad77 3c3f
00000280: cd2f 00bf b652 9d3e 3fee 9cbd d400 063f
00000290: ae7d 18be 14e2 99be fe05 773e 7e12 d63e
000002a0: f992 afbd 92dc 2abe 693d 4bbe b3d3 f4bd
000002b0: 58f1 823e 99be f6be 2ab0 7bbe 95a2 d43e
000002c0: 3831 353e 475b a63e f241 1dbe aacf 65bd
000002d0: 37cb 9e3e 15d1 87be fc51 acbe a6a0 fb3d
000002e0: 2c46 893d 067e a0bc 15e5 3ebe fd97 0abe
000002f0: 3414 593e 3cca 9cbd 3062 94be a735 7abe
00000300: 6434 0dbc b206 c3bd aa9b 81bd e7e0 8e3d
00000310: 69f3 4ebe 14e8 d5be 8da5 3fbd 1d16 d0be
00000320: c920 80be 95db 583e 21e4 73be 0ac5 503d
00000330: 88b9 d6be 47c5 76bb 06b7 dcbd d443 ee3d
00000340: 2e5d 42be 7a3c 90be d8cd 953e da78 afbe
00000350: 445b 9b3d 2f10 2ebe 8cab 133e 2424 833e
00000360: 64b7 3a3b b31a 7b3c 16ce 2c3e 334c 63be
00000370: 8c80 063e 3d54 1d3e e2b8 dfbe 4dd1 39bd
00000380: f42c 96bd aeb4 55be aa3e 70be 01d8 30be
00000390: 6a8c 3e3e 1715 cd3e 1e46 133e e3db 85bd
000003a0: 0aee 27bd ad77 0b3e e0f0 393e 6851 06be
000003b0: a954 20be 84b6 17be 91ee 6e3b e78b 97be
000003c0: f8fd 06be 3f6f edbc 97cd 03bf a2ab a7bd
000003d0: c578 44be 402f 303e 2b9a 503e 7774 0bbf
000003e0: 4388 643e 2af8 4f3d 298b d1bd bfa0 c43e
000003f0: 824a 78be 1081 c73d 066b 1ebe bdef c0bd

network_body._body_endoder.seq_layers.2.bias f4 [128]
0.0 0.0 0.0 0.0 0.0 0.0 0.0 0.0
0.0 0.0 0.0 0.0 0.0 0.0 0.0 0.0
0.0 0.0 0.0 0.0 0.0 0.0 0.0 0.0
0.0 0.0 0.0 0.0 0.0 0.0 0.0 0.0
0.0 0.0 0.0 0.0 0.0 0.0 0.0 0.0
0.0 0.0 0.0 0.0 0.0 0.0 0.0 0.0
0.0 0.0 0.0 0.0 0.0 0.0 0.0 0.0
0.0 0.0 0.0 0.0 0.0 0.0 0.0 0.0
0.0 0.0 0.0 0.0 0.0 0.0 0.0 0.0
0.0 0.0 0.0 0.0 0.0 0.0 0.0 0.0
0.0 0.0 0.0 0.0 0.0 0.0 0.0 0.0
0.0 0.0 0.0 0.0 0.0 0.0 0.0 0.0
0.0 0.0 0.0 0.0 0.0 0.0 0.0 0.0
0.0 0.0 0.0 0.0 0.0 0.0 0.0 0.0
0.0 0.0 0.0 0.0 0.0 0.0 0.0 0.0
0.0 0.0 0.0 0.0 0.0 0.0 0.0 0.0
00000000: 0000 0000 0000 0000 0000 0000 0000 0000
00000010: 0000 0000 0000 0000 0000 0000 0000 0000
00000020: 0000 0000 0000 0000 0000 0000 0000 0000
00000030: 0000 0000 0000 0000 0000 0000 0000 0000
00000040: 0000 0000 0000 0000 0000 0000 0000 0000
00000050: 0000 0000 0000 0000 0000 0000 0000 0000
00000060: 0000 0000 0000 0000 0000 0000 0000 0000
00000070: 0000 0000 0000 0000 0000 0000 0000 0000
00000080: 0000 0000 0000 0000 0000 0000 0000 0000
00000090: 0000 0000 0000 0000 0000 0000 0000 0000
000000a0: 0000 0000 0000 0000 0000 0000 0000 0000
000000b0: 0000 0000 0000 0000 0000 0000 0000 0000
000000c0: 0000 0000 0000 0000 0000 0000 0000 0000
000000d0: 0000 0000 0000 0000 0000 0000 0000 0000
000000e0: 0000 0000 0000 0000 0000 0000 0000 0000
000000f0: 0000 0000 0000 0000 0000 0000 0000 0000
00000100: 0000 0000 0000 0000 0000 0000 0000 0000
00000110: 0000 0000 0000 0000 0000 0000 0000 0000
00000120: 0000 0000 0000 0000 0000 0000 0000 0000
00000130: 0000 0000 0000 0000 0000 0000 0000 0000
00000140: 0000 0000 0000 0000 0000 0000 0000 0000
00000150: 0000 0000 0000 0000 0000 0000 0000 0000
00000160: 0000 0000 0000 0000 0000 0000 0000 0000
00000170: 0000 0000 0000 0000 0000 0000 0000 0000
00000180: 0000 0000 0000 0000 0000 0000 0000 0000
00000190: 0000 0000 0000 0000 0000 0000 0000 0000
000001a0: 0000 0000 0000 0000 0000 0000 0000 0000
000001b0: 0000 0000 0000 0000 0000 0000 0000 0000
000001c0: 0000 0000 0000 0000 0000 0000 0000 0000
000001d0: 0000 0000 0000 0000 0000 0000 0000 0000
000001e0: 0000 0000 0000 0000 0000 0000 0000 0000
000001f0: 0000 0000 0000 0000 0000 0000 0000 0000

network_body._body_endoder.seq_layers.2.weight f4 [128, 128]
-0.01936582 -0.033607047 0.11100569 -0.04577273 0.041073624 -0.030516118 0.06519868 -0.01734692
0.0008057437 -0.06185919 -0.013230649 -0.0077467277 0.023448348 -0.005246701 -0.0428294 -0.08081139
0.0011794169 -0.025599556 0.065360695 0.120790094 -0.06921181 -0.07557786 0.19699442 0.10544472
0.03671033 0.06188109 0.097279064 0.0042459033 -0.14459904 -0.087603986 0.04953582 0.06343807
0.109259434 0.07893234 0.05890262 -0.11202906 0.010252117 -0.05323828 -0.05544026 0.08181752
0.10727181 -0.13785484 -0.047479324 0.060974535 -0.056160826 0.08699778 0.040855788 0.04121617
0.061018758 0.10518989 0.14059113 0.025307506 -0.096233964 -0.006585356 -0.039521914 -0.040031794
0.03187504 -0.094355434 -0.045235865 -0.07650465 -0.028188992 0.041155938 0.03784532 0.09754113
0.065036625 -0.03498162 -0.004115295 0.06786638 0.0047571016 0.06514369 -0.019705785 -0.014720411
0.03258221 0.020022804 -0.030890428 0.12929378 0.06163666 -0.1373263 0.046245486 -0.104205236
0.034430914 -0.10070962 0.022897452 0.041991692 -0.061581142 0.03581588 -0.08397802 -0.07206798
0.03757474 0.059713118 0.008376265 0.04378161 0.009620597 -0.101363 0.0002959379 0.08058396
-0.05647671 0.028680379 0.13771573 0.007825608 0.0006001837 -0.013878937 -0.10144378 0.037065856
0.011903888 -0.08625947 -0.2672254 -0.010015229 -0.1312339 0.014878304 -0.0066789472 -0.07888244
-0.13547139 0.05817355 -0.14343174 0.048343513 -0.08481477 -0.059033945 -0.053027347 -0.013899621
0.027816208 -0.0018272796 -0.026175382 -0.035532486 0.07586588 0.047010247 -0.16325086 -0.13618928
0.0242151 -0.031179372 -0.1439495 -0.030745696 0.001790566 -0.124671996 0.027232822 -0.015160728
0.04012787 0.021898095 0.09521275 -0.039281525 0.08888128 0.16932705 -0.05430439 0.019077998
0.03226166 -0.011934426 -0.0066497847 0.028882755 -0.039503314 -0.11264259 0.10332293 -0.013575443
-0.20440099 -0.08075891 0.051601253 -0.013161092 0.02132561 -0.007702949 -0.1661088 0.1257698
0.07225046 -0.05295426 -0.0572827 -0.03888026 -0.07123976 0.17124385 0.058773816 0.08501749
-0.012805845 0.18234153 -0.09354931 0.0925999 0.035886765 0.080626585 -0.024393223 0.103064634
-0.068811804 -0.0053730984 0.11307746 0.09815692 -0.02425282 -0.024993034 0.110355094 -0.069049016
-0.021817317 -0.047344815 0.13370718 0.048255987 0.07372652 -0.029144613 0.018754052 -0.11974276
-0.039848343 0.06472834 0.07695209 0.05396337 0.058093157 0.044231057 -0.06630563 -0.11843798
-0.050334338 0.08589132 -0.15635076 -0.07987067 0.08722846 0.108173035 -0.06237701 -0.074385144
-0.028409146 -0.09735196 -0.11722213 0.09859478 -0.054476835 0.015665894 -0.12213672 -0.036349036
0.03493028 0.05191182 -0.07146176 -0.097170845 -0.16485573 0.09263026 -0.15815534 0.042329457
-0.09247637 0.15355177 0.01594261 0.049964003 -0.11600467 -0.094786786 -0.15613003 -0.11882283
0.084986046 -0.09117047 -0.03414368 -0.14981218 -0.061996866 -0.01131248 -0.055472605 -0.13005406
-0.07581873 -0.010198342 0.041641034 0.101916 -0.08005379 0.07464352 0.008879196 -0.09825208
-0.12805896 0.035267845 0.044872828 -0.00059102965 -0.046546053 -0.120508656 -0.010931729 -0.14142762
00000000: 11a5 9ebc 8ba7 09bd f456 e33d 307c 3bbd
00000010: d13c 283d f0fc f9bc e386 853d 211b 8ebc
00000020: 8b38 533a 1060 7dbd 5dc5 58bc 43d8 fdbb
00000030: c016 c03c 85ec abbb e26d 2fbd 7180 a5bd
00000040: aa96 9a3a 29b6 d1bc d4db 853d cc60 f73d
00000050: ecbe 8dbd 91c8 9abd e8b8 493e 67f3 d73d
00000060: 925d 163d 0777 7d3d 3f3a c73d 3821 8b3b
00000070: c511 14be b869 b3bd 12e6 4a3d d2eb 813d
00000080: 69c3 df3d 47a7 a13d e043 713d 7e6f e5bd
00000090: 7ff8 273c 6210 5abd 5315 63bd f28f a73d
000000a0: 53b1 db3d d229 0dbe ae79 42bd 6fc0 793d
000000b0: e508 66bd e42b b23d 6658 273d 49d2 283d
000000c0: ceee 793d cc6d d73d 1ff7 0f3e b051 cf3c
000000d0: 5016 c5bd f8c9 d7bb bbe1 21bd 61f8 23bd
000000e0: 678f 023d 6c3d c1bd 3e49 39bd 78ae 9cbd
000000f0: 9aec e6bc 2193 283d b203 1b3d a5c3 c73d
00000100: ec31 853d e348 0fbd 99d9 86bb 87fd 8a3d
00000110: 76e1 9b3b 0e6a 853d 076e a1bc e12d 71bc
00000120: ec74 053d dd06 a43c ec0d fdbc 9765 043e
00000130: b976 7c3d 449f 0cbe e86b 3d3d 8e69 d5bd
00000140: 6e07 0d3d d840 cebd 7093 bb3c 7bff 2b3d
00000150: 823c 7cbd acb3 123d abfc abbd 6198 93bd
00000160: f8e7 193d be95 743d 9a3c 093c 5854 333d
00000170: b59f 1d3c 6897 cfbd 1d28 9b39 3409 a53d
00000180: 1f54 67bd 1df3 ea3c 5a05 0d3e fb36 003c
00000190: a555 1d3a 7b64 63bc c2c1 cfbd 5ed2 173d
000001a0: 8608 433c cea8 b0bd c5d1 88be ea16 24bc
000001b0: 2e62 06be 21c4 733c 12db dabb 1e8d a1bd
000001c0: 03b9 0abe 6347 6e3d c5df 12be d903 463d
000001d0: 5eb3 adbd 94cd 71bd 3433 59bd 3cbb 63bc
000001e0: d1de e33c 5481 efba c16d d6bc 838a 11bd
000001f0: 925f 9b3d d18d 403d 3c2b 27be 3475 0bbe
00000200: bf5e c63c e26b ffbc 7f67 13be 66de fbbc
00000210: 6db1 ea3a 0854 ffbd 5e17 df3c b464 78bc
00000220: 1f5d 243d a263 b33c e7fe c23d aae5 20bd
00000230: 6307 b63d 1264 2d3e 486e 5ebd 7649 9c3c
00000240: cd24 043d 9c88 43bc 70e6 d9bb 879b ec3c
00000250: 3ace 21bd 29b1 e6bd f99a d33d 896b 5ebc
00000260: 7e4e 51be ed64 a5bd d65b 533d 9fa1 57bc
00000270: 0cb3 ae3c 0569 fcbb 6d18 2abe ccc9 003e
00000280: 0df8 933d 91e6 58bd 44a1 6abd e840 1fbd
00000290: 27e6 91bd 8c5a 2f3e d0bc 703d a61d ae3d
000002a0: 9bcf 51bc bdb7 3a3e c896 bfbd 04a5 bd3d
000002b0: 00fe 123d 8d1f a53d 4cd4 c7bc 8d13 d33d
000002c0: 34ed 8cbd d110 b0bb 2895 e73d 7f06 c93d
000002d0: daad c6bc 31be ccbc da01 e23d 9269 8dbd
000002e0: 3bba b2bc a3ec 41bd 89ea 083e 12a8 453d
000002f0: eefd 963d afc0 eebc 19a2 993c b13b f5bd
00000300: 0438 23bd 4b90 843d 0f99 9d3d b208 5d3d
00000310: 17f3 6d3d a02b 353d 3fcb 87bd 9d8f f2bd
00000320: 612b 4ebd cae7 af3d 6a1a 20be 3c93 a3bd
00000330: d6a4 b23d d389 dd3d 097f 7fbd 3d57 98bd
00000340: 4cba e8bc 7760 c7bd 2812 f0bd 0fec c93d
00000350: 1a23 5fbd c355 803c d122 fabd bae2 14bd
00000360: 0e13 0f3d 7da1 543d 8b5a 92bd 8201 c7bd
00000370: f1cf 28be efb4 bd3d 79f3 21be a761 2d3d
00000380: 4064 bdbd ad3c 1d3e 149a 823c 0ea7 4c3d
00000390: db93 edbd 931f c2bd 8de0 1fbe 6259 f3bd
000003a0: 2a0d ae3d 95b7 babd 3eda 0bbd 5d68 19be
000003b0: 6df0 7dbd fb57 39bc 3e37 63bd e42c 05be
000003c0: da46 9bbd f216 27bc ca8f 2a3d 56b9 d03d
000003d0: 3ef3 a3bd b4de 983d 0c7a 113c 6338 c9bd
000003e0: e321 03be 0475 103d 92cc 373d 54ef 1aba
000003f0: 13a7 3ebd 3ecd f6bd ff1a 33bc 67d2 10be
