results/FirstRunAnacondaTest/AgentSphereBehavior/checkpoint.pt (torch, 222623 bytes, 13 tensors)

network_body._body_endoder.seq_layers.0.weight f4 [128, 76]
000000 e9 31 57 3d 9a c0 5f 3c 4b ea cf bd e8 5d ae bd
       0.052537832 0.01365676 -0.1015211 -0.08514005
000010 07 5f 52 3e 0a e3 18 3e d9 a3 df 3d 53 0b be 3d
       0.20544063 0.14930359 0.10919923 0.09279504
000020 6a e9 38 be fa ff 1e bc bb 4c fd 3d 31 e7 19 3d
       -0.1805779 -0.009704584 0.12368151 0.037573997
000030 10 17 fa 3c b1 53 fa bd f2 c8 20 3e 46 0a b2 3d
       0.030528575 -0.12222994 0.15701655 0.08693366
000040 ef 9c b5 3d 3f a2 d1 3d 11 28 fd bd 87 27 89 3d
       0.08867823 0.10236024 -0.12361158 0.06696992
000050 b5 5c ae 3c e7 65 1f bc 38 17 7c be ed 8a 11 3d
       0.02128444 -0.009728885 -0.24618232 0.03553288
000060 5b 84 33 be 73 ed 04 3d d3 cc be 3d 8f 3e d8 3d
       -0.17530958 0.03245301 0.09316411 0.10558807
000070 78 0f 91 3d 78 2c f9 bc bd 84 dd bb 06 bd 0c 3e
       0.070830286 -0.030416712 -0.0067602084 0.13743982
000080 d4 a0 82 bc 60 00 16 3e 6c f1 4e 3c 33 76 4e 3d
       -0.01594583 0.1464858 0.012630802 0.050405692
000090 69 99 20 3d f9 3d dd bc 24 c7 69 bd de 50 5b 3e
       0.039208803 -0.02700709 -0.05707468 0.21417567
0000a0 ba dd db 3c ee 7c 5b bd e4 2b e1 3c ed 60 8b bc
       0.026839126 -0.05358594 0.027486749 -0.017013991
0000b0 ea b3 21 3e c5 d6 09 be bc 87 b1 bd e0 d5 ae 3e
       0.15791288 -0.13460834 -0.086684674 0.3414755
0000c0 5a bb 9e 3d 66 65 24 bd b7 7b 2c bd 47 4a 15 3c
       0.07750578 -0.040135764 -0.04211017 0.009111947
0000d0 d1 3b d6 bd b5 ba 9e bd a7 a1 da bc 22 b7 fe bd
       -0.10460628 -0.07750455 -0.02668841 -0.124372736
0000e0 de 96 ca bc 16 d2 1d 3e 26 72 84 3e 25 a6 16 be
       -0.024730142 0.15412173 0.25868338 -0.14711817
0000f0 63 31 99 bd 37 3e aa bd f4 f0 9b 3c 08 21 88 3d
       -0.07480123 -0.08312648 0.019035794 0.06646925
000100 32 bc 9e 3c f4 12 6a be ad aa 6a bc 61 1f 5d 3d
       0.019376848 -0.22858793 -0.014322919 0.053985003
000110 10 91 65 3c 3c 1b 9d 3d 41 ff 12 3e 81 a7 90 bd
       0.014011636 0.0767121 0.14355184 -0.07063199
000120 6d 6c 40 bd 75 ed c7 bd ea be 68 3d b9 7d 59 3b
       -0.046978403 -0.09762088 0.056822695 0.0033186509
000130 bf dc f0 3d 24 8c e8 3d 7e 9e 10 be d6 a1 53 be
       0.11760854 0.11354855 -0.1412296 -0.20667204
000140 11 43 1a 3e 51 cd 86 bd a4 3d e8 bd f4 0e 3a 3d
       0.15064646 -0.0658213 -0.11339882 0.045424417
000150 b6 9c fa 3d ea 46 1a bd e7 19 41 bd 0d 3d 9c bd
       0.122369215 -0.037665285 -0.047143843 -0.07628832
000160 09 af c1 3c 2d d8 21 bb a4 fb 51 bd 48 3e aa bd
       0.023643034 -0.0024695501 -0.051265374 -0.083126605
000170 82 c6 04 be 57 cf 8f 3d 55 4b 26 3e 72 80 8a be
       -0.1296635 0.07021969 0.16239674 -0.2705112
000180 b6 df 22 be d0 a5 89 3d 20 b1 84 bc df 0a 12 3e
       -0.15905651 0.06721079 -0.016197741 0.1426196
000190 66 3f dd bc 37 7d 4c 3e 9a 7c 97 3d b2 c1 4e 3d
       -0.02700777 0.1996964 0.07396813 0.05047769
0001a0 b1 19 c0 3d 85 cc 84 3d fe 4a df 3d 93 d8 f8 bd
       0.093799 0.064843215 0.109029755 -0.12150683
0001b0 9e 7b c4 3c ef af c0 3d 54 cf cc 3d a5 98 67 3e
       0.023984727 0.09408557 0.10000482 0.22616823
0001c0 94 4e 8c 3d 5a 2b 88 bd 45 b0 22 3e 24 cd 51 3e
       0.06850925 -0.06648894 0.15887554 0.20488411
0001d0 d7 30 0d be 10 b6 ec 3d 44 da 9d 3c f5 08 00 3e
       -0.13788162 0.11558163 0.019269116 0.12503417
0001e0 77 59 bf 3c 1f fd 1d 3d 7a c9 80 3d 31 6a 29 3d
       0.02335809 0.038571473 0.062884286 0.041361038
0001f0 04 74 c5 bd 01 ca 22 be 4a 5c b6 bd e4 61 14 bd
       -0.09641269 -0.15897371 -0.089043215 -0.03622617
000200 f9 18 51 bd 0d 6b 16 3d e9 f9 28 3e 45 5c 81 3b
       -0.051049206 0.036723185 0.16501583 0.003947767
000210 20 6d 8d bd a7 e4 72 be cf 72 c7 bd df f5 31 3e
       -0.069055796 -0.23720036 -0.09738695 0.17378949
000220 c1 8e de bd 45 65 01 bc cc 15 9c bd 69 8b 2a 3e
       -0.10867072 -0.00789768 -0.07621345 0.16654743
000230 46 84 09 3e 08 aa dd bd 50 76 8e be a4 45 1c bc
       0.13429365 -0.108234465 -0.2782464 -0.009538088
000240 24 79 4d 3b 1c 8e ba 3c a8 0e 2d be c6 f7 a5 bd
       0.0031352723 0.022772841 -0.16900122 -0.081039
000250 da 21 1c 3e d5 a8 21 be 14 05 30 bd a5 6e 2d 3e
       0.15247288 -0.1578706 -0.042973593 0.16936739
000260 12 0e 52 3d e5 25 59 bd 6f 5a 4a 3e af 72 5b 3e
       0.05128295 -0.053014655 0.1976106 0.21430467
000270 46 3d c8 3d bd c1 8a 3d e7 b4 3c be 1d c5 4c 3e
       0.09777312 0.06775234 -0.18428384 0.19997068
000280 f2 94 25 bd 0b 2b a6 3d e2 37 30 3e a4 94 53 3d
       -0.04042525 0.081136785 0.17208818 0.051655427
000290 1a 39 69 be dc bb 56 bd ca 66 35 bc d3 e0 36 3c
       -0.22775689 -0.05242525 -0.01107187 0.011162001
0002a0 87 13 ee bc e8 f3 b3 3c 57 ff 0a be 56 32 1b 3e
       -0.029062046 0.02196689 -0.13573967 0.1515592
0002b0 bd 62 35 bd f9 e2 84 bc 94 23 00 3b 00 0c 00 3e
       -0.044283617 -0.01622151 0.0019552456 0.12504578
0002c0 12 39 74 be c2 1c d5 3d ae e7 84 bd fb 37 3b be
       -0.23849896 0.10405876 -0.06489502 -0.18283074
0002d0 10 01 27 3e 27 ad dd bd 16 10 0d 3e db 54 82 3c
       0.16308999 -0.10824042 0.13775668 0.015909603
0002e0 08 3d 5f 3e 55 ee 16 bd a7 37 4b 3d f3 c5 03 3e
       0.21800625 -0.036848385 0.04961362 0.1286848
0002f0 c9 bc a5 be c6 7c cd 3d f4 e3 58 bd dc 07 86 bb
       -0.32370594 0.10033564 -0.052951768 -0.0040902924
000300 54 19 da bc 69 18 19 3e b7 4f cd bd 28 07 ff bc
       -0.026623406 0.14950718 -0.1002497 -0.031131342
000310 8d 7c 2e 3e 00 0c 8c 3e 69 d3 73 bd 54 2e a5 3e
       0.170397 0.27352905 -0.05952779 0.32261908
000320 eb 12 3b 3e 6f 7a 84 be aa 25 ae 3e 6f 7e 01 3d
       0.18268935 -0.2587466 0.3401311 0.031614717
000330 d2 70 bc bd 02 71 3f be 72 dc 25 be 35 e2 63 3d
       -0.09201206 -0.18695453 -0.16197374 0.05563565
000340 00 c8 34 3d 47 4b d0 bc fd a5 f0 3b 80 b9 38 3d
       0.044136047 -0.02542652 0.007344006 0.04509878
000350 5c e0 07 be ab 8f 35 bd 6a c8 fa 3c a1 5b 9e 3d
       -0.1326918 -0.044326466 0.030613143 0.077323206
000360 39 93 10 3d c5 8f 4e 3d 98 3c db bd 18 7f 18 be
       0.035296652 0.050430078 -0.10704917 -0.14892232
000370 36 f9 bf bd 61 c1 bb 3d 69 18 f8 3d 8b 56 39 be
       -0.09373705 0.091677435 0.12114031 -0.1809942
000380 12 61 ae 3d 8a e9 33 3d 45 58 0a bd a3 cf 8f bd
       0.085146084 0.043923892 -0.033775587 -0.070220254
000390 58 ac 02 3e a2 ea 37 be 7f ee 8d 3d ca 3b 93 bd
       0.12761056 -0.17960599 0.06930255 -0.07189138
0003a0 41 6c 53 bd 25 ac 6b bd dd be 19 be 35 74 1c 3e
       -0.05161691 -0.057537217 -0.15014215 0.15278704
0003b0 b3 52 0b bd 57 66 6f 3d 8a c1 69 3d e8 04 15 3e
       -0.034014415 0.05844721 0.05706934 0.14552653
0003c0 5a 42 e5 bd cb 7f 5b be b6 c5 55 3d ce 5e 2d be
       -0.11194296 -0.21435468 0.052190505 -0.16930696
0003d0 36 f7 8a bd 09 da 28 3b 88 83 93 bd 74 a6 93 be
       -0.06785433 0.0025764725 -0.07202822 -0.2883793
0003e0 ac 81 0a be d3 72 d2 bd 55 ec 9a 3d 20 f8 81 3d
       -0.13526028 -0.10275807 0.07564608 0.06346154
0003f0 5d c4 a2 3d 97 dc 80 bd 33 95 c2 bd 69 da de bd
       0.079476096 -0.06292074 -0.09501114 -0.10881502

network_body._body_endoder.seq_layers.0.bias f4 [128]
000000 00 00 00 00 00 00 00 00 00 00 00 00 00 00 00 00
       0.0 0.0 0.0 0.0
000010 00 00 00 00 00 00 00 00 00 00 00 00 00 00 00 00
       0.0 0.0 0.0 0.0
000020 00 00 00 00 00 00 00 00 00 00 00 00 00 00 00 00
       0.0 0.0 0.0 0.0
000030 00 00 00 00 00 00 00 00 00 00 00 00 00 00 00 00
       0.0 0.0 0.0 0.0
000040 00 00 00 00 00 00 00 00 00 00 00 00 00 00 00 00
       0.0 0.0 0.0 0.0
000050 00 00 00 00 00 00 00 00 00 00 00 00 00 00 00 00
       0.0 0.0 0.0 0.0
000060 00 00 00 00 00 00 00 00 00 00 00 00 00 00 00 00
       0.0 0.0 0.0 0.0
000070 00 00 00 00 00 00 00 00 00 00 00 00 00 00 00 00
       0.0 0.0 0.0 0.0
000080 00 00 00 00 00 00 00 00 00 00 00 00 00 00 00 00
       0.0 0.0 0.0 0.0
000090 00 00 00 00 00 00 00 00 00 00 00 00 00 00 00 00
       0.0 0.0 0.0 0.0
0000a0 00 00 00 00 00 00 00 00 00 00 00 00 00 00 00 00
       0.0 0.0 0.0 0.0
0000b0 00 00 00 00 00 00 00 00 00 00 00 00 00 00 00 00
       0.0 0.0 0.0 0.0
0000c0 00 00 00 00 00 00 00 00 00 00 00 00 00 00 00 00
       0.0 0.0 0.0 0.0
0000d0 00 00 00 00 00 00 00 00 00 00 00 00 00 00 00 00
       0.0 0.0 0.0 0.0
0000e0 00 00 00 00 00 00 00 00 00 00 00 00 00 00 00 00
       0.0 0.0 0.0 0.0
0000f0 00 00 00 00 00 00 00 00 00 00 00 00 00 00 00 00
       0.0 0.0 0.0 0.0
000100 00 00 00 00 00 00 00 00 00 00 00 00 00 00 00 00
       0.0 0.0 0.0 0.0
000110 00 00 00 00 00 00 00 00 00 00 00 00 00 00 00 00
       0.0 0.0 0.0 0.0
000120 00 00 00 00 00 00 00 00 00 00 00 00 00 00 00 00
       0.0 0.0 0.0 0.0
000130 00 00 00 00 00 00 00 00 00 00 00 00 00 00 00 00
       0.0 0.0 0.0 0.0
000140 00 00 00 00 00 00 00 00 00 00 00 00 00 00 00 00
       0.0 0.0 0.0 0.0
000150 00 00 00 00 00 00 00 00 00 00 00 00 00 00 00 00
       0.0 0.0 0.0 0.0
000160 00 00 00 00 00 00 00 00 00 00 00 00 00 00 00 00
       0.0 0.0 0.0 0.0
000170 00 00 00 00 00 00 00 00 00 00 00 00 00 00 00 00
       0.0 0.0 0.0 0.0
000180 00 00 00 00 00 00 00 00 00 00 00 00 00 00 00 00
       0.0 0.0 0.0 0.0
000190 00 00 00 00 00 00 00 00 00 00 00 00 00 00 00 00
       0.0 0.0 0.0 0.0
0001a0 00 00 00 00 00 00 00 00 00 00 00 00 00 00 00 00
       0.0 0.0 0.0 0.0
0001b0 00 00 00 00 00 00 00 00 00 00 00 00 00 00 00 00
       0.0 0.0 0.0 0.0
0001c0 00 00 00 00 00 00 00 00 00 00 00 00 00 00 00 00
       0.0 0.0 0.0 0.0
0001d0 00 00 00 00 00 00 00 00 00 00 00 00 00 00 00 00
       0.0 0.0 0.0 0.0
0001e0 00 00 00 00 00 00 00 00 00 00 00 00 00 00 00 00
       0.0 0.0 0.0 0.0
0001f0 00 00 00 00 00 00 00 00 00 00 00 00 00 00 00 00
       0.0 0.0 0.0 0.0

network_body._body_endoder.seq_layers.2.weight f4 [128, 128]
000000 d7 f4 a2 3d d0 54 a0 3c bd dc a8 bd 89 28 58 bd
       0.07956856 0.019571692 -0.082452275 -0.052773032
000010 5e 74 e9 bc 2e ad 7f 3d d1 4a 1f be af 64 c2 3d
       -0.028497871 0.062421016 -0.15555884 0.0949186
000020 c4 97 94 3d 7b 5c 86 3d 15 a5 b5 bd 18 dd 2c 3d
       0.072555095 0.06560608 -0.088693775 0.04220304
000030 82 24 40 bd 28 9a 36 bd a5 ef b7 3d e9 e9 60 3d
       -0.046909817 -0.04458061 0.089812554 0.054910574
000040 2d 56 c7 39 16 32 12 be 3d a6 e6 bd 1b 35 c8 bc
       0.00038020444 -0.14276919 -0.11262176 -0.024439385
000050 43 c7 ad bd f7 d1 ac 3d 70 90 46 3d f4 5f 8f bd
       -0.08485272 0.08438485 0.04847759 -0.070007235
000060 4d a7 ea bd 40 f1 cd 3d 26 be e8 bb 49 5f fd 3c
       -0.11457691 0.100557804 -0.0071027456 0.030929225
000070 e1 d1 55 3d aa e8 59 b9 fc b0 ca 3d 21 61 f2 bd
       0.05220211 -0.00020781407 0.09897038 -0.11834932
000080 12 1a 9c 3d 5f 9f 8c bc 75 75 e1 3d 8c 48 d2 3c
       0.0762216 -0.017165838 0.11008731 0.025669359
000090 4e 9f 9d bc 0b 68 dd bd 5e 79 8c 3d ec b9 e5 bd
       -0.019241001 -0.1081086 0.068590865 -0.112171024
0000a0 4c 10 a6 bd 59 30 0d be 64 0e 1c bd bc a2 3a be
       -0.08108577 -0.13787974 -0.03809966 -0.1822614
0000b0 e9 47 c9 bd 8a 35 7a 3d 69 c0 3d be af 9a 75 3c
       -0.09828169 0.061086215 -0.1853043 0.014990493
0000c0 15 21 1d 3d 1d b8 4f bb 8c 16 db bc 29 39 61 3d
       0.038361628 -0.0031695433 -0.02674415 0.054986153
0000d0 6b c7 66 bc 11 45 ee bd d8 f4 85 3d 4f b2 69 bc
       -0.014085631 -0.11634267 0.06540841 -0.0142637035
0000e0 06 3f fb 3d 0a f6 a5 bd ad 05 f7 3d 32 6a 9c bd
       0.1226788 -0.08103569 0.120616294 -0.07637443
0000f0 7c 73 87 3c 00 4b d1 3d f1 48 06 bd 5a be a9 bd
       0.01653456 0.10219383 -0.032784406 -0.0828826
000100 96 a3 a9 bb a5 e9 80 be 57 c5 18 3d 59 9f 1e 3e
       -0.0051769717 -0.25178257 0.037297573 0.15490474
000110 e2 0e 95 bc 0e e6 1a 3e e4 56 72 3d 43 6c aa 3d
       -0.018195573 0.15126821 0.059164897 0.083214305
000120 0a f2 c2 3c 51 85 c4 bc cf f7 b9 bc e9 a4 14 3e
       0.023797054 -0.023989351 -0.022701172 0.14516033
000130 bd b7 0a 3d c4 cb 4f 3d 8f 9f 83 3d 45 64 01 3c
       0.033866633 0.050731435 0.06426918 0.007897441
000140 20 30 44 bd ed b4 e1 3c b9 3e c7 3c 13 d1 32 3e
       -0.047897458 0.027552092 0.0243219 0.17462568
000150 f3 91 a0 bd 1a 8d 4e bd 65 e2 35 be 30 22 33 bd
       -0.078403376 -0.050427534 -0.17762144 -0.043733776
000160 46 6b ec 3d c5 1a b9 3d 85 31 b0 3c 2c d2 29 3e
       0.11543898 0.09038309 0.021507988 0.1658408
000170 2e 5a 10 3e ac 17 d0 bc b5 9b c4 3b ea d8 d2 bc
       0.14096901 -0.025401913 0.006000007 -0.025738198
000180 70 6a 0d 3e 7b 69 09 bd b5 37 01 3c ce 0a ec bc
       0.13810134 -0.03354786 0.007886817 -0.028813746
000190 eb 06 bf 3d d2 82 c7 bd 8f 17 46 3d b9 45 b8 bb
       0.093274914 -0.09741749 0.04836231 -0.005623546
0001a0 36 00 f3 bc ee ef 4f 3c fe 3a 89 bd dc 5b d3 3c
       -0.029663187 0.012691481 -0.06700705 0.025800638
0001b0 95 9a 93 3c c5 b4 4e 3e d1 34 de 3d c0 6c cc bd
       0.018018046 0.20186146 0.10849918 -0.0998168
0001c0 39 84 90 3d d4 f3 d4 3c 19 cf 55 bd d2 1a bb 3c
       0.070564695 0.025995173 -0.052199457 0.022839937
0001d0 54 2d 0e bc c2 29 63 3e 10 48 4a bd 60 e8 e2 3d
       -0.008677799 0.22183898 -0.04938513 0.11079478
0001e0 c7 62 ab 3d f4 b1 44 bc 27 9b 80 3c 62 98 09 3d
       0.0836845 -0.012005318 0.015698982 0.03359259
0001f0 e6 2e 5b 3d 45 76 ca bc f2 e2 1e 3d 16 a6 9a 3d
       0.053511523 -0.024714598 0.03879065 0.0755121
000200 05 e6 29 3c e5 18 e8 3c 14 d0 0a 3d b3 b0 b4 3d
       0.010369782 0.028332183 0.033889845 0.08822765
000210 fc f1 46 bd be d6 0f 3e 7e 1e 2d 3c 0a 99 1f 3e
       -0.048570618 0.14046761 0.010566352 0.15585724
000220 da eb ad 3d 18 ec 07 bd 8a 12 e5 3c d0 d2 1a b9
       0.08492251 -0.03318414 0.027962942 -0.00014765118
000230 6d 73 ad bd 1c f1 0e 3b bf 51 ca 3d 1c dd 3e bc
       -0.08469281 0.0021811193 0.09878873 -0.011649396
000240 99 72 85 bd 35 6e d6 3c 52 60 85 bd 61 20 50 3d
       -0.065159984 0.026175598 -0.06512512 0.05081213
000250 89 da 9f bd 68 9c 43 bd cb ff 9d 3b 54 74 8c 3d
       -0.07805354 -0.047756582 0.0048217527 0.06858125
000260 21 65 e8 bd 71 b6 ad 3d 39 59 cf bb 7d c6 a9 bb
       -0.11347414 0.084820636 -0.006327775 -0.0051811324
000270 9f 56 33 be 33 11 87 3d ab f5 83 3d ad cc eb bd
       -0.17513512 0.06595077 0.06443342 -0.11513648
000280 0d 5f dd 3d a6 3f ca bd b5 53 98 bd 96 0b ce 3c
       0.10809145 -0.09875421 -0.07437841 0.025152009
000290 c1 29 00 bd e4 7e 4b 3e c7 86 42 3e cf 12 5d be
       -0.03128982 0.19872624 0.18996726 -0.21589206
0002a0 0a bc 28 bd e6 1b bb 3d ab 3f 81 bd bc e7 e6 bc
       -0.041194953 0.091361806 -0.06310972 -0.028186671
0002b0 34 42 91 3b 9b 4e 25 be 72 7f a8 bc a6 7b 06 bd
       0.004432941 -0.16143267 -0.020568583 -0.032832764
0002c0 b8 51 0a be 4b d3 60 3d f3 09 8d be 34 b7 15 be
       -0.13507736 0.054889005 -0.27546653 -0.14620668
0002d0 4c 1d 3a 3c 10 d8 26 3e d0 ee 56 3d ab 16 60 bd
       0.011359524 0.16293359 0.052473843 -0.054709118
0002e0 58 a5 39 3d 88 df 31 3d 55 bf ca bc 0d 26 06 3e
       0.0453237 0.043426067 -0.024749437 0.13100453
0002f0 5f 76 e3 3d 2b 3a 15 3d 40 ae 8f bd 1e 51 a0 bc
       0.11106562 0.036432426 -0.070156574 -0.01956993
000300 25 46 6d bc 01 a1 3a be 2f 23 45 bc 00 67 13 bd
       -0.014482056 -0.1822548 -0.012032314 -0.0359869
000310 cf d0 03 bd 3c 50 b7 bd d1 33 48 3d 28 6a 98 3d
       -0.032181557 -0.0895085 0.04887754 0.07442123
000320 68 85 62 3d dc 44 ca bc 37 c8 21 3e 2a d8 21 3e
       0.055303007 -0.024691038 0.15799032 0.15805116
000330 45 07 01 3e 62 58 8f 3d e1 21 ab bd 9f e6 14 3b
       0.1260043 0.069992796 -0.08356071 0.0022720469
000340 e8 07 07 3b b9 f8 4a 3d 90 05 31 3d cd 08 01 bc
       0.0020604078 0.049553607 0.043218195 -0.007875633
000350 fc 29 e3 bd 9b f0 a2 bb 66 3f 93 3d e6 1d be bb
       -0.11091992 -0.00497253 0.07189827 -0.005801904
000360 c3 94 04 3e 66 40 b1 bd aa 78 f1 bd 62 40 0d bd
       0.12947373 -0.08654861 -0.11790593 -0.03448523
000370 be e9 f0 3d 19 0c 03 3e e1 20 df 3b a4 9a 78 bd
       0.11763333 0.12797584 0.0068093394 -0.06069435
000380 fe fd e4 bc 2d bd 29 bd 79 be b0 bd 40 ae 68 3d
       -0.027953144 -0.041440178 -0.0863008 0.056806803
000390 ef e6 d7 3d 37 d0 86 3d 85 6c 8d bc ff af af bc
       0.10542094 0.065826826 -0.01726366 -0.021446226
0003a0 36 38 b0 bd 90 8e 11 3d 95 22 31 bd 3a 5e 6d 3c
       -0.086044714 0.03553635 -0.04324587 0.014487797
0003b0 0c 93 10 3e 59 e6 82 3c ff 14 4b be 17 8e ce bd
       0.14118594 0.015978979 -0.19832228 -0.10085695
0003c0 7b 29 6d 3c 5c a0 e2 3d 69 06 4f bd 73 ff 97 3d
       0.014475222 0.110657424 -0.050543223 0.0742177
0003d0 92 32 cd bc e3 2d e6 bb 29 8d 00 be cd 15 38 3d
       -0.025048528 -0.007024513 -0.12553848 0.044942666
0003e0 47 00 12 bd f6 d7 4f bd 11 ab 0d be 29 a2 ca 3d
       -0.035644796 -0.050743066 -0.13834788 0.09894211
0003f0 bf a7 e5 3c 69 e8 cc bd 16 a6 0b be 63 9a 47 3d
       0.02803409 -0.10005266 -0.13637576 0.04873122

network_body._body_endoder.seq_layers.2.bias f4 [128]
000000 00 00 00 00 00 00 00 00 00 00 00 00 00 00 00 00
       0.0 0.0 0.0 0.0
000010 00 00 00 00 00 00 00 00 00 00 00 00 00 00 00 00
       0.0 0.0 0.0 0.0
000020 00 00 00 00 00 00 00 00 00 00 00 00 00 00 00 00
       0.0 0.0 0.0 0.0
000030 00 00 00 00 00 00 00 00 00 00 00 00 00 00 00 00
       0.0 0.0 0.0 0.0
000040 00 00 00 00 00 00 00 00 00 00 00 00 00 00 00 00
       0.0 0.0 0.0 0.0
000050 00 00 00 00 00 00 00 00 00 00 00 00 00 00 00 00
       0.0 0.0 0.0 0.0
000060 00 00 00 00 00 00 00 00 00 00 00 00 00 00 00 00
       0.0 0.0 0.0 0.0
000070 00 00 00 00 00 00 00 00 00 00 00 00 00 00 00 00
       0.0 0.0 0.0 0.0
000080 00 00 00 00 00 00 00 00 00 00 00 00 00 00 00 00
       0.0 0.0 0.0 0.0
000090 00 00 00 00 00 00 00 00 00 00 00 00 00 00 00 00
       0.0 0.0 0.0 0.0
0000a0 00 00 00 00 00 00 00 00 00 00 00 00 00 00 00 00
       0.0 0.0 0.0 0.0
0000b0 00 00 00 00 00 00 00 00 00 00 00 00 00 00 00 00
       0.0 0.0 0.0 0.0
0000c0 00 00 00 00 00 00 00 00 00 00 00 00 00 00 00 00
       0.0 0.0 0.0 0.0
0000d0 00 00 00 00 00 00 00 00 00 00 00 00 00 00 00 00
       0.0 0.0 0.0 0.0
0000e0 00 00 00 00 00 00 00 00 00 00 00 00 00 00 00 00
       0.0 0.0 0.0 0.0
0000f0 00 00 00 00 00 00 00 00 00 00 00 00 00 00 00 00
       0.0 0.0 0.0 0.0
000100 00 00 00 00 00 00 00 00 00 00 00 00 00 00 00 00
       0.0 0.0 0.0 0.0
000110 00 00 00 00 00 00 00 00 00 00 00 00 00 00 00 00
       0.0 0.0 0.0 0.0
000120 00 00 00 00 00 00 00 00 00 00 00 00 00 00 00 00
       0.0 0.0 0.0 0.0
000130 00 00 00 00 00 00 00 00 00 00 00 00 00 00 00 00
       0.0 0.0 0.0 0.0
000140 00 00 00 00 00 00 00 00 00 00 00 00 00 00 00 00
       0.0 0.0 0.0 0.0
000150 00 00 00 00 00 00 00 00 00 00 00 00 00 00 00 00
       0.0 0.0 0.0 0.0
000160 00 00 00 00 00 00 00 00 00 00 00 00 00 00 00 00
       0.0 0.0 0.0 0.0
000170 00 00 00 00 00 00 00 00 00 00 00 00 00 00 00 00
       0.0 0.0 0.0 0.0
000180 00 00 00 00 00 00 00 00 00 00 00 00 00 00 00 00
       0.0 0.0 0.0 0.0
000190 00 00 00 00 00 00 00 00 00 00 00 00 00 00 00 00
       0.0 0.0 0.0 0.0
0001a0 00 00 00 00 00 00 00 00 00 00 00 00 00 00 00 00
       0.0 0.0 0.0 0.0
0001b0 00 00 00 00 00 00 00 00 00 00 00 00 00 00 00 00
       0.0 0.0 0.0 0.0
0001c0 00 00 00 00 00 00 00 00 00 00 00 00 00 00 00 00
       0.0 0.0 0.0 0.0
0001d0 00 00 00 00 00 00 00 00 00 00 00 00 00 00 00 00
       0.0 0.0 0.0 0.0
0001e0 00 00 00 00 00 00 00 00 00 00 00 00 00 00 00 00
       0.0 0.0 0.0 0.0
0001f0 00 00 00 00 00 00 00 00 00 00 00 00 00 00 00 00
       0.0 0.0 0.0 0.0

action_model._continuous_distribution.log_sigma f4 [1, 2]
000000 00 00 00 00 00 00 00 00
       0.0 0.0

action_model._continuous_distribution.mu.weight f4 [2, 128]
000000 e9 66 17 3b 43 76 52 bc 92 24 27 bc 4d 78 67 3b
       0.002310211 -0.012845579 -0.01020159 0.0035319508
000010 60 01 0b 3c 41 73 07 3d d1 bd c7 bc 85 71 ef bb
       0.008484215 0.0330689 -0.024382504 -0.0073072338
000020 be 97 b0 3c 2c 40 c2 3b 29 5a 8d 3c ba 99 2f bc
       0.021556731 0.00592806 0.017254906 -0.010717804
000030 79 61 28 3c 51 e4 23 bc ff 52 bf bb 0e 89 00 3b
       0.010277146 -0.010003165 -0.0058387513 0.001961294
000040 81 12 81 3c 88 7b 9b 38 88 49 05 bb d7 90 93 3b
       0.015755894 7.4139854e-05 -0.0020338017 0.0045033502
000050 52 35 11 bc 4a 94 4e bc af 86 11 3c 1b 91 17 3c
       -0.00886281 -0.012608597 0.008882209 0.009250904
000060 fb 3d b4 3c 53 e5 2e 3c a0 32 fb bc 8d d5 ed bc
       0.02200221 0.010674792 -0.030663788 -0.029032493
000070 32 b9 91 bc c7 22 ed bb 9d 4c 71 3c f9 4c 3f bc
       -0.017788503 -0.007236812 0.014727739 -0.011676067
000080 88 3e 7a bc c2 f9 ac ba 13 16 a3 3c 74 d6 27 3a
       -0.015273698 -0.0013196992 0.019907987 0.00064025004
000090 78 8b 56 bc c5 99 51 bb 1b 01 fa 3c c9 84 89 3b
       -0.013094775 -0.0031982523 0.030518105 0.0041967374
0000a0 77 c6 84 3c ef a8 4f 3b 36 73 8c bb 10 ff 3a 3c
       0.016207917 0.0031686386 -0.004286195 0.011413351
0000b0 bf d1 de 3c 6f de 6c bc cd 70 ff bb 32 02 29 bd
       0.027199624 -0.014457329 -0.0077954293 -0.04126186
0000c0 f5 c0 8f bb 9b cc 59 bc cd bb f0 3a 4f 3e 14 bc
       -0.004387016 -0.013293411 0.0018366516 -0.009048059
0000d0 6b 97 28 bc d8 c6 72 3b c5 d7 c1 bb 6b d6 ab bc
       -0.010290007 0.003704479 -0.0059156143 -0.020976266
0000e0 a7 24 c6 3b e9 f7 87 bb 2a 39 ee bb bb 8a 00 bd
       0.00604685 -0.0041494262 -0.007269998 -0.031382304
0000f0 ca fd 17 bc e0 7b 7d bc 37 e8 f8 3c 14 6f 1a bd
       -0.009276817 -0.015471429 0.030384166 -0.03770359
000100 e8 fc 6d bc 3b dc 2b 3c ac e8 91 3a f3 29 1f bc
       -0.01452563 0.010489519 0.0011131964 -0.009714591
000110 f7 30 05 bd 4b 20 b2 bc 18 88 60 3c 73 6e 1e bc
       -0.0325174 -0.021743914 0.013704322 -0.009669888
000120 9b 8f 08 bd 0b ae 45 3c 73 af 81 3c ff d6 c3 b9
       -0.033340078 0.012065421 0.015830731 -0.00037353483
000130 be 65 38 bc 33 91 0c bc a0 f0 da 3c 54 79 90 3c
       -0.011254726 -0.00857954 0.026726067 0.017635979
000140 ab 4a cb bb 28 19 15 bc fd 13 11 bb 26 90 08 bc
       -0.0062039695 -0.009100236 -0.0022137158 -0.008335149
000150 f9 0f 98 bb 3b bf f9 bb 67 8f 6a 3c aa 29 35 3b
       -0.004640576 -0.0076216734 0.014316416 0.0027643242
000160 e8 bf fa 39 eb b9 df b9 1d a9 59 bc a7 f5 8a bb
       0.00047826697 -0.00042672394 -0.013284949 -0.00424071
000170 43 46 f3 3c b7 3a 78 3b 03 15 cc 3c 62 52 c5 3c
       0.02969659 0.0037876794 0.024912363 0.024087135
000180 33 68 1a bc de 5b a0 3c 4a dd 98 3c eb ff a0 bc
       -0.009424257 0.019575056 0.018660206 -0.019653281
000190 47 e8 2c 3b 1b b3 a3 bc 2d a1 53 bc 83 96 2b 3b
       0.0026383565 -0.019982865 -0.012916845 0.0026182241
0001a0 8b e6 e2 bb 80 b8 d8 bb 52 0c 6f 3c a5 9f 6a bc
       -0.0069244555 -0.006613791 0.01459034 -0.014320289
0001b0 0f 14 d8 3b 6f a0 03 3d 72 33 43 bc dd d5 2d bc
       0.006594188 0.032135423 -0.011914121 -0.010610071
0001c0 2f 36 39 3c cf 58 e9 bc df 72 97 bb e7 5a 96 bb
       0.011304422 -0.02848473 -0.004621848 -0.004588473
0001d0 af 79 4a 3a cd ff 82 bb 4b 33 33 3b f3 b6 54 3c
       0.0007723821 -0.003997779 0.0027343805 0.012983072
0001e0 bb 9c 23 bd 33 f8 2f 3b e4 52 87 3c 20 5d b9 bc
       -0.03994439 0.002685082 0.016519018 -0.022627413
0001f0 43 38 cc 3c 67 dc d3 3b d2 02 6e 3c f5 19 5c bb
       0.024929171 0.006465483 0.01452704 -0.0033584808
000200 e8 25 6b 3c 9d 8e 73 bc e0 ec bd bb c2 bb b8 bc
       0.014352299 -0.014865545 -0.00579606 -0.022550467
000210 90 c1 a4 3c b7 06 26 3c 18 57 77 bc 3a fc b9 bc
       0.020111829 0.010133437 -0.015096448 -0.022703279
000220 75 91 9a bc d4 36 29 3c 01 d5 2a 3d 5f ca 34 bc
       -0.018868187 0.010328013 0.041707043 -0.011034577
000230 e9 ee 00 bd d1 41 13 bc 23 1a 90 bb 10 52 1c b8
       -0.031477842 -0.00898786 -0.004397647 -3.7269725e-05
000240 ae 09 09 bc c3 07 46 bc 95 41 d1 3c 80 af 50 bc
       -0.008364124 -0.0120868115 0.025543967 -0.012737155
000250 2f e3 a1 3c 5c 79 09 bd 2b 55 26 b9 2c 6f c3 3c
       0.01976165 -0.033563003 -0.00015862721 0.023856722
000260 81 4a ca bc b2 ca 14 3d 92 b6 f3 3a a7 be 15 3c
       -0.02469373 0.036326118 0.0018593839 0.009139693
000270 cb bd da 3c 10 88 e9 3b 05 27 9e bb f9 74 bc 3c
       0.026701828 0.0071268156 -0.004826429 0.023004996
000280 32 70 03 3d 73 78 ce bc fe a5 8c bc f6 88 08 3c
       0.03208942 -0.025203919 -0.017168995 0.008333435
000290 3d e7 d1 ba 5f 81 2d bd 15 7b 13 bc d2 fe d2 bc
       -0.0016014349 -0.042359706 -0.009001513 -0.025756273
0002a0 ab 62 c0 3a 65 58 6d 3b de 37 09 3d 2a 7c 35 3c
       0.0014677843 0.0036216017 0.033500545 0.011076966
0002b0 2f 13 86 3c 15 7f 0e bd e8 2f 49 3c 37 36 82 bb
       0.01636657 -0.034789164 0.012279488 -0.003973748
0002c0 a3 06 5c 3c ea 12 63 bb e3 b8 05 3c 34 3c 82 bc
       0.013429317 -0.0034648725 0.008161756 -0.015897848
0002d0 3b 2a 15 3d 54 19 ad bc 50 2c 96 bc 89 a4 c5 3c
       0.036417227 -0.021130241 -0.018331677 0.024126308
0002e0 f8 ad 4b 3c 81 00 2c bb c6 4f 3c 39 7a 83 cb 3c
       0.012431614 -0.0026245418 0.00017958795 0.024842966
0002f0 84 b8 30 3c 0e 1f b8 3c 37 0a 04 bc f3 6b 06 bc
       0.010786179 0.022475746 -0.008059076 -0.008204448
000300 1f 13 69 bd ab f2 39 3c 67 98 ba 3b 81 73 a8 3c
       -0.056903 0.01134936 0.0056944373 0.020562889
000310 cb 33 91 3b 3b 45 d0 3c 37 49 11 bc 60 87 f4 3c
       0.004431223 0.025423637 -0.008867553 0.029849708
000320 32 77 12 3c 10 92 eb 3c 0a 65 fc bb 3a a4 57 bb
       0.008939551 0.028756171 -0.0077024745 -0.0032904283
000330 40 d5 2a bc e8 8c 43 3c 83 2b 8f 3b 45 d2 39 3b
       -0.010426819 0.01193545 0.0043692007 0.002835409
000340 f6 15 40 3b f1 38 3e 3c 36 71 c6 3b a3 1d 7b bb
       0.0029309965 0.011610256 0.0060559763 -0.0038317225
000350 19 62 0b 3c 2d 8a 6e bc 07 5a b9 bb 57 fc 8c 3c
       0.008507275 -0.014559311 -0.005656484 0.017210169
000360 72 09 6f bc eb 07 1c 3c aa 7d dc bc fd 66 8f bc
       -0.014589654 0.009523372 -0.02691539 -0.017505163
000370 b4 43 3c bc 9b 93 3b 3c 33 cd cb bc 45 9f f8 3b
       -0.011490751 0.011448766 -0.02487812 0.007587346
000380 d3 70 1a bd 51 99 2d bd 4a c3 13 3c 02 86 94 3c
       -0.037705254 -0.042382542 0.0090187285 0.018130306
000390 34 92 87 3b b3 58 d0 bc c7 c3 61 3c 18 f5 fd bb
       0.004137302 -0.02543292 0.013779587 -0.0077501647
0003a0 f5 74 75 bb 17 45 b3 3b 10 e3 8e bc 7b 25 72 3c
       -0.0037453745 0.0054708826 -0.017442256 0.014779444
0003b0 cd 3a 71 bc 53 8f 9b 3b c2 ce d9 bc 40 e8 18 3b
       -0.014723492 0.00474731 -0.026587848 0.002333179
0003c0 43 67 5c 3d a7 82 e4 3c 75 64 25 ba 40 7d 97 3a
       0.053809416 0.027894331 -0.000630922 0.0011557713
0003d0 6b bb 67 3c c2 46 5c bb 2e e7 12 3c c0 21 a4 bc
       0.014143805 -0.003361151 0.00896625 -0.020035625
0003e0 84 fb 92 bc c8 88 d7 bb 63 a3 08 bd 80 a3 e7 bc
       -0.017942198 -0.006577585 -0.033358943 -0.028276205
0003f0 00 97 d3 3c 04 2c c2 bc 0b 69 bf 3c 10 d3 06 3c
       0.025828838 -0.023702629 0.023365518 0.008229032

action_model._continuous_distribution.mu.bias f4 [2]
000000 00 00 00 00 00 00 00 00
       0.0 0.0

action_model._discrete_distribution.branches.0.weight f4 [1, 128]
000000 8a 30 e5 bb 73 20 f3 ba 0c e2 cb 3b cb d9 24 bc
       -0.0069943117 -0.0018549099 0.0062220152 -0.0100616915
000010 fb 0a 0e 3c cf 47 b2 3b 3c 3c be bb 9d b7 55 bb
       0.00866961 0.005440689 -0.0058055203 -0.0032610663
000020 29 29 0a 3c 9a 4b 7c 3b db 2d 74 ba f8 4d 54 3b
       0.008432665 0.003849721 -0.00093146943 0.0032395106
000030 cb 35 5d b8 23 cc 9f bc 3b 39 d3 3b 5b 9d 88 bb
       -5.2740605e-05 -0.01950652 0.0064460314 -0.004169149
000040 46 b5 18 3a e2 2f e5 3a 84 db 30 3c d0 85 93 bc
       0.00058253517 0.0017485584 0.010794524 -0.018008143
000050 05 3c 3d bb 55 d1 92 bc a2 e2 aa bb b7 1e 5a 3c
       -0.0028874886 -0.017922083 -0.005215005 0.013312987
000060 d8 04 18 3b e5 b7 92 bb e4 c4 93 bb 2f f9 ff bb
       0.0023196246 -0.0044774883 -0.004509555 -0.0078116874
000070 f7 68 db 3b 82 ed 93 bb 6a 77 d6 3b 3a ce d4 bb
       0.0066958624 -0.004514397 0.006544997 -0.0064943107
000080 97 ec 87 ba 4b 26 45 bc 4f 91 0a 3c 05 e5 18 39
       -0.0010370192 -0.012033056 0.008457496 0.00014581166
000090 8d b7 a0 3a 85 3f 37 39 e0 c4 91 bc c3 b3 87 3b
       0.0012261734 0.00017475903 -0.017794073 0.0041413023
0000a0 f3 fd 94 3c 7d 17 b6 3a cb d3 0e 3b 47 6b 3d 3c
       0.018187499 0.0013892498 0.002179372 0.011561221
0000b0 af f0 e5 bb 57 62 90 3c 48 7a 01 3c 5d d7 be ba
       -0.007017217 0.017625017 0.007902689 -0.0014560033
0000c0 52 6d 06 bb 51 51 ad 3a 1a 70 c4 b8 38 64 7d ba
       -0.0020511937 0.0013223087 -9.366889e-05 -0.0009666118
0000d0 fa ea ea b9 af f2 fa 3b 0d 60 a6 bb 0c d1 b6 bb
       -0.0004480703 0.0076583247 -0.005077368 -0.0055791195
0000e0 4d 1d 73 bb 6d b2 f8 3a 20 b9 9a 3b 94 cf 35 3c
       -0.0037096322 0.0018974073 0.0047217757 0.011096854
0000f0 ff b4 7e 3b ab b7 d0 bb 8f e7 10 bc 85 2e da b9
       0.0038865206 -0.006369551 -0.00884427 -0.0004161486
000100 0b da fd 3a c3 f1 fe 3a ac 14 8b 3b ea 2f 31 3c
       0.001936735 0.0019450713 0.0042444076 0.010814646
000110 65 0b 1b 3c 93 c4 c4 bb 1a fe f5 bb b8 b7 8c bb
       0.009463166 -0.006004879 -0.007507098 -0.004294362
000120 20 ba 39 bc e8 6b 57 3b 20 55 d8 39 0b f9 83 bc
       -0.01133588 0.0032870714 0.00041262154 -0.016109964
000130 fc e2 bd 3b df be db 3b 35 be 49 3c 5b f7 bf bc
       0.005794881 0.006706103 0.012313415 -0.023433378
000140 44 4c 2e 3c 9b 3f bd ba 15 1d 4f bb db 40 5b bc
       0.0106383 -0.0014438512 -0.0031603028 -0.013382162
000150 cb 3a 7e bb af 0a 74 3b 32 52 c6 ba 86 46 17 3c
       -0.0038792368 0.0037237813 -0.0015130697 0.009233123
000160 ac f6 23 3b 5c 82 2b bc d3 95 44 3c 10 47 d6 39
       0.0025018854 -0.010468092 0.0119986115 0.00040870206
000170 ff b5 13 b9 65 73 84 3c 1d 5b e9 39 ab a1 36 3b
       -0.00014086811 0.016168306 0.00044509108 0.0027867358
000180 31 b5 1c 3a 40 fb 80 3a 5a de 7d 3c 3f 22 66 3c
       0.00059779274 0.0009840503 0.015494907 0.014046251
000190 34 00 33 3c 87 f4 5d 3b 4b 0e a7 ba 6d b6 5d bc
       0.010925341 0.0033867673 -0.0012745349 -0.013532263
0001a0 4d e9 9f bc 90 ab 2a bb 0d 31 6f bc dd 27 84 3b
       -0.019520426 -0.00260422 -0.014599097 0.0040330724
0001b0 f2 bc 52 bb 01 f5 17 bb 52 f6 45 3c 97 0b f6 bb
       -0.0032156077 -0.0023186805 0.012082653 -0.007508706
0001c0 6d 13 f5 3b 95 e8 6f bc f8 b5 59 bc f7 bf d6 3a
       0.0074791224 -0.014642854 -0.013288014 0.0016384114
0001d0 0f 14 08 3c 4b 6e b9 ba f3 64 2f bc a3 6f 1f 3c
       0.008305564 -0.001414725 -0.0107052205 0.009731206
0001e0 71 c7 02 bc 8f dc 9a 3a fa a2 56 3c a5 2c d9 bb
       -0.007982121 0.0011814999 0.01310038 -0.0066276365
0001f0 3d 0d 5d bb 3a 43 85 bc 22 db 67 3b bb 42 99 3c
       -0.0033729814 -0.016267408 0.0035378416 0.018708577

network_body._body_endoder.seq_layers.0.weight f4 [128, 76]
000000 7d c4 34 3d 4f e9 d5 bd 6e 16 b0 3d 09 9f 0a 3c
       0.0441327 -0.10444891 0.08598028 0.0084607685
000010 f4 ed d0 bc 5b 08 88 bd 0b b8 89 3d 01 ec e4 3d
       -0.02550409 -0.06642219 0.067245565 0.11177827
000020 da 58 5b bc 19 ce 21 bd 45 35 07 3e 0f 98 02 3d
       -0.013387883 -0.03950319 0.13203914 0.031883296
000030 c0 2f 98 bb f1 7a 8c 3d 16 23 ec 3b f3 0e 5b 3d
       -0.004644364 0.06859387 0.007206331 0.053481054
000040 c5 df f5 bd ac 91 09 bc 20 dc 01 bd 3e b0 83 3d
       -0.12005571 -0.008396547 -0.03170407 0.064301
000050 3a 53 12 3e c1 10 41 bd 62 e2 3f 3d 65 e6 24 3d
       0.14289561 -0.04713512 0.046846755 0.040258784
000060 b2 9c a4 3d 68 48 91 bc e7 3e cf 3d 95 d5 7d 3e
       0.080377 -0.017734721 0.101194195 0.24788506
000070 ea 92 90 3c e7 68 c0 bc 9f 88 39 3e a7 93 e4 bd
       0.01764818 -0.023487521 0.18118523 -0.11160975
000080 04 84 6e 3d 4f e1 36 3e d7 56 7a 3d b4 b2 fe bd
       0.05823137 0.17859386 0.061117973 -0.12436429
000090 17 04 dc 3d 54 1d 32 be 1e 32 ac 3d 0d f4 9e 3d
       0.107429676 -0.17394 0.084079966 0.07761393
0000a0 b9 de 40 3e 0f 41 a4 3c fc 63 d5 3d 0b 11 1b 3e
       0.18834962 0.020050554 0.10419461 0.1514322
0000b0 4a c8 34 3c df 4c ff 3c e2 60 c3 bb 08 62 ab 3c
       0.011034081 0.031164585 -0.005962477 0.020920768
0000c0 ee 72 8a 3d 56 71 87 bd 2b b9 b8 be 9d fd 0f 3d
       0.06760202 -0.06613414 -0.36078772 0.035153974
0000d0 77 8f d5 3d 59 a8 0e bd 4e 81 dc 3d 19 f2 80 bd
       0.10427754 -0.034828518 0.107668504 -0.062961765
0000e0 36 2c 0a be 71 93 1e 3e 2f 2b de 3d 23 8f ff 3d
       -0.13493428 0.15485932 0.1084808 0.12478473
0000f0 40 36 a9 3d 4e 92 cd 3d c9 94 9f 3e da e2 83 bc
       0.082623005 0.10037671 0.31168202 -0.016099382
000100 ce c0 84 bc c4 9d 4b be fe 2f cf bd 67 9b 5f bc
       -0.016205218 -0.19884402 -0.10116576 -0.013647891
000110 1d 69 83 3e 02 9d ee bc 36 e5 6b bd 79 8e 6e 3e
       0.25666133 -0.029127602 -0.05759164 0.23296537
000120 dd 3b 0d bd 7c 6b 68 be a1 e1 da 39 d0 29 8e 3c
       -0.03448092 -0.22697252 0.00041748307 0.017353922
000130 8d 70 6d bd cb 4b de 3d cf 05 4d be 77 87 c6 3c
       -0.057968665 0.108543 -0.20021747 0.024234517
000140 5b b1 96 3b 3c b7 33 bd a9 17 bc 3d 04 73 09 bd
       0.004598779 -0.043875918 0.091842 -0.033556953
000150 2f 32 d2 bd 31 a9 b8 bd d4 84 93 3c 5e 28 0d 3d
       -0.10263478 -0.09016646 0.018007673 0.034462325
000160 7c 8a e0 bb 20 bf a6 3d cf 81 0d 3e 47 58 ea 3c
       -0.006852446 0.08141923 0.1381905 0.028606547
000170 38 27 9f b9 0c e3 74 be ff b7 5d be cf 48 7b bd
       -0.00030356064 -0.23914737 -0.2165222 -0.061348733
000180 1b d2 57 bd f1 74 af 3d 6b 1f 03 3b ff ab 19 bd
       -0.052690607 0.08567227 0.002000774 -0.037517544
000190 1d ee 74 3d 55 e4 ee 3c 73 7d 4e bc 09 f2 b2 bd
       0.059797395 0.029161612 -0.012603152 -0.08737571
0001a0 b7 df 4a bd cf 5a e8 bd 69 3b 36 3d 54 19 4c 3d
       -0.049529757 -0.11345445 0.04449025 0.049828842
0001b0 a0 30 b1 bd de 18 b5 bd b2 65 15 3e d8 8b 7f 3d
       -0.086518526 -0.08842634 0.14589575 0.062389225
0001c0 1d e9 08 be 8e 68 c1 bd c4 23 69 bc cf 6b 6a 3d
       -0.13370176 -0.0944377 -0.014229719 0.05723172
0001d0 4d 98 15 bd e1 a8 19 3d 8d 32 e7 b9 1b 61 3d 3d
       -0.0365222 0.03751457 -0.00044097417 0.046235185
0001e0 22 83 4c 3e 61 e1 64 bd da 93 f7 bd 56 0b 5b 3d
       0.19971898 -0.055879 -0.12088747 0.053477608
0001f0 1b 19 34 be ec 59 71 3e 67 4a 13 3e 89 3d 91 3e
       -0.17587702 0.23569459 0.14383851 0.2836726
000200 f3 15 ab 3d 06 be 18 3e 96 36 26 3d 1f ea 54 bd
       0.08353796 0.14916238 0.0405794 -0.051981088
000210 fc 3c 87 3d 94 87 80 3c 6b 4d 26 bc 1d 5b a8 3d
       0.06603429 0.015689649 -0.010150294 0.082205035
000220 68 22 9a 3d b0 9c 54 3e e4 01 65 3e 4d 25 33 be
       0.07526094 0.20762897 0.22364002 -0.17494698
000230 cb ff f4 bb 94 4a 3c bd 61 03 9b 3d cd 9b 94 bd
       -0.007476782 -0.04596956 0.07569004 -0.07256279
000240 70 05 5e bd a1 e2 92 3d d5 a6 ab bd 27 fb 2a 3e
       -0.054204404 0.07172132 -0.0838143 0.1669737
000250 a2 e3 99 bd eb 0b 31 3e 65 2f 3b be b2 86 09 3e
       -0.07514121 0.17289703 -0.18279798 0.13430288
000260 e7 b1 d6 3d 9d ac 82 3d 5c 48 06 be e9 c3 16 3e
       0.10483151 0.063805796 -0.1311354 0.14723171
000270 84 8d 75 3d 70 4a a2 bd e7 9e 88 bd de d8 f0 bc
       0.059949413 -0.07924354 -0.06670933 -0.029400285
000280 ce 80 81 3e 74 a1 53 be c7 a8 e8 bd 5b d3 34 3d
       0.25293583 -0.20667058 -0.11360317 0.044146877
000290 b5 fa 84 bc 13 c5 93 3e 4a bf 3e 3c dc 40 40 be
       -0.016232828 0.28861293 0.011642287 -0.18774742
0002a0 2b 94 28 3d 21 8b 99 3c 40 c7 77 bc e5 dd 8b 3c
       0.04115693 0.0187431 -0.0151231885 0.017073581
0002b0 7e 2f 10 3d b2 1a c2 bb a6 e1 de bd 88 2c bf ba
       0.035201542 -0.0059235925 -0.10882883 -0.0014585415
0002c0 1d 36 04 be 2d 47 b2 be 4f 05 14 be 64 3b 87 bb
       -0.12911268 -0.34819928 -0.1445515 -0.004126953
0002d0 fe 01 cd 3d 93 4a 32 3e 8b f9 91 bc 87 0b f8 bc
       0.100101456 0.1741126 -0.017819187 -0.030278934
0002e0 7a 0d 8c 3d 5f 95 9e 3d e7 8c 61 bd dc 5b 45 be
       0.06838508 0.07743334 -0.055066016 -0.19273323
0002f0 1f 15 d0 bd 92 7e 94 bd b1 a1 4e 3e a8 a8 cb 3d
       -0.101602785 -0.07250704 0.20178868 0.09944278
000300 0c 0c 13 bc fe a2 3a bc d3 07 e4 3d ab a9 8a be
       -0.00897504 -0.011391399 0.11134305 -0.2708257
000310 48 88 76 3d d6 d6 6d bd 7c e9 1c 3d 2a c9 42 be
       0.06018856 -0.05806621 0.038308606 -0.1902205
000320 b7 22 34 3e 93 5e 9a 3c ba 1b 51 3e 38 08 d4 3d
       0.17591368 0.018843925 0.20420733 0.1035313
000330 3c bb 82 3d 33 1a 55 3e 96 4d 8f bd fb b9 53 bd
       0.063833684 0.20810775 -0.0699722 -0.051691037
000340 07 61 21 be 8b 90 69 3d 2b 71 66 3d 35 eb cb bd
       -0.15759669 0.057022613 0.05626027 -0.099569716
000350 d6 23 e3 bd 23 3e 46 3e f9 d0 80 3d a3 76 56 3d
       -0.110908195 0.19359641 0.06289858 0.052359235
000360 0e a9 2a 3e f3 c8 8b bc 88 53 16 be f8 9f 1c be
       0.16666052 -0.017063593 -0.14680302 -0.15295398
000370 0d 34 05 3e f9 ad 1b 3e 41 d1 3f 3d d4 2f f5 bd
       0.13008137 0.15203084 0.04683042 -0.11972013
000380 8d 5a 41 be c5 78 04 3e 74 a1 c6 3d 48 1c cc 3d
       -0.18882199 0.12936695 0.096987635 0.09966332
000390 aa b0 42 be 26 fb d5 bd e1 f4 ae bd 81 13 3f be
       -0.19012704 -0.104482934 -0.08542801 -0.18659784
0003a0 7a b2 c5 bd 44 67 5d 3e ab e3 32 3d 48 54 05 be
       -0.09653182 0.21621424 0.043674152 -0.13020432
0003b0 74 f0 e4 bc 54 06 25 be b6 19 5b bc a2 b7 98 bc
       -0.027946688 -0.16115695 -0.013372829 -0.01864225
0003c0 58 89 dd 3d 5d 51 bf bd d5 d2 d9 3d d9 ca 4c 3e
       0.10817212 -0.09341691 0.10635916 0.19999255
0003d0 48 aa 02 3d 2f 75 2d be ef 3b 8c 3d af b1 30 bd
       0.031900674 -0.16939233 0.06847369 -0.043138202
0003e0 6a 9f 1a 3e a1 44 f1 bc 1c e6 fc bd 87 cb 13 3e
       0.15099874 -0.02945167 -0.123485774 0.14433108
0003f0 73 02 22 be 68 45 13 bd 3f 09 ab 3d 5c ff 17 be
       -0.15821247 -0.035954863 0.08351373 -0.14843506

network_body._body_endoder.seq_layers.0.bias f4 [128]
000000 00 00 00 00 00 00 00 00 00 00 00 00 00 00 00 00
       0.0 0.0 0.0 0.0
000010 00 00 00 00 00 00 00 00 00 00 00 00 00 00 00 00
       0.0 0.0 0.0 0.0
000020 00 00 00 00 00 00 00 00 00 00 00 00 00 00 00 00
       0.0 0.0 0.0 0.0
000030 00 00 00 00 00 00 00 00 00 00 00 00 00 00 00 00
       0.0 0.0 0.0 0.0
000040 00 00 00 00 00 00 00 00 00 00 00 00 00 00 00 00
       0.0 0.0 0.0 0.0
000050 00 00 00 00 00 00 00 00 00 00 00 00 00 00 00 00
       0.0 0.0 0.0 0.0
000060 00 00 00 00 00 00 00 00 00 00 00 00 00 00 00 00
       0.0 0.0 0.0 0.0
000070 00 00 00 00 00 00 00 00 00 00 00 00 00 00 00 00
       0.0 0.0 0.0 0.0
000080 00 00 00 00 00 00 00 00 00 00 00 00 00 00 00 00
       0.0 0.0 0.0 0.0
000090 00 00 00 00 00 00 00 00 00 00 00 00 00 00 00 00
       0.0 0.0 0.0 0.0
0000a0 00 00 00 00 00 00 00 00 00 00 00 00 00 00 00 00
       0.0 0.0 0.0 0.0
0000b0 00 00 00 00 00 00 00 00 00 00 00 00 00 00 00 00
       0.0 0.0 0.0 0.0
0000c0 00 00 00 00 00 00 00 00 00 00 00 00 00 00 00 00
       0.0 0.0 0.0 0.0
0000d0 00 00 00 00 00 00 00 00 00 00 00 00 00 00 00 00
       0.0 0.0 0.0 0.0
0000e0 00 00 00 00 00 00 00 00 00 00 00 00 00 00 00 00
       0.0 0.0 0.0 0.0
0000f0 00 00 00 00 00 00 00 00 00 00 00 00 00 00 00 00
       0.0 0.0 0.0 0.0
000100 00 00 00 00 00 00 00 00 00 00 00 00 00 00 00 00
       0.0 0.0 0.0 0.0
000110 00 00 00 00 00 00 00 00 00 00 00 00 00 00 00 00
       0.0 0.0 0.0 0.0
000120 00 00 00 00 00 00 00 00 00 00 00 00 00 00 00 00
       0.0 0.0 0.0 0.0
000130 00 00 00 00 00 00 00 00 00 00 00 00 00 00 00 00
       0.0 0.0 0.0 0.0
000140 00 00 00 00 00 00 00 00 00 00 00 00 00 00 00 00
       0.0 0.0 0.0 0.0
000150 00 00 00 00 00 00 00 00 00 00 00 00 00 00 00 00
       0.0 0.0 0.0 0.0
000160 00 00 00 00 00 00 00 00 00 00 00 00 00 00 00 00
       0.0 0.0 0.0 0.0
000170 00 00 00 00 00 00 00 00 00 00 00 00 00 00 00 00
       0.0 0.0 0.0 0.0
000180 00 00 00 00 00 00 00 00 00 00 00 00 00 00 00 00
       0.0 0.0 0.0 0.0
000190 00 00 00 00 00 00 00 00 00 00 00 00 00 00 00 00
       0.0 0.0 0.0 0.0
0001a0 00 00 00 00 00 00 00 00 00 00 00 00 00 00 00 00
       0.0 0.0 0.0 0.0
0001b0 00 00 00 00 00 00 00 00 00 00 00 00 00 00 00 00
       0.0 0.0 0.0 0.0
0001c0 00 00 00 00 00 00 00 00 00 00 00 00 00 00 00 00
       0.0 0.0 0.0 0.0
0001d0 00 00 00 00 00 00 00 00 00 00 00 00 00 00 00 00
       0.0 0.0 0.0 0.0
0001e0 00 00 00 00 00 00 00 00 00 00 00 00 00 00 00 00
       0.0 0.0 0.0 0.0
0001f0 00 00 00 00 00 00 00 00 00 00 00 00 00 00 00 00
       0.0 0.0 0.0 0.0

network_body._body_endoder.seq_layers.2.weight f4 [128, 128]
000000 b3 d9 06 3d c6 19 16 3e 0f ca 29 3e b1 da 51 3d
       0.032922458 0.1465827 0.16580985 0.05123395
000010 4b a0 07 bd 26 8f 80 bd 79 ee 82 3d f6 d7 0d be
       -0.03311185 -0.062773034 0.06393141 -0.13851914
000020 72 8a f3 3d 2e d1 b2 3b f3 0e 3b bc bc de b0 3b
       0.11891641 0.005457065 -0.011417138 0.0053976458
000030 69 12 d5 3d f0 e3 a4 bd 5b 5c 07 bd ea 39 8d bd
       0.10403902 -0.08051288 -0.03304706 -0.06895812
000040 84 5f a8 bd bd e9 9f bd 69 cc 66 bd a7 77 2d bc
       -0.08221343 -0.07808254 -0.056347284 -0.010587609
000050 b5 0f fd bd e9 19 4f bd 89 e6 0f 3e 03 62 9a bc
       -0.123565115 -0.05056182 0.14052786 -0.018845564
000060 1a 8f e0 bc d3 4b b5 bd c1 c0 9f bd 6d 02 50 3d
       -0.027411986 -0.08852353 -0.07800437 0.050783563
000070 46 98 28 3d db 3e ae 3d 54 c7 f7 3d 80 ea 4e 3d
       0.041160844 0.085080825 0.12098566 0.050516605
000080 7a 88 1c 3d 07 9e 6d bd d8 11 b5 3d a8 a4 12 bd
       0.03821609 -0.058012035 0.08841294 -0.03580156
000090 c6 a8 4f 3e c2 15 c5 bd e7 d5 c6 bc a0 4b 94 bd
       0.20279226 -0.096232906 -0.024271918 -0.07240987
0000a0 b1 9a 31 bd 7c 86 7c bc b5 6d d3 3c ef 42 1b bd
       -0.043360416 -0.015412923 0.025809148 -0.03790563
0000b0 3c 1a 86 bd f8 00 05 bd bc 42 ae bc 8e 9e 46 be
       -0.065479726 -0.032471627 -0.021272056 -0.19396421
0000c0 63 09 d5 bd 4d ed 32 3d 3c 44 04 3c f9 49 3c 3d
       -0.10402181 0.04368334 0.008072909 0.045968983
0000d0 6a a3 82 3d a7 22 23 bd 7a be 0a bc 79 d1 8b bd
       0.06378825 -0.03982797 -0.008468265 -0.06827063
0000e0 06 af 70 3d 99 8d 4d bd 43 15 cd 3d 7f 91 e8 3d
       0.058760665 -0.050183866 0.10013821 0.11355876
0000f0 39 cc 9d 3d f9 6e 40 bc 04 33 ba bb 9d 1b 8a 3d
       0.07704968 -0.011745208 -0.005682351 0.06743548
000100 e1 f8 34 be 77 87 4a bc a1 46 ea 3d bd cb 41 be
       -0.17673065 -0.012361399 0.11439253 -0.18925376
000110 71 61 8e 3d 84 ba 72 bd f2 df c4 bc 62 5d e6 bd
       0.06952179 -0.059259906 -0.024032567 -0.1124828
000120 26 5f 74 3d fb ee b2 3d a1 1a ac bd e9 81 90 3d
       0.059661053 0.08736988 -0.084035166 0.070560284
000130 33 b8 69 be f7 92 0c be 9c f3 de 3c 3c 93 6c bb
       -0.22824173 -0.13727938 0.027215771 -0.00360985
000140 73 d5 fc bb 3e b1 94 3b 93 ac 1a bc bc 95 22 3e
       -0.007715875 0.0045377305 -0.009440559 0.15877432
000150 05 01 3f be 1b a7 04 bd dd a0 8e bd cc 2f b4 bd
       -0.18652733 -0.032385927 -0.06964276 -0.08798179
000160 a1 44 88 bc 82 4a a4 bd 7b 1f 96 bc 43 01 57 be
       -0.016634287 -0.08022024 -0.018325558 -0.20996575
000170 b3 aa d6 3d 48 7e 3e 3b 54 a7 32 be a5 dc 4f 3e
       0.10481777 0.0029066969 -0.17446643 0.20299013
000180 a3 ed 95 3a 9a 57 00 be f3 aa 87 bd bb 92 0a 3e
       0.0011438619 -0.12533417 -0.06624403 0.13532536
000190 37 dd 96 bd 77 c2 f8 bd 03 31 de 3b a3 d8 a5 bd
       -0.07366412 -0.12146466 0.006780745 -0.08097961
0001a0 f5 e7 ea 3d 0a 53 36 bd 18 8f 38 be 76 11 04 3d
       0.114700235 -0.044512786 -0.18023336 0.032243215
0001b0 e3 f0 86 bd 93 9a 43 bc b8 ac 1d 3e ca 0f 0d 3e
       -0.06588914 -0.011938709 0.15397918 0.13775554
0001c0 06 61 01 3e 77 ed fd 3d ed 96 15 3c e2 05 06 3e
       0.12634668 0.123988084 0.009130222 0.13088182
0001d0 49 06 4c be 0a bf 92 bd 9d 42 ac 3c 0c bf 36 be
       -0.19924273 -0.07165344 0.021027857 -0.17846316
0001e0 7b 06 4b be cf 99 90 bd b3 fc 17 be ad a1 44 bd
       -0.19826691 -0.07060587 -0.14842491 -0.04800575
0001f0 f5 0d 09 be 07 5f 0a 3c 86 03 7e bd 7f 06 ae bd
       -0.1338423 0.008445508 -0.06201508 -0.08497333
000200 bb 65 c9 3d fa eb 8a 3c 37 2c 09 3d f2 fb ca bd
       0.09833857 0.016958226 0.033489432 -0.09911336
000210 6a b4 3f bc a1 95 91 3d cf 1d 92 bd 9a 07 94 3d
       -0.011700729 0.071086176 -0.07134592 0.072280124
000220 e0 a8 3d 3d ac 06 cd bd 98 9d 83 3c ab d3 f8 bc
       0.04630363 -0.10011038 0.016066357 -0.030374369
000230 02 49 c8 3c a6 6d 1e bd 1b a5 77 3d ea 38 f0 3d
       0.024448875 -0.038678788 0.06046019 0.117296055
000240 41 de 95 3d d4 14 60 bd 5c 6c 35 bd 3c b3 33 3d
       0.07317782 -0.054707363 -0.044292793 0.043872103
000250 a0 d8 e2 3b de 83 0c bd bd 96 6e 3d ef 73 31 bd
       0.0069227964 -0.034305446 0.058249224 -0.043323454
000260 7a 7d 8b 3d f4 a6 01 bd 8f da 63 bc b4 c3 2f be
       0.06811042 -0.03165336 -0.013907089 -0.17164499
000270 e7 7a 1f bd ce e1 90 bd 3e 59 47 3e 66 2c 48 3d
       -0.03893557 -0.07074319 0.19467637 0.048870467
000280 8b f7 d3 3d ef 54 8a bd 27 30 18 3d e0 a0 6a 3d
       0.103499494 -0.06754481 0.037155297 0.05728233
000290 c8 fc 25 3d 61 56 9d 3d 4e ec 49 3c 6f 05 29 bd
       0.040524274 0.07682491 0.012324406 -0.041264948
0002a0 f4 8f ad bd 7a fd a9 3b 47 92 52 3d 63 45 74 bd
       -0.084747225 0.0051876875 0.051409032 -0.059636485
0002b0 bf 77 e4 3c 8c 97 1f 3d d1 98 69 3b ba 59 22 be
       0.02788913 0.038962886 0.0035644064 -0.1585454
0002c0 58 bf e0 bc 47 df 70 3c a7 56 a8 bd c7 c2 1c 3e
       -0.02743499 0.014701671 -0.082196526 0.15308677
0002d0 fc 84 68 bd 73 b1 74 be a2 4b 4d 3c d5 56 34 bd
       -0.05676745 -0.23895817 0.012530239 -0.044028122
0002e0 2f 62 e5 3d 74 8a 45 bd c5 f0 11 bd 16 ef 99 bd
       0.11200368 -0.048227742 -0.035630006 -0.07516305
0002f0 e6 26 14 3e e5 31 19 3c 44 5f b9 bd 46 57 df 3d
       0.14467964 0.009350275 -0.090513736 0.10905318
000300 95 e2 f2 bc 6e b9 0c 3e 86 09 5e bd 9b aa 88 bd
       -0.029649058 0.13742611 -0.0542083 -0.066731654
000310 54 be dc 3d 7b 91 07 3d 96 01 07 bc 4d 8b 28 bd
       0.1077849 0.033097725 -0.008240124 -0.041148473
000320 7b d5 d3 3d f9 34 3f 3c c7 c8 b2 bd 75 e3 ac 3d
       0.103434525 0.0116703445 -0.087297015 0.084418215
000330 de e1 3b 3e f4 de 6a 3c 68 61 0c 3e 7d 4b f2 bd
       0.1834788 0.014335383 0.13709033 -0.118308045
000340 37 a5 f7 3d 59 05 e5 bd 73 76 a6 bd 9b 7d 6e bd
       0.12092059 -0.111826606 -0.08128061 -0.058225255
000350 93 39 84 3d b1 4b 26 bd 39 9c ed bd 88 0b 05 bd
       0.06456294 -0.04059953 -0.11602063 -0.0324817
000360 cc 75 c1 bc 1c 14 cd 3c 80 e1 f3 3d 09 ca 94 3d
       -0.02361574 0.025034003 0.11908245 0.07265098
000370 8b 9d 06 3e 4e eb 5d 3e f4 a7 c3 3d 04 65 18 bd
       0.13146035 0.21671793 0.09553519 -0.03720571
000380 29 a0 d2 3d 19 ef 62 bc d6 72 80 3c 5b 17 0f be
       0.102844544 -0.013850951 0.015679758 -0.13973753
000390 a7 a6 91 3d 68 e0 c9 3d b0 11 f5 bc 17 33 86 3d
       0.071118645 0.09857255 -0.02991566 0.06552713
0003a0 b7 23 df bc cf 76 5f bc 16 0c 5d 3d 8e 7d 8d 3c
       -0.02723871 -0.013639166 0.053966604 0.017271783
0003b0 37 c5 75 bb 15 87 42 bd 07 85 29 bd 9e b5 9b 3d
       -0.0037501582 -0.047492106 -0.04138663 0.07603
0003c0 89 7d 20 be b5 c6 ce b9 0c 83 b7 bd 34 27 dc bd
       -0.15672888 -0.0003943943 -0.08960542 -0.10749665
0003d0 3f f5 fe 3c 13 9d ce bd 1c 05 72 3d 27 e4 1d 3d
       0.031122802 -0.10088553 0.059086904 0.03854766
0003e0 49 5f c4 3d d8 c8 f1 3d 9d a0 fc bd c0 57 91 bd
       0.09588487 0.11805886 -0.12335322 -0.07096815
0003f0 92 6a 51 3b 50 24 0e 3e 91 fa d6 bd 7c 99 5f 3d
       0.003195439 0.1388104 -0.104970105 0.054589733

network_body._body_endoder.seq_layers.2.bias f4 [128]
000000 00 00 00 00 00 00 00 00 00 00 00 00 00 00 00 00
       0.0 0.0 0.0 0.0
000010 00 00 00 00 00 00 00 00 00 00 00 00 00 00 00 00
       0.0 0.0 0.0 0.0
000020 00 00 00 00 00 00 00 00 00 00 00 00 00 00 00 00
       0.0 0.0 0.0 0.0
000030 00 00 00 00 00 00 00 00 00 00 00 00 00 00 00 00
       0.0 0.0 0.0 0.0
000040 00 00 00 00 00 00 00 00 00 00 00 00 00 00 00 00
       0.0 0.0 0.0 0.0
000050 00 00 00 00 00 00 00 00 00 00 00 00 00 00 00 00
       0.0 0.0 0.0 0.0
000060 00 00 00 00 00 00 00 00 00 00 00 00 00 00 00 00
       0.0 0.0 0.0 0.0
000070 00 00 00 00 00 00 00 00 00 00 00 00 00 00 00 00
       0.0 0.0 0.0 0.0
000080 00 00 00 00 00 00 00 00 00 00 00 00 00 00 00 00
       0.0 0.0 0.0 0.0
000090 00 00 00 00 00 00 00 00 00 00 00 00 00 00 00 00
       0.0 0.0 0.0 0.0
0000a0 00 00 00 00 00 00 00 00 00 00 00 00 00 00 00 00
       0.0 0.0 0.0 0.0
0000b0 00 00 00 00 00 00 00 00 00 00 00 00 00 00 00 00
       0.0 0.0 0.0 0.0
0000c0 00 00 00 00 00 00 00 00 00 00 00 00 00 00 00 00
       0.0 0.0 0.0 0.0
0000d0 00 00 00 00 00 00 00 00 00 00 00 00 00 00 00 00
       0.0 0.0 0.0 0.0
0000e0 00 00 00 00 00 00 00 00 00 00 00 00 00 00 00 00
       0.0 0.0 0.0 0.0
0000f0 00 00 00 00 00 00 00 00 00 00 00 00 00 00 00 00
       0.0 0.0 0.0 0.0
000100 00 00 00 00 00 00 00 00 00 00 00 00 00 00 00 00
       0.0 0.0 0.0 0.0
000110 00 00 00 00 00 00 00 00 00 00 00 00 00 00 00 00
       0.0 0.0 0.0 0.0
000120 00 00 00 00 00 00 00 00 00 00 00 00 00 00 00 00
       0.0 0.0 0.0 0.0
000130 00 00 00 00 00 00 00 00 00 00 00 00 00 00 00 00
       0.0 0.0 0.0 0.0
000140 00 00 00 00 00 00 00 00 00 00 00 00 00 00 00 00
       0.0 0.0 0.0 0.0
000150 00 00 00 00 00 00 00 00 00 00 00 00 00 00 00 00
       0.0 0.0 0.0 0.0
000160 00 00 00 00 00 00 00 00 00 00 00 00 00 00 00 00
       0.0 0.0 0.0 0.0
000170 00 00 00 00 00 00 00 00 00 00 00 00 00 00 00 00
       0.0 0.0 0.0 0.0
000180 00 00 00 00 00 00 00 00 00 00 00 00 00 00 00 00
       0.0 0.0 0.0 0.0
000190 00 00 00 00 00 00 00 00 00 00 00 00 00 00 00 00
       0.0 0.0 0.0 0.0
0001a0 00 00 00 00 00 00 00 00 00 00 00 00 00 00 00 00
       0.0 0.0 0.0 0.0
0001b0 00 00 00 00 00 00 00 00 00 00 00 00 00 00 00 00
       0.0 0.0 0.0 0.0
0001c0 00 00 00 00 00 00 00 00 00 00 00 00 00 00 00 00
       0.0 0.0 0.0 0.0
0001d0 00 00 00 00 00 00 00 00 00 00 00 00 00 00 00 00
       0.0 0.0 0.0 0.0
0001e0 00 00 00 00 00 00 00 00 00 00 00 00 00 00 00 00
       0.0 0.0 0.0 0.0
0001f0 00 00 00 00 00 00 00 00 00 00 00 00 00 00 00 00
       0.0 0.0 0.0 0.0
