results/Exp1_Net256Exp2_LR1e-4.yaml/AgentSphereBehavior/AgentSphereBehavior-5699.onnx (onnx, 352432 bytes, 8 tensors)

action_model._continuous_distribution.log_sigma f4 [1, 2]
0.011060313 0.0032467474
00000000: 5136 353c 62c7 543b

action_model._continuous_distribution.mu.bias f4 [2]
-0.00057704584 -0.00061936944
00000000: e444 17ba 2e5d 22ba

action_model._continuous_distribution.mu.weight f4 [2, 256]
-0.016468924 -0.002559127 0.009325129 0.015189914 0.0073677734 -0.009576514 -0.006961253 0.008535697
0.014069524 0.016516795 -0.0040132147 0.017718058 -0.0012465233 0.0034400274 -0.00902821 0.001267029
0.0023235981 0.0019933353 0.019655883 -0.004928788 -0.0038360031 -0.0012195009 -0.0005371894 0.00080074323
0.00772301 -0.010312578 -0.006484411 -0.0012138556 -0.0007334787 0.01008537 0.008955524 0.009229419
0.0050096205 0.0061922376 0.0016331226 -0.0051891715 0.0073614246 0.009433263 0.0028747795 -0.0007400325
0.0055863806 -0.0032330933 0.004146359 0.029755907 0.0033387146 -0.0051593124 -0.0013817747 -0.0075423047
0.017873673 0.0039439714 -0.006319142 0.006367694 0.007672399 0.009445861 0.0032218022 0.0054819123
0.0062372508 0.014854411 0.016675876 6.921466e-05 0.0008231833 -0.018929014 -0.0028909822 0.0019987058
0.0019946075 -0.019003348 -0.00021556165 -0.0017868058 0.011693028 -9.6933516e-05 -0.015445796 0.0046454174
0.007709146 0.003665892 0.0059861834 0.011563916 -0.013367102 0.012110987 -0.005921793 -0.007994253
-0.010132249 0.004597483 0.0234143 0.015706148 -0.0102055855 0.001865507 -0.0037043276 -0.002248869
0.013626673 -0.020927481 -0.0015685189 -0.00065575953 -0.0013315568 -0.013875117 0.0097444905 -0.0073047574
0.004623594 0.0069219708 -0.010529658 -0.005856249 0.0076300753 -0.0064676907 -0.0023362031 0.015704937
-0.0014150839 -0.004109727 0.00052008725 0.00019109323 -0.013858897 -0.0133700315 0.0072256336 0.000911132
-0.027065353 0.0034391026 0.0020718887 0.01592825 0.0015747848 0.0043458445 -0.008853651 0.00060225156
-0.007172838 -0.004037055 0.0006931013 -0.025741268 -0.0062279236 -0.002455553 -0.020460919 -0.029380871
0.009628988 -0.010525232 0.0010097174 0.011368198 -0.009732349 -0.012134751 0.007078386 0.0024013175
-0.008076658 0.01805492 -0.011826523 0.034464065 0.02829187 -0.014168647 0.020367399 0.02013503
0.014925066 0.005127471 -0.014807177 -0.014925255 -0.009857995 0.0017161156 -0.017135367 0.00396414
-0.0013196858 -0.017076029 -0.0041006594 0.009107102 -0.0064151646 -0.002786198 -0.01176687 0.001184039
-0.008176059 0.032032 0.007964589 -0.022837652 0.017439563 0.021874206 -0.020359844 0.022414787
-0.00665013 0.006688171 -0.011914219 -0.0050028716 -0.01779765 0.016825458 -0.0073142624 0.007459646
-0.024795 0.0024816436 -0.017027764 0.01063109 0.005049011 0.010285621 0.021983849 0.01868136
0.0028965448 0.0051989104 0.0001748218 0.00027453675 -0.0058085904 0.0029189887 -0.0042850845 0.014066491
0.012942139 -0.0027644797 -0.0031919344 -0.008197073 -0.0017811629 0.0023810463 0.011864907 -0.009055433
0.003871298 -0.010961976 0.0049298345 0.006783317 0.001583112 0.012805861 -0.019672604 0.012849473
0.008769666 -0.027040184 0.012865048 -0.00072445045 0.00055681105 0.0032692216 0.0010041967 -0.022683287
-0.0053500817 -0.018290522 -0.025563538 -0.011447918 -0.012221258 0.019744253 0.0048796847 0.016894178
0.008940777 0.0049921526 0.016669411 0.0045653377 -0.013011347 0.010981919 0.008193791 -0.0016093997
-0.022996914 0.023901379 0.003143081 -0.0046643494 0.014568208 -0.0049062725 -0.0072940663 -0.006526559
0.016645595 0.010795833 -0.008591434 -0.005221892 -0.014990493 -0.011408922 0.00919149 -0.0121835135
0.0035150172 0.017067917 -0.007389398 0.00011775595 -0.016291277 -0.003493686 0.01325726 -0.0035146982
00000000: d6e9 86bc 07b7 27bb 6dc8 183c 1edf 783c
00000010: 5d6d f13b d0e6 1cbc 391b e4bb 4fd9 0b3c
00000020: dc83 663c 3b4e 873c 4981 83bb 7625 913c
00000030: 6262 a3ba 1572 613b 0feb 13bc 7012 a63a
00000040: 8247 183b 9ea2 023b 6005 a13c ac81 a1bb
00000050: 7465 7bbb a9d7 9fba 2cd2 0cba f8e8 513a
00000060: 4e11 fd3b 16f6 28bc 2f7b d4bb 3c1a 9fba
00000070: ec46 40ba 1c3d 253c 31ba 123c fd36 173c
00000080: be27 a43b 41e8 ca3b 800e d63a ed09 aabb
00000090: 1b38 f13b f98d 1a3c cc66 3c3b befe 41ba
000000a0: f50d b73b 4ee2 53bb 2ede 873b a9c2 f33c
000000b0: 56ce 5a3b 730f a9bb aa1c b5ba 7025 f7bb
000000c0: cf6b 923c 6e3c 813b ce10 cfbb 17a8 d03b
000000d0: bf68 fb3b d0c2 1a3c df24 533b 9da1 b33b
000000e0: da61 cc3b ea5f 733c d99b 883c 5627 9138
000000f0: e5ca 573a 0511 9bbc a276 3dbb b8fc 023b
00000100: f6b7 023b e9ac 9bbc 6408 62b9 4133 eaba
00000110: 1d94 3f3c c948 cbb8 5d10 7dbc 9638 983b
00000120: 019d fc3b 763f 703b bf27 c43b 9476 3d3c
00000130: b001 5bbc 296d 463c 9a0b c2bb 54fa 02bc
00000140: bc01 26bc 7ca6 963b 59cf bf3c 2eaa 803c
00000150: 5435 27bc 0784 f43a 4ec4 72bb c361 13bb
00000160: 6942 5f3c 1c70 abbc c396 cdba 47e7 2bba
00000170: a287 aeba 7554 63bc 5ba7 1f3c bf5c efbb
00000180: 8581 973b b3d1 e23b 9684 2cbc c7e5 bfbb
00000190: b605 fa3b ecee d3bb fc1a 19bb a4a7 803c
000001a0: 567a b9ba e4aa 86bb 7756 083a 3360 4839
000001b0: 6d10 63bc fa0d 5bbc 02c5 ec3b 09d9 6e3a
000001c0: 29b8 ddbc 9162 613b 86c8 073b f67b 823c
000001d0: 0269 ce3a 9667 8e3b e70e 11bc 6be0 1d3a
000001e0: 200a ebbb 4649 84bb 3eb1 353a 5adf d2bc
000001f0: 9c13 ccbb 58ed 20bb a89d a7bc 27b0 f0bc
00000200: e7c2 1d3c 0672 2cbc 7e58 843a ae41 3a3c
00000210: 6e74 1fbc d6d0 46bc cef1 e73b 6c5f 1d3b
00000220: f553 04bc e9e7 933c 08c4 41bc 312a 0d3d
00000230: 5ac4 e73c 9d23 68bc 88d9 a63c 38f2 a43c
00000240: 4488 743c 5804 a83b cd99 72bc 0f89 74bc
00000250: 6e83 21bc 49ef e03a 785f 8cbc 9ee5 813b
00000260: 4ff9 acba 07e3 8bbc d35e 86bb f435 153c
00000270: 4d36 d2bb a598 36bb d4c9 40bc c231 9b3a
00000280: e1f4 05bc fd33 033d e87d 023c 0716 bbbc
00000290: 6add 8e3c 8931 b33c b0c9 a6bc 379f b73c
000002a0: 55e9 d9bb 7228 db3b db33 43bc 21ef a3bb
000002b0: 61cc 91bc 8bd5 893c 7bac efbb 0c70 f43b
000002c0: e21e cbbc 12a3 223b cf7d 8bbc 062e 2e3c
000002d0: 2d72 a53b 0585 283c 7917 b43c a709 993c
000002e0: f5d3 3d3b 9f5b aa3b 5f50 3739 b3ef 8f39
000002f0: fd55 bebb 814c 3f3b e569 8cbb 2477 663c
00000300: 440b 543c 462c 35bb c62f 51bb 044d 06bc
00000310: e975 e9ba 540b 1c3b 0765 423c 3d5d 14bc
00000320: 9ab5 7d3b dc99 33bc 738a a13b 9646 de3b
00000330: 6d80 cf3a adcf 513c 7128 a1bc 9986 523c
00000340: a5ae 0f3c 6083 ddbc ecc7 523c 0ce9 3dba
00000350: f5f6 113a 7040 563b 409f 833a 4dd2 b9bc
00000360: bd4f afbb 01d6 95bc a06a d1bc 0c90 3bbc
00000370: ac3b 48bc b3be a13c c3e5 9f3b a965 8a3c
00000380: 567c 123c 3695 a33b 4a8e 883c d498 953b
00000390: 8b2d 55bc 82ed 333c 403f 063c 7ef2 d2ba
000003a0: 0664 bcbc d3cc c33c 26fc 4d3b 66d7 98bb
000003b0: 7eaf 6e3c ccc4 a0bb 1003 efbb bfdc d5bb
000003c0: 585c 883c 01e1 303c 16c3 0cbc 681c abbb
000003d0: af9a 75bc 7dec 3abc e797 163c 5c9d 47bc
000003e0: 345c 663b 04d2 8b3c c322 f2bb bff3 f638
000003f0: 4975 85bc 53f6 64bb fb34 593c da56 66bb

action_model._discrete_distribution.branches.0.weight f4 [1, 256]
-0.0035800424 -0.0030507394 0.0010065533 -0.0076882006 0.010719835 -0.0015128884 0.0017635133 0.009058663
0.011392217 -0.0040156893 -0.0064596846 0.016553719 0.009703395 -0.0023013956 0.0032815107 0.015056062
-0.0004806432 0.007008293 0.0008170823 0.0030875194 -0.00323588 -0.0029945702 0.008334755 -0.017441288
-0.0025820357 -0.0034799525 0.010273905 -0.008236451 -0.0030564466 0.004413854 0.010061485 0.0045407135
0.0012947553 5.663573e-05 0.009000314 -0.0048505957 -0.008419985 -0.008648623 0.0065868124 0.0015373797
0.0020631969 -0.0115864305 6.351817e-05 -0.0006501656 -0.0054762755 0.00010800171 0.006588846 -0.0048666517
-0.004072403 0.0028411122 0.007791946 0.006124697 0.008415404 0.0022358578 -0.0006830531 0.0066808024
-0.006029924 -0.0028781402 0.0041731363 0.0010537853 -0.00010564847 0.00081038644 0.0038055088 0.00079282385
-0.007789296 -0.00332716 0.0003264888 0.00054186134 -0.008158795 0.0029611967 -0.0058385963 -0.005564596
0.00039937356 0.0021927373 0.007861159 -0.004371918 -0.0031531265 0.0019072552 0.00029026213 -0.0120562
0.00847572 -0.012723612 0.0046168827 0.00619189 0.00424076 0.0063354545 0.0036640223 -0.0051482082
-0.0046000765 0.0077231796 -0.010976396 -0.006247662 -0.0015446427 0.0004042694 0.002573506 -0.007014359
0.00068172946 -0.0042553353 -0.0006155654 0.0021106529 -0.0030460118 0.0024405702 0.012777275 -0.011704763
0.006223947 0.004854202 0.0038342548 0.0013637958 -0.0032500923 -0.011976998 -0.008681772 -0.00042109654
0.0045951325 -0.008781975 0.00015503244 0.0051818476 -0.0026459284 0.016630922 0.011585618 -0.0053131212
0.0008368607 -0.0026684192 0.0026039998 -0.0015150144 -0.0031551346 -0.004817396 0.0028409509 -0.004852274
0.005041404 0.002130835 0.0030889807 -0.0019613595 0.0073904656 -0.0034843744 0.0015979278 -0.006680501
-0.00050498376 0.0023144109 -0.005431686 0.014052738 -0.00057344034 -0.0009881689 -0.004498035 -0.0034389272
-0.005228774 -0.0066932477 -0.00032280918 0.007334119 0.0102144955 -0.0051087453 -0.010904142 -0.0028401827
0.0015698841 0.0009418142 -0.0025284635 -0.0062024402 0.0005204325 -0.004149241 -0.007191962 0.0038443357
-0.011739961 0.009629776 -0.0021354468 -0.0006802724 -0.003203084 -0.011305324 -0.0021583247 0.0019894782
-0.0021326246 -0.0074640843 -0.009536837 -0.018173084 0.0016551977 0.0050311964 0.009143154 0.010538257
0.0025995784 -0.005926752 0.0038977198 0.0042497995 0.0043454934 0.008717427 0.010482747 -0.004797232
-0.010928542 -0.0021724228 0.007902591 -0.009009213 0.0040156976 -0.0014555565 0.0061946623 0.007952675
-0.006963218 -0.005611241 0.011790286 0.0026139878 -0.00948553 -0.0010282065 -0.0030264796 0.0013348728
-0.009548236 0.0035078786 0.006845267 0.0037530903 0.0059973574 -0.0014124461 -0.0037773591 0.002996778
0.0043331343 -0.0022257126 -0.0034839697 0.0017204363 -0.0048497776 -0.0051912037 -0.00043154205 0.0045827916
0.018906565 -0.0044881725 0.0015668623 -0.0013161727 -0.0036644556 0.006527708 0.006652133 -0.0031142768
0.0025687597 0.008225138 -0.008041968 0.008780283 0.008415636 -0.004528842 0.011016811 -0.0042721415
-0.014386455 0.0055792606 -0.013762583 0.0008754215 -0.005791209 0.0038117915 -0.003942605 0.0066433223
0.003883993 -0.0022350848 0.001356657 0.0060763466 0.0012481875 -0.0035643086 -0.0026150679 0.008836607
-0.0073860358 0.013571151 -0.0037590377 0.000546818 -9.820437e-05 -0.007799942 -0.0028263445 -0.007375762
00000000: 259f 6abb eaee 47bb 53ee 833a 4ded fbbb
00000010: 3fa2 2f3c 1c4c c6ba b025 e73a c96a 143c
00000020: 6ca6 3a3c 0b96 83bb c3ab d3bb aa9b 873c
00000030: fdfa 1e3c 03d3 16bb 9d0e 573b b3ad 763c
00000040: d7fe fbb9 d3a5 e53b 7731 563a fb57 4a3b
00000050: 0f11 54bb 8d40 44bb 7f8e 083c 08e1 8ebc
00000060: 5f37 29bb ea0f 64bb e153 283c 2ef2 06bc
00000070: aa4e 48bb 17a2 903b edd8 243c 44ca 943b
00000080: c7b4 a93a 278c 6d38 0e76 133c bff1 9ebb
00000090: faf3 09bc f4b2 0dbc 30d6 d73b e781 c93a
000000a0: b336 073b 03d5 3dbc 0f35 8538 e06f 2aba
000000b0: 5472 b3bb fa7e e238 3fe7 d73b 6f78 9fbb
000000c0: cb71 85bb f431 3a3b 9553 ff3b afb1 c83b
000000d0: c3e0 093c 7887 123b eb0e 33ba a2ea da3b
000000e0: ab96 c5bb 2e9f 3cbb cebe 883b 2b1f 8a3a
000000f0: 978f ddb8 1d70 543a d865 793b 82d5 4f3a
00000100: 5a3d ffbb 7b0c 5abb 962c ab39 b30b 0e3a
00000110: 77ac 05bc a310 423b b251 bfbb 3757 b6bb
00000120: 0363 d139 07b4 0f3b 17cc 003c 4e42 8fbb
00000130: afa4 4ebb ddfc f93a 532e 9839 5e87 45bc
00000140: bfdd 0a3c b276 50bc 3849 973b 57e5 ca3b
00000150: 13f6 8a3b a599 cf3b 1820 703b 4db2 a8bb
00000160: 3dbc 96bb ba12 fd3b 57d6 33bc 30b9 ccbb
00000170: 9c75 caba 1ff4 d339 44a8 283b b5d8 e5bb
00000180: 17b6 323a 5770 8bbb e55d 21ba e152 0a3b
00000190: 999f 47bb f9f1 1f3b c757 513c 56c5 3fbc
000001a0: 40f2 cb3b ff0f 9f3b 1f48 7b3b 65c1 b23a
000001b0: 80ff 54bb 2c3b 44bc fe3d 0ebc 9fc6 dcb9
000001c0: c492 963b 46e2 0fbc 3490 2239 7dcc a93b
000001d0: 5067 2dbb 923d 883c 9bd1 3d3c b119 aebb
000001e0: c560 5b3a a5e0 2ebb dea7 2a3b 7393 c6ba
000001f0: 60c6 4ebb 3fdb 9dbb 3f2f 3a3b d3ff 9ebb
00000200: 5d32 a53b 7ba5 0b3b 7f70 4a3b 278a 00bb
00000210: b82b f23b 1a5a 64bb 8f71 d13a 1be8 dabb
00000220: e360 04ba 5fad 173b 49fc b1bb 753d 663c
00000230: ee52 16ba 7285 81ba 4164 93bb a05f 61bb
00000240: 2356 abbb 0853 dbbb b73e a9b9 0d53 f03b
00000250: b35a 273c 4367 a7bb 49a7 32bc 5c22 3abb
00000260: 92c4 cd3a 15e4 763a 94b4 25bb d73d cbbb
00000270: a26d 083a 5bf6 87bb 8daa ebbb 40f1 7b3b
00000280: f758 40bc 35c6 1d3c daf2 0bbb 4f54 32ba
00000290: d5ea 51bb f739 39bc ae72 0dbb e861 023b
000002a0: 81c3 0bbb 4795 f4bb 6540 1cbc b8df 94bc
000002b0: 38f3 d83a bcdc a43b 2bcd 153c a7a8 2c3c
000002c0: b05d 2a3b 3335 c2bb e370 7f3b e741 8b3b
000002d0: a464 8e3b 8ad3 0e3c d4bf 2b3c 1932 9dbb
000002e0: a10d 33bc 355f 0ebb de79 013c 619b 13bc
000002f0: 1d96 833b 5fc8 beba 98fc ca3b f04b 023c
00000300: b52b e4bb 80de b7bb 0b2c 413c 704f 2b3b
00000310: 3269 1bbc e3c4 86ba e757 46bb e6f6 ae3a
00000320: 3470 1cbc 70e4 653b 434e e03b 68f6 753b
00000330: 7b85 c43b d421 b9ba 928d 77bb 9865 443b
00000340: f7fc 8d3b 43dd 11bb 5053 64bb 4380 e13a
00000350: e2ea 9ebb f91a aabb 9840 e2b9 3e2b 963b
00000360: f1e1 9a3c 8511 93bb 2d5f cd3a 6d83 acba
00000370: 5d27 70bb 62e6 d53b 23fa d93b e518 4cbb
00000380: a358 283b bbc2 063c 75c2 03bc 2ddb 0f3c
00000390: bce1 093c ae66 94bb db7f 343c 52fd 8bbb
000003a0: 2ab5 6bbc 3bd2 b63b 757c 61bc 8b7c 653a
000003b0: 2fc4 bdbb 40cf 793b f830 81bb 3ab0 d93b
000003c0: 978a 7e3b 807a 12bb dbd1 b13a 171c c73b
000003d0: 399a a33a 2d97 69bb 8f61 2bbb 6bc7 103c
000003e0: 8f06 f2bb 8859 5e3c 305a 76bb 5658 0f3a
000003f0: 12f3 cdb8 a896 ffbb 313a 39bb 60b0 f1bb

network_body._body_endoder.seq_layers.0.bias f4 [256]
0.0006282978 -0.0014601244 -0.0031774836 -0.001570075 0.0044289487 0.0014448877 -0.0010758176 0.0002437276
-0.0023275502 -0.0013700429 -0.00034047366 -0.0024185095 -0.0034299337 -0.0026431903 -0.00012783862 0.0017212491
-0.0018068828 -0.0007049585 0.00030596188 0.00079700473 0.00039885525 -2.0890937e-05 -0.0010293708 -0.00096043525
0.00029613395 -0.00035703217 0.0019122622 -0.0008646182 7.261459e-05 0.000609325 -0.0010024336 0.0010022474
-0.0014120622 -0.004405892 0.00022822907 -0.0026557688 -0.005720161 -0.0012427572 -0.0017207771 -0.0009575062
0.000175993 0.00014772199 0.0020657524 -0.0019880328 0.00025845884 -0.0031024127 0.0015831691 -0.0020573242
-0.0016472819 -0.0014186405 -0.000898722 -0.00088638265 -9.514408e-06 -0.0020707354 0.0005566838 2.7995215e-05
-0.0009250585 0.0047236653 0.0011314577 -0.0016207839 -0.0036352486 -0.002077195 -0.0032553815 -0.007175838
0.0010806533 0.0007790487 0.0021762578 -0.0009679669 -0.0003482002 -0.00084082776 -0.0013871932 -0.00013309171
-0.00067900715 2.4051275e-05 -0.0021667888 -0.009177006 -0.0040638736 -0.0010097439 -0.0045403494 4.6487432e-05
-0.0039919526 -0.0020331794 0.004305949 -0.0005417221 -0.00565196 -0.0026606717 -0.0011620375 -0.0028959909
-0.0023527676 -0.0011844098 0.00097336597 -0.0010252541 -0.0013981226 0.0038383445 0.0010961224 -0.0028491458
-0.00038615646 -0.006656535 -0.0015802451 -0.002081221 0.0025002693 -0.00027881708 0.0039074183 -0.0021666542
0.0016087759 -0.0005195594 -0.00034063397 -0.00070098304 0.00012421349 -0.0011158851 -0.0016085336 0.00019962217
-0.0013413444 -0.0012331745 -0.004010118 0.0015267822 0.0013901208 0.0008549511 -0.00033667966 -0.0009729519
-0.0013294795 -0.00028485403 6.150276e-05 -0.0011530255 0.0042596892 -2.9465304e-05 -0.004624407 0.00068389444
-0.00013316744 0.0017337876 -0.0001748554 -0.00054553547 -0.0010041845 -0.00070316467 -0.0023875956 -0.0011563718
-0.003917976 -0.001368141 0.001979374 0.0011944543 -0.0008821716 0.00055860763 0.00055065635 -0.001242321
-0.0015339013 -0.0006784504 -0.00060150947 0.0003683368 -0.0007177364 0.0007901204 0.00078547513 -0.0017946052
0.0025601122 -0.00038198364 -0.0003736751 -0.0015879354 -0.0043686405 0.0022616475 0.0023293367 -0.000889769
-0.00050079235 0.0015976848 -0.0013491896 -0.0020801662 0.00056348025 -0.0011037521 0.0023917556 -0.0022679593
-0.0010406649 0.0063807475 0.003192302 -0.00073244295 -0.0038782621 -0.008813969 -0.003057143 -0.0021388384
-0.0019467069 -0.002935178 0.0007231405 -0.002196276 -0.0060251444 0.0012524942 0.0019435983 -0.00053926784
7.278894e-05 0.0027967074 -0.0011750422 -0.0013933276 -0.00050561625 -0.0009274478 -0.0021832336 0.00244537
0.00035413986 -0.0017646956 -0.0002621996 0.000393526 0.0040383544 0.0017897671 -9.05929e-05 -0.0015487679
-0.0007310008 -0.0053995084 -0.00035753174 -0.0011013411 0.00509245 -0.0011197585 0.00027550472 0.0019940438
0.00016949927 0.0017615599 0.00017214954 -0.0018703257 -0.0007186067 0.002999253 -0.00089448574 0.0016835239
-0.0005733869 0.0003008052 0.0015161607 0.004936751 -0.002354518 -0.0022658242 -0.00055650104 0.00036201475
-0.0017876583 -0.0001808299 -0.00028650634 -0.0029216032 -0.00044640567 -0.0010660065 -0.0005209572 -0.0016888195
-0.00076794776 -0.00180519 -0.007641904 -0.00095998484 7.3237265e-05 -0.0036563245 -0.0012855097 -0.0027901337
0.0018401933 -0.0012754922 0.00086062256 0.002045001 0.0010423015 -0.004290635 0.0017959742 -0.0024015086
-0.0007167161 0.00068569777 0.0026798777 -0.0027319677 0.0009773643 0.0030650827 -7.525081e-05 -0.0010693419
00000000: 5ab4 243a a561 bfba 543d 50bb faca cdba
00000010: b720 913b 6362 bd3a 7302 8dba 2191 7f39
00000020: d089 18bb 0393 b3ba 9a81 b2b9 db7f 1ebb
00000030: bdc8 60bb 6039 2dbb 6b0c 06b9 899b e13a
00000040: edd4 ecba f7cc 38ba 8269 a039 15ee 503a
00000050: 721d d139 f23e afb7 f4eb 86ba b8c5 7bba
00000060: 6d42 9b39 0c30 bbb9 dfa4 fa3a 8ca7 62ba
00000070: a948 9838 1cbb 1f3a 1764 83ba d85d 833a
00000080: f214 b9ba 4d5f 90bb c650 6f39 680c 2ebb
00000090: 3070 bbbb 03e4 a2ba b38b e1ba 2701 7bba
000000a0: c38a 3839 d2e5 1a39 9361 073b a849 02bb
000000b0: c281 8739 d951 4bbb 5782 cf3a 2cd4 06bb
000000c0: 9ce9 d7ba adf1 b9ba 3698 6bba 225c 68ba
000000d0: 12a0 1fb7 2db5 07bb 6bee 113a 44d7 ea37
000000e0: a07f 72ba fac8 9a3b 6c4d 943a 7c70 d4ba
000000f0: 5a3d 6ebb 8d21 08bb 3d58 55bb 4b23 ebbb
00000100: b5a4 8d3a 1339 4c3a 8c9f 0e3b 29bf 7dba
00000110: a48e b6b9 ff6a 5cba 7bd2 b5ba 898e 0bb9
00000120: 66ff 31ba b8c1 c937 af00 0ebb 275b 16bc
00000130: 3e2a 85bb 6259 84ba 36c7 94bb 80fb 4238
00000140: edce 82bb 173f 05bb eb18 8d3b 5b02 0eba
00000150: 1434 b9bb aa5e 2ebb 824f 98ba aaca 3dbb
00000160: e430 1abb 333e 9bba 7c29 7f3a d261 86ba
00000170: 3641 b7ba bc8c 7b3b c4ab 8f3a bcb8 3abb
00000180: 0b75 cab9 101f dabb 3a20 cfba 1865 08bb
00000190: 8fdb 233b 322e 92b9 cd09 803b 6dfe 0dbb
000001a0: 90dd d23a 0b33 08ba 1e97 b2b9 2dc2 37ba
000001b0: 4e3f 0239 e442 92ba 6ed5 d2ba ab51 5139
000001c0: 0dd0 afba 78a2 a1ba 4f67 83bb 4f1e c83a
000001d0: b734 b63a cc1e 603a 6184 b0b9 b20d 7fba
000001e0: ee41 aeba 7658 95b9 0bfb 8038 1e21 97ba
000001f0: dd94 8b3b 422c f7b7 5688 97bb 6147 333a
00000200: dda2 0bb9 4240 e33a 6459 37b9 4402 0fba
00000210: d79e 83ba 9554 38ba 3579 1cbb 6691 97ba
00000220: 5d62 80bb 3253 b3ba 63b8 013b 3c8f 9c3a
00000230: 8941 67ba 866f 123a ec59 103a 60d5 a2ba
00000240: 300d c9ba 09da 31ba 9eae 1dba 541d c139
00000250: 7926 3cba 1520 4f3a 58e8 4d3a f538 ebba
00000260: 8ec7 273b fa44 c8b9 d3e9 c3b9 4522 d0ba
00000270: d026 8fbb 2638 143b c9a7 183b 633f 69ba
00000280: 9b47 03ba 6869 d13a 4ad7 b0ba 6653 08bb
00000290: 85b6 133a c6ab 90ba 00bf 1c3b 0ba2 14bb
000002a0: eb66 88ba 9715 d13b f135 513b 6a01 40ba
000002b0: 712a 7ebb 7768 10bc 595a 48bb c12b 0cbb
000002c0: a528 ffba 1e5c 40bb 2391 3d3a 66ef 0fbb
000002d0: 936e c5bb bb2a a43a 56c0 fe3a a75d 0dba
000002e0: 44a6 9838 f748 373b e003 9aba 51a0 b6ba
000002f0: 558b 04ba f81f 73ba 9514 0fbb 8042 203b
00000300: d9ab b939 5c4d e7ba d677 89b9 2a52 ce39
00000310: 2c54 843b 9e96 ea3a b1fc bdb8 0700 cbba
00000320: a2a0 3fba 5cee b0bb 1973 bbb9 e05a 90ba
00000330: 91de a63b dcc4 92ba 9e71 9039 81ae 023b
00000340: 9dbb 3139 24e4 e63a 0a83 3439 b725 f5ba
00000350: e160 3cba 1e8f 443b ec7b 6aba b0a9 dc3a
00000360: 584f 16ba 64b5 9d39 e9b9 c63a 78c4 a13b
00000370: 424e 1abb 397e 14bb 27e2 11ba cccc bd39
00000380: dc4f eaba 289d 3db9 3b36 96b9 5e78 3fbb
00000390: 8e0b eab9 3eb9 8bba d990 08ba 615b ddba
000003a0: 1a50 49ba 209c ecba f068 fabb 7ea7 7bba
000003b0: f596 9938 f29e 6fbb 8c7e a8ba adda 36bb
000003c0: a432 f13a 6b2e a7ba 679b 613a 6c05 063b
000003d0: d69d 883a 7598 8cbb e566 eb3a a162 1dbb
000003e0: 01e2 3bba 66c0 333a e3a0 2f3b d00a 33bb
000003f0: e71a 803a 8edf 483b f9cf 9db8 2929 8cba

network_body._body_endoder.seq_layers.0.weight f4 [256, 80]
-0.030211745 -0.0767118 -0.15630282 0.00988842 -0.31270558 0.17190965 0.012026924 -0.06595114
0.07286918 -0.02906363 -0.0571527 0.10588116 -0.011638164 -0.02791367 -0.0427005 -0.03634769
0.03464518 -0.15402478 0.06706979 0.051061336 0.07439146 -0.087449595 -0.01719302 0.054931507
0.22839552 0.030494653 -0.08829452 0.20751093 0.3273593 0.021468773 0.024512049 0.18734147
0.1221382 -0.08703138 -0.037824333 -0.2042756 0.024229467 -0.12827119 -0.1039126 -0.018241033
0.039185204 -0.15669161 -0.06791455 0.14150813 0.05665103 -0.10361691 0.09010576 -0.012430426
0.02809449 -0.0071915337 0.1782851 0.023574272 0.03392287 -0.16863966 -0.26402807 -0.023193946
0.109713934 -0.058845405 0.037715342 0.07345493 -0.041673146 0.12819396 -0.060109958 -0.014957644
0.18523349 0.088003 0.046023622 -0.04853256 0.026927033 0.038943093 -0.08611629 -0.091786884
-0.03473128 -0.16140448 0.13897048 0.032395247 -0.22000185 0.042165026 0.16720757 -0.060893744
-0.08760889 0.0571587 0.11180192 0.0010238638 0.14707181 0.0040152795 0.017024063 0.083699256
-0.056543797 0.10325958 -0.16255994 0.020222098 0.1900062 0.13107088 -0.0120658 0.063337
-0.041850183 -0.1551242 -0.07798445 -0.015261869 -0.039458554 -0.08302801 -0.16717795 0.08251875
0.18872468 -0.10632046 -0.028674297 -0.17927052 -0.042699825 0.09267225 -0.120435454 0.11989632
-0.05455843 0.0789971 -0.011473297 -0.0077688745 0.06346085 0.0065535847 0.06610698 0.06891995
0.016622927 0.028666066 0.0552788 0.078494266 0.12981142 0.12817802 -0.12912597 -0.006909219
-0.015370793 0.12747252 0.05519046 0.16590281 -0.18953677 -0.14294192 0.17072186 -0.024071593
0.07197104 -0.04397826 0.121556446 0.027845599 0.033789985 -0.009325866 0.17199624 0.1385843
0.014050665 -0.18239036 0.14161307 -0.10399889 0.07358487 -0.0032851647 0.08588695 0.00644265
0.18243861 0.052548744 0.012677468 0.08496139 0.05968208 0.0568 -0.04729826 0.20556194
0.02794383 -0.007817671 0.04745743 0.13215962 -0.06304876 -0.10635583 -0.15420112 -0.11681992
-0.06574499 -0.07835486 0.06754519 0.08177273 0.0816122 -0.09497379 0.045203883 0.058003526
-0.039754882 0.118533276 -0.12969153 0.049093857 0.010848093 -0.12650289 -0.07818799 0.12380929
-0.19722483 -0.04028666 -0.21800482 -0.055807248 0.1473794 -0.09155485 0.06800188 0.06324943
0.09632749 0.30451232 -0.13906291 -0.036051545 -0.13423273 0.3123287 0.03801613 -0.045140352
0.016140759 -0.015637575 -0.096905276 0.111699015 -0.09872764 0.2064188 -0.04383884 0.018209673
0.05283982 -0.27366287 -0.16924292 0.18346432 -0.09708295 0.056595296 0.059862606 -0.14152466
-0.041272663 -0.18572012 0.065693386 0.063654736 0.14754356 0.017921556 0.19607008 0.056947656
-0.16019641 -0.058748644 0.071938194 0.053864904 -0.15936969 -0.048839025 0.025846876 -0.18011968
0.17767482 -0.15152691 0.02323754 0.06838878 -0.015372445 0.112416446 -0.029308336 -0.094871916
-0.012934268 -0.06775584 0.06410546 -0.14499606 -0.0045512794 0.080078274 0.11870426 -0.060518827
0.032421064 -0.21064763 0.07542033 -0.036869857 0.031894516 -0.018107263 -0.15605088 0.012946556
00000000: 9f7e f7bc 141b 9dbd d90d 20be 0a03 223c
00000010: f21a a0be 1509 303e 930c 453c 6411 87bd
00000020: 703c 953d da16 eebc f318 6abd 39d8 d83d
00000030: ffad 3ebc 35ab e4bc b8e6 2ebd 51e1 14bd
00000040: 1be8 0d3d acb8 1dbe e35b 893d b125 513d
00000050: 8d5a 983d c618 b3bd 60d8 8cbc dcff 603d
00000060: 84e0 693e eccf f93c c2d3 b4bd bf7d 543e
00000070: a39b a73e 48df af3c 7ecd c83c 71d6 3f3e
00000080: 9823 fa3d 823d b2bd b0ed 1abd 9f2d 51be
00000090: e07c c63c 8659 03be 21d0 d4bd 386e 95bc
000000a0: aa80 203d c473 20be c916 8bbd 82e7 103e
000000b0: e90a 683d 1a35 d4bd 5e89 b83d fca8 4bbc
000000c0: 6a26 e63c f5a6 ebbb 5f90 363e d51e c13c
000000d0: b5f2 0a3d e0af 2cbe b02e 87be 3b01 bebc
000000e0: b3b1 e03d e107 71bd 677b 1a3d 8a6f 963d
000000f0: 76b1 2abd 4745 033e dc35 76bd e810 75bc
00000100: d9ad 3d3e eb3a b43d 4483 3c3d 14ca 46bd
00000110: 1596 dc3c cb82 1f3d bd5d b0bd c3fa bbbd
00000120: 6342 0ebd 3747 25be 474e 0e3e e1b0 043d
00000130: 2a48 61be 3cb5 2c3d 7638 2b3e b86b 79bd
00000140: 4a6c b3bd 3e1f 6a3d 68f8 e43d 2b33 863a
00000150: fe99 163e 9b92 833b 0c76 8b3c 846a ab3d
00000160: 789a 67bd c279 d33d 1d76 26be d0a8 a53c
00000170: fc90 423e 7237 063e a2af 45bc d4b6 813d
00000180: 196b 2bbd e1d8 1ebe 50b6 9fbd eb0c 7abc
00000190: 4b9f 21bd 970a aabd b230 2bbe 97ff a83d
000001a0: 0b41 413e 8bbe d9bd 5ce6 eabc b192 37be
000001b0: 03e6 2ebd f3ca bd3d dda6 f6bd 348c f53d
000001c0: a978 5fbd 3bc9 a13d 7ffa 3bbc 0b92 febb
000001d0: c3f7 813d 74bf d63b 1963 873d e725 8d3d
000001e0: ce2c 883c 19d5 ea3c 066c 623d 9ac1 a03d
000001f0: 49ed 043e 1941 033e 9939 04be bb66 e2bb
00000200: c7d5 7bbc 2888 023e 640f 623d 6de2 293e
00000210: ed15 42be 5e5f 12be b6d1 2e3e ca31 c5bc
00000220: 8d65 933d 8c22 34bd 96f2 f83d 741c e43c
00000230: 5e67 0a3d 84cb 18bc c81f 303e 0be9 0d3e
00000240: c334 663c 8ac4 3abe 0403 113e 5ffd d4bd
00000250: aab3 963d eb4b 57bb 7fe5 af3d de1c d33b
00000260: 30d1 3a3e 5a3d 573d 28b5 4f3c 3d00 ae3d
00000270: 3275 743d 1ea7 683d d2bb 41bd d47e 523e
00000280: 75ea e43c b015 00bc b962 423d da54 073e
00000290: b51f 81bd 16d1 d9bd e6e6 1dbe 483f efbd
000002a0: 4fa5 86bd 8378 a0bd 2255 8a3d 7678 a73d
000002b0: 4c24 a73d 9e81 c2bd b527 393d 1b95 6d3d
000002c0: 04d6 22bd 93c1 f23d dbcd 04be a416 493d
000002d0: 33bc 313c f989 01be 0621 a0bd ba8f fd3d
000002e0: 4ef5 49be a003 25bd a83c 5fbe 2496 64bd
000002f0: a0ea 163e 1c81 bbbd 9244 8b3d eb88 813d
00000300: 5947 c53d 0ae9 9b3e 8266 0ebe c9aa 13bd
00000310: 4e74 09be 8ce9 9f3e cdb6 1b3d 17e5 38bd
00000320: a039 843c 5f1a 80bc 4676 c6bd 74c2 e43d
00000330: b831 cabd 735f 533e 5b90 33bd 742c 953c
00000340: 916e 583d 8a1d 8cbe 044e 2dbe 12de 3b3e
00000350: 6dd3 c6bd 78d0 673d 7e32 753d d7eb 10be
00000360: 860d 29bd 6a2d 3ebe 418a 863d 6a5d 823d
00000370: a915 173e 3ad0 923c 98c6 483e f241 693d
00000380: 870a 24be 6ba2 70bd 5554 933d 72a1 5c3d
00000390: cf31 23be 6e0b 48bd d4bc d33c 4b71 38be
000003a0: 63f0 353e df29 1bbe a75c be3c 6b0f 8c3d
000003b0: b5dc 7bbc 983a e63d 0918 f0bc 354c c2bd
000003c0: 41ea 53bc 93c3 8abd b949 833d d979 14be
000003d0: e622 95bb 1400 a43d 381b f33d 97e2 77bd
000003e0: f3cb 043d 03b4 57be f975 9a3d d904 17bd
000003f0: d3a3 023d af55 94bc cdcb 1fbe cb1d 543c

network_body._body_endoder.seq_layers.2.bias f4 [256]
-0.0010772182 -0.001465401 -0.00023748228 -0.0023210011 0.0003741283 -0.0013545998 -0.00096014375 -0.00064650655
-0.0012528804 -0.00088167965 -0.000956489 -0.0018732749 -0.0005782634 -0.0049311733 -0.0009095523 -0.0033410953
0.0012569464 -0.0009434733 -0.0003491965 0.00014246203 -0.00037960394 -0.000764978 -0.0003484512 -0.0024591414
-0.00015105313 0.0030897865 -0.0009794871 0.001411098 -0.0006627977 -0.00489546 -0.003028322 -0.00034691027
-0.00043427412 -0.0038301055 2.9761177e-05 -0.0013449942 -0.00032305377 -0.0010398763 -0.0033715814 0.0015120722
-0.00072190387 -0.0014163094 -0.0005936909 -0.0001195381 -0.0005754722 -0.00066231366 -0.0028977313 -0.001217219
-0.0020137893 0.00015971753 -0.0009104172 -0.0021470513 -0.0010479699 -0.0020963743 -0.001840962 -0.00071193965
0.0012450506 0.0010539194 0.00010429547 -0.00085703307 -0.00029861138 0.001283279 0.0016348672 -0.0013779086
-0.0013521512 -0.0012175879 0.0019981188 -0.0012386743 0.00068354397 0.002120045 -0.002721103 -0.0017320425
-0.0010366485 -0.0003091509 -0.0006270618 -0.0018436349 -0.00017331024 -0.002619236 -0.0022464148 0.0004915059
0.0001366284 -0.0004275413 -0.00041383365 -0.00071384513 0.00036723373 -0.00031325506 0.00032284186 -0.00078999024
-5.2399453e-05 -0.00042378868 -0.0004518745 -0.0009113434 -0.0018625284 0.00029603735 0.00034424083 -0.0011880252
-0.0007518192 -0.00020202571 0.0005821986 0.0014061335 -0.002171112 0.0019096709 0.0022342203 0.0005025238
0.00011871909 0.0013076693 -0.0011233034 -0.0024179681 0.00016201615 -0.0002189443 -0.0014416437 2.3206096e-05
-4.4840577e-05 -0.002753851 -0.00015630256 -0.0014609655 -0.0015640821 -0.0011483753 -0.00083066965 0.000604384
0.0005241114 -0.0020602194 -0.0010326102 -0.0005510281 4.2330128e-05 -0.000759169 0.0040495023 0.00021096863
-0.0031395652 -0.0010887266 -0.0022044675 -0.00016337476 4.10414e-05 -0.000378048 -0.0010299489 0.00074921217
0.0002480534 -0.0007022195 0.0025988948 0.00013667255 -0.0026066522 0.00013082114 0.00026361566 -0.00068509125
0.00014979279 -0.0018376396 0.00053186325 -0.00023797146 -0.00090955844 -0.0013111357 0.0014084765 -0.0021142415
-0.00052731886 -0.00014517608 0.0002336005 -0.0019598338 1.6022674e-05 0.0022475144 -0.00023329795 0.00040484092
-0.0008408971 -0.0011718418 -0.004047594 0.002865367 -0.0010954582 -0.0020618967 0.0014905181 -0.00047517056
-0.00035526583 -0.004663734 -0.0008658745 0.0006459835 -0.0010474764 -0.00081547885 0.0023774842 -0.0012824332
0.00025408558 0.0003501362 0.0023503567 -0.0008811969 -0.001169905 -0.0017732608 6.78172e-06 -0.0006614577
-0.00036253218 -0.0017078848 0.0007064072 -0.0013161735 -0.0017856254 -0.001043033 0.0033293911 -0.0007791206
-0.0013757328 0.001558432 -0.00043962157 -0.00027036492 -0.001203367 -0.0016206092 -0.00023001489 -0.0009615628
-0.0016396153 -0.00032695974 -0.00070204266 -0.0011755998 -0.0006710349 -0.0022590298 -2.1845488e-05 -0.0012761508
-3.0153136e-05 -0.0014853564 -0.002204294 -0.0005314187 -0.00088587624 0.00078037713 -0.0005640486 0.003111209
-0.0009537605 0.0013009199 -0.00096115336 -0.00019386467 0.0003020323 -0.0021019771 -0.0010287017 -0.0007826097
-0.0013491055 -0.00014628594 -0.002069118 -0.0011918985 6.338059e-05 -0.0014690704 -0.00137152 0.0007439934
0.0016165022 -0.0011649869 -0.0006577582 -0.0009203128 0.00020262004 -0.002286123 0.0012918261 -0.00064792664
-0.0008043238 0.0013864421 -0.00123537 -0.0010932635 0.0006805235 -0.0023709484 5.9281945e-05 0.00423117
-0.0017478499 -0.00089354 0.00015714073 -0.0010805423 0.00077026297 0.00092263217 0.00030948763 -0.002017039
00000000: 7231 8dba b312 c0ba aa04 79b9 f01b 18bb
00000010: a726 c439 d48c b1ba 28b2 7bba 527a 29ba
00000020: b137 a4ba 8520 67ba e4bc 7aba ad88 f5ba
00000030: 9a96 17ba ae95 a1bb 066f 6eba 47f6 5abb
00000040: 1fc0 a43a 6c53 77ba 5c14 b7b9 dc61 1539
00000050: 9405 c7b9 ce88 48ba 54b0 b6b9 8c29 21bb
00000060: 0464 1eb9 047e 4a3b 2262 80ba 98f4 b83a
00000070: 9abf 2dba 186a a0bb d076 46bb 82e1 b5b9
00000080: 49af e3b9 8202 7bbb a4a7 f937 844a b0ba
00000090: 8b5f a9b9 754c 88ba c0f5 5cbb b930 c63a
000000a0: 263e 3dba 75a3 b9ba eca1 1bba 87b0 fab8
000000b0: 49db 16ba 1e9f 2dba dde7 3dbb 188b 9fba
000000c0: c7f9 03bb d979 2739 10a9 6eba 8bb5 0cbb
000000d0: 095c 89ba 5363 09bb 6f4c f1ba 76a1 3aba
000000e0: f730 a33a ab23 8a3a 34b9 da38 84aa 60ba
000000f0: f18e 9cb9 b333 a83a 0a49 d63a f19a b4ba
00000100: aa3a b1ba 7897 9fba dff2 023b 035b a2ba
00000110: dc2f 333a 74f0 0a3b 8854 32bb b405 e3ba
00000120: 27e0 87ba 8815 a2b9 6861 24ba 1fa6 f1ba
00000130: 9dba 35b9 7da7 2bbb 9638 13bb 67d8 003a
00000140: e843 0f39 9f27 e0b9 d0f7 d8b9 5621 3bba
00000150: 4789 c039 623c a4b9 1a43 a939 5917 4fba
00000160: 7cc7 5bb8 f42f deb9 92e9 ecb9 38e7 6eba
00000170: 1520 f4ba 7635 9b39 397b b439 83b7 9bba
00000180: bc15 45ba ddd6 53b9 b09e 183a 034e b83a
00000190: 3749 0ebb ec4d fa3a ff6b 123b cdbb 033a
000001a0: d3f8 f838 1a66 ab3a cf3b 93ba c676 1ebb
000001b0: e1e2 2939 6a94 65b9 89f5 bcba b6aa c237
000001c0: 3413 3cb8 f479 34bb 26e5 23b9 de7d bfba
000001d0: e301 cdba 1585 96ba 4cc1 59ba 866f 1e3a
000001e0: 8564 093a bf04 07bb a658 87ba df72 10ba
000001f0: a18b 3138 f802 47ba b0b1 843b 7637 5d39
00000200: 2ac1 4dbb 9ab3 8eba d478 10bb 944f 2bb9
00000210: de23 2c38 be34 c6b9 5aff 86ba c766 443a
00000220: 2a0d 8239 2715 38ba 3852 2a3b c24f 0f39
00000230: 5ed4 2abb 082d 0939 e535 8a39 b297 33ba
00000240: b211 1d39 f4dc f0ba bd6c 0b3a fa87 79b9
00000250: 6f6f 6eba 6ada abba a19c b83a 168f 0abb
00000260: c53b 0aba 683a 18b9 a8f2 7439 8e70 00bb
00000270: 6e68 8637 094b 133b 71a1 74b9 d440 d439
00000280: a66f 5cba 7c98 99ba aea1 84bb e2c8 3b3b
00000290: 7a95 8fba e320 07bb 7d5d c33a 5020 f9b9
000002a0: f942 bab9 3dd2 98bb dbfb 62ba 3857 293a
000002b0: 7a4b 89ba dcc5 55ba 91cf 1b3b 5117 a8ba
000002c0: ca36 8539 7c92 b739 7108 1a3b 1f00 67ba
000002d0: 7f57 99ba c26c e8ba 888e e336 ad65 2dba
000002e0: 3f12 beb9 1bdb dfba 2f2e 393a 7483 acba
000002f0: a50b eaba 61b6 88ba ea31 5a3b e63d 4cba
00000300: ef51 b4ba 4d44 cc3a 027d e6b9 c4bf 8db9
00000310: 4cba 9dba 9f6a d4ba 2730 71b9 6311 7cba
00000320: 5ce8 d6ba cb6b abb9 4909 38ba 9516 9aba
00000330: 64e8 2fba 3b0c 14bb d440 b7b7 8444 a7ba
00000340: 5ef1 fcb7 4ab0 c2ba eb75 10bb e84e 0bba
00000350: 263a 68ba 3992 4c3a a9dc 13ba 6de5 4b3b
00000360: c905 7aba a183 aa3a e9f5 7bba 2748 4bb9
00000370: 175a 9e39 53c1 09bb 80d5 86ba 0c28 4dba
00000380: 78d4 b0ba 5564 19b9 0a9a 07bb 7a39 9cba
00000390: 32eb 8438 d38d c0ba 93c4 b3ba 8d08 433a
000003a0: d0e0 d33a 79b2 98ba 686d 2cba 2641 71ba
000003b0: 6776 5439 c8d2 15bb 7e52 a93a 9fd9 29ba
000003c0: 42d9 52ba 47b9 b53a 23ec a1ba d64b 8fba
000003d0: 2965 323a ea61 1bbb 81a5 7838 a0a5 8a3b
000003e0: 1c18 e5ba 743c 6aba 25c6 2439 fca0 8dba
000003f0: 79eb 493a ccdc 713a ba42 a239 4d30 04bb

network_body._body_endoder.seq_layers.2.weight f4 [256, 256]
-0.08951049 0.042979646 -0.05187277 -0.028760916 -0.07874766 -0.1291084 0.08857543 0.029433982
0.013608891 -0.03435465 -0.00993848 0.08298349 -0.014110297 0.0873974 -0.013191125 -0.013599359
0.0005150901 0.06844411 -0.087618604 -0.035975855 0.055234034 0.10562318 0.047576636 -0.071345456
0.0605209 -0.073953316 -0.0049189487 -0.087632395 -0.05560349 -0.08305371 0.013305875 -0.012296097
-0.0057784542 -0.20161907 0.027921867 0.083488524 -0.039433572 0.05885562 0.0030667759 0.07222834
-0.020739047 -0.023520986 0.029144388 0.022242675 -0.19710916 -0.03733104 -0.021131504 0.01741922
-0.07993875 0.008403318 0.061842844 0.11531489 -0.046238594 -0.008591816 0.14587036 -0.1321235
-0.010684848 -0.098416425 0.08479519 -0.06065634 0.008940954 0.025877235 0.03804526 0.016711555
-0.03701016 0.046865955 0.035466004 0.05666871 0.017494699 -0.0055785095 0.014761564 0.001627252
-0.03609046 -0.034272462 -0.05476902 -0.05622638 0.061249495 0.114140786 -0.112151235 -0.042685837
-0.086287186 -0.12639299 0.0066413702 -0.0050212755 -0.0056551676 0.045107983 0.06811399 -0.12275667
-0.008717713 0.06114381 -0.037657246 0.020017223 -0.010655245 0.0064693494 -0.047097895 -0.039813638
0.08252113 0.024655033 0.06945761 0.0463387 -0.01990275 0.009785307 0.06340681 -0.080320194
-0.12794533 0.05750663 -0.018028326 -0.009844201 -0.0032187826 -0.004306315 0.09763183 0.008517142
0.021663917 0.083025366 0.033520125 0.05209859 -0.021318983 0.020005982 0.014265198 0.029301144
-0.03820385 0.037220735 0.008007742 -0.075038284 0.027454449 0.055119943 -0.011135041 -0.08621634
-0.09222815 -0.08229434 0.0017942806 -0.035577845 -0.054526336 -0.03763752 0.099281035 0.0039137457
-0.010601216 0.020419495 -0.007278562 -0.028218493 0.027193919 0.03173474 0.07190816 -0.016141739
-0.051686116 -0.041559305 -0.057239067 0.0020581048 -0.03471371 -0.007679522 -0.11155317 -0.02676803
0.044688072 0.03878511 0.04379604 -0.0093337055 0.016649803 -0.10442565 0.08365374 -0.0162765
0.039557636 0.06019174 -0.030755458 0.10451047 0.12424877 -0.019110058 -0.005517712 0.09106217
0.061913583 0.026903708 -0.061129645 0.01628359 -0.100544125 0.046961997 0.09473086 -0.010649202
0.018008787 0.0035014567 -0.08595392 0.01141536 -0.12849917 -0.031327523 -0.0010814072 0.02538945
0.050077684 -0.11362421 -0.044077825 0.030230513 0.0052867904 -0.07326853 -0.111281656 0.028978651
0.037498545 0.051169265 -0.0067809047 -0.019979257 0.014537568 0.0027986604 0.03841095 0.013940271
0.0035260825 0.01321046 0.012372228 -0.055974197 -0.043768078 -0.091983505 -0.052539088 -0.026972897
-0.040608954 0.067488104 0.044717077 0.10617879 -0.16121541 -0.024791833 -0.0582752 -0.07573774
-0.012394599 -0.08994574 0.13230221 -7.259992e-05 0.03470923 -0.015346287 0.1294285 -0.12848581
-0.0039350656 0.032442108 -0.057170704 0.0039718514 0.02047796 0.038403142 0.008991965 -0.014100109
0.024679016 -0.0030846153 -0.057637915 -0.04689025 0.02656158 0.0045968117 -0.037748933 -0.019262776
-0.011174576 -0.00065682275 0.013743264 -0.03373645 0.031095788 0.008703954 -0.09542504 -0.044138473
0.079387255 0.06356171 -0.023343947 0.021692285 -0.018917931 0.006883198 -0.0042456975 -0.063590474
00000000: 4751 b7bd 6d0b 303d 8b78 54bd 039c ebbc
00000010: 7446 a1bd fe34 04be 0967 b53d 891f f13c
00000020: d3f7 5e3c 76b7 0cbd 02d5 22bc 3ff3 a93d
00000030: e02e 67bc 68fd b23d 971f 58bc d9cf 5ebc
00000040: 1d07 073a 6d2c 8c3d 6271 b3bd 6b5b 13bd
00000050: 153d 623d f750 d83d b8df 423d 911d 92bd
00000060: c3e4 773d d674 97bd 222f a1bb 9d78 b3bd
00000070: 7cc0 63bd 1018 aabd e200 5a3c 9275 49bc
00000080: 3059 bdbb 3b75 4ebe 66bc e43c 08fc aa3d
00000090: 1985 21bd 9712 713d f6fb 483b 74ec 933d
000000a0: efe4 a9bc 15af c0bc 36c0 ee3c 4536 b63c
000000b0: fcd6 49be 6fe8 18bd fa1b adbc c1b2 8e3c
000000c0: edb6 a3bd 12ae 093c ec4e 7d3d 372a ec3d
000000d0: ae64 3dbd b0c4 0cbc 0a5f 153e 624b 07be
000000e0: 800f 2fbc 8d8e c9bd 1aa9 ad3d c872 78bd
000000f0: 147d 123c 7ffc d33c 59d5 1b3d ace6 883c
00000100: f797 17bd 84f6 3f3d cd44 113d 731d 683d
00000110: 0b51 8f3c eecb b6bb 7dda 713c 8449 d53a
00000120: 97d3 13bd 4861 0cbd 7b55 60bd a24d 66bd
00000130: c0e0 7a3d a5c2 e93d 8caf e5bd 58d7 2ebd
00000140: 56b7 b0bd 2a6d 01be da9f d93b 8389 a4bb
00000150: fc4e b9bb 26c3 383d 597f 8b3d d967 fbbd
00000160: bdd4 0ebc ef71 7a3d 7c3e 1abd 29fb a33c
00000170: 5693 2ebc d6fc d33b b9e9 40bd a013 23bd
00000180: d700 a93d 5af9 c93c cb3f 8e3d a6cd 3d3d
00000190: 180b a3bc 8d52 203c 6edb 813d ea7e a4bd
000001a0: 1a04 03be 128c 6b3d 24b0 93bc 9249 21bc
000001b0: 36f2 52bb fd1b 8dbb 32f3 c73d 7c8b 0b3c
000001c0: 8778 b13c 3409 aa3d 664c 093d 5565 553d
000001d0: 26a5 aebc 96e3 a33c 94b8 693c f408 f03c
000001e0: a47b 1cbd c574 183d e832 033c acad 99bd
000001f0: 27e8 e03c 73c5 613d bf6f 36bc 3192 b0bd
00000200: 1de2 bcbd ef89 a8bd 112e eb3a 13ba 11bd
00000210: 0257 5fbd cd29 1abd db53 cb3d e13e 803b
00000220: b9b0 2dbc c946 a73c 0181 eebb 782a e7bc
00000230: c8c5 de3c 49fc 013d 9644 933d ae3b 84bc
00000240: d2b4 53bd 173a 2abd 8373 6abd 45e1 063b
00000250: f72f 0ebd 80a4 fbbb fd75 e4bd a148 dbbc
00000260: d70a 373d 23dd 1e3d 7a63 333d 66ec 18bc
00000270: 2b65 883c 1ddd d5bd a752 ab3d 4b56 85bc
00000280: 3007 223d 9d8b 763d dff2 fbbc 9609 d63d
00000290: 2476 fe3d b28c 9cbc eccd b4bb ce7e ba3d
000002a0: 1999 7d3d 2a65 dc3c 1463 7abd 2a65 853c
000002b0: 14ea cdbd 395b 403d 4102 c23d fe79 2ebc
000002c0: 2a87 933c b278 653b 9c08 b0bd 7d07 3b3c
000002d0: 4995 03be 4a51 00bd 01be 8dba 89fd cf3c
000002e0: 421e 4d3d cfb3 e8bd f38a 34bd fba5 f73c
000002f0: d03c ad3b d00d 96bd a3e7 e3bd a364 ed3c
00000300: 1398 193d dd96 513d 5a32 debb 8aab a3bc
00000310: fb2e 6e3c bb69 373b cd54 1d3d bc65 643c
00000320: d915 673b af70 583c e3b4 4a3c 3345 65bd
00000330: 2846 33bd d961 bcbd 3a33 57bd 44f6 dcbc
00000340: 9355 26bd 3437 8a3d 4129 373d 4474 d93d
00000350: a715 25be 3e18 cbbc fab1 6ebd 631c 9bbd
00000360: b712 4bbc 7935 b8bd 3b7a 073e c940 98b8
00000370: 442b 0e3d fe6e 7bbc e888 043e c991 03be
00000380: b9f1 80bb 04e2 043d d42b 6abd 4e26 823b
00000390: 65c1 a73c 9d4c 1d3d 0953 133c 2504 67bc
000003a0: a62b ca3c 4227 4abb bc15 6cbd fe0f 40bd
000003b0: ac97 d93c daa0 963b a09e 1abd f8cc 9dbc
000003c0: 9215 37bc a12e 2cba 6d2b 613c 3b2f 0abd
000003d0: 98bc fe3c 079b 0e3c 346e c3bd 8bca 34bd
000003e0: c995 a23d a42c 823d ce3b bfbc 05b4 b13c
000003f0: c7f9 9abc 738c e13b 7e1f 8bbb b93b 82bd
