results/Exp4_FullDynamic_Net128_LR1e-4/AgentSphereBehavior/AgentSphereBehavior-51962.pt (torch, 761935 bytes, 39 tensors)

network_body._body_endoder.seq_layers.0.weight f4 [128, 110]
0	0xbc6414e4	-0.013920996
1	0x3df96b15	0.121786274
2	0x3da3cb0a	0.07997711
3	0x3cf3d269	0.029763417
4	0x3e00dce0	0.12584257
5	0xbe1ad80b	-0.15121476
6	0xbd1b7347	-0.037951734
7	0x3dedbf4a	0.11608751
8	0xbd387fe9	-0.04504386
9	0x3c13d0d7	0.009021959
10	0xbda403a4	-0.08008507
11	0x3d99d806	0.07511906
12	0x3e0845ed	0.13307925
13	0xbdcf81a9	-0.101321526
14	0xbd96a064	-0.07354811
15	0xbd806b01	-0.062704094
16	0x3c1428b3	0.009042907
17	0x3d8a6a57	0.06758564
18	0x3e0c113e	0.13678452
19	0xbc30fb55	-0.01080211
20	0x3e34b82a	0.17648378
21	0xbd34ebcd	-0.04417019
22	0x3daa0655	0.08301989
23	0x3ce1f5f7	0.027583105
24	0xbd293e1b	-0.041318994
25	0xbe036505	-0.12831505
26	0xbd5cd825	-0.05391707
27	0x3ce098dd	0.02741664
28	0xbe407abf	-0.18796824
29	0xbdfcfdd0	-0.123530984
30	0x3dfbf78e	0.12303077
31	0xbdf86ebb	-0.12130495
32	0x3cd14f4b	0.025550505
33	0xbd9c2395	-0.07623974
34	0xbcefc6e8	-0.02926965
35	0xbde186b3	-0.1101202
36	0xb9ade6c3	-0.00033169062
37	0xbc22be04	-0.009932999
38	0x3bde5ad8	0.0067857318
39	0x3e2eb15d	0.17059846
40	0x3cd1971e	0.025584754
41	0x3d1d51b6	0.038408004
42	0xbe06460f	-0.13112663
43	0x3d3fcc84	0.0468259
44	0xbd639740	-0.055564165
45	0x3e658756	0.22414908
46	0xbe041d10	-0.12901711
47	0x3e06b4ad	0.1315486
48	0x3d6fb788	0.05852464
49	0x3e27b1fd	0.16376491
50	0xbe07996e	-0.13242123
51	0x3d184e47	0.037184026
52	0x3dad09d5	0.08449141
53	0xbcbb53d0	-0.022867113
54	0x3e0c2e21	0.13689472
55	0xbd9f3f3a	-0.077757314
56	0x3d3aa7e4	0.04557027
57	0xbcb4956d	-0.022043908
58	0x3b3c0002	0.0028686528
59	0xbd9ceb81	-0.07662106
60	0x3d53ee7a	0.0517411
61	0xbd1a24f0	-0.037632883
62	0xbe1486e4	-0.14504582
63	0xbe0191f3	-0.12653331
64	0x3b794da5	0.0038040665
65	0x3d157633	0.036489677
66	0x3e524eb8	0.20537841
67	0x3d938b0d	0.07204256
68	0xbe02904c	-0.12750357
69	0xbdc3d4ba	-0.09562059
70	0x3d9a3921	0.07530428
71	0x3dce3428	0.10068542
72	0xbc3cdeb7	-0.011527709
73	0xbc099fab	-0.008399884
74	0xbe25a9f1	-0.16178109
75	0xbbbd5672	-0.0057781273
76	0xbb9113af	-0.0044273953
77	0xbdeeb1e5	-0.116550244
78	0xbe05f9ef	-0.13083623
79	0x3e20119c	0.15631717
80	0xbd83c00c	-0.064331144
81	0x3dea3424	0.11435726
82	0x3d68dc76	0.056850873
83	0xbc3241ef	-0.010879978
84	0x3ca6625c	0.020310573
85	0x3c65c12d	0.0140231075
86	0xbd66b0f3	-0.056321096
87	0xbcd3e32d	-0.025865162
88	0xbd97b541	-0.07407618
89	0xbceb3bc7	-0.028715027
90	0xbccfe7ab	-0.025379023
91	0x3cf00de2	0.029303495
92	0xbb0c46a9	-0.0021404421
93	0x3de8e817	0.113723926
94	0xbdd24eb9	-0.102689214
95	0x3d58fb6f	0.05297416
96	0x3cca8824	0.02472312
97	0x3d2b03c0	0.041751623
98	0x3c8c9488	0.017160669
99	0xbcbaad57	-0.022787733
100	0xbd1203cc	-0.035648152
101	0x3dbd79dd	0.09251759
102	0xbcd506fe	-0.02600431
103	0xbe03fb1f	-0.12888764
104	0xbe1e05e4	-0.15431935
105	0xbe733c36	-0.23753437
106	0xbdbdd561	-0.092692144
107	0x3d0ccbd9	0.03437409
108	0x3e88b437	0.26699993
109	0x3d8a13a3	0.06742027
110	0x3da7fdd8	0.08202714
111	0xbcea4e7e	-0.028601881
112	0xbca82199	-0.020523833
113	0xbd323bef	-0.04351419
114	0x3e16f133	0.14740448
115	0x3cb2d42c	0.021829687
116	0xbdf7fad1	-0.12108386
117	0x3c7ef12b	0.015560429
118	0x3d64ed4d	0.05589037
119	0x3d890995	0.06691281
120	0xbc996f89	-0.018729942
121	0xbd353d6d	-0.044248033
122	0xbcf01e78	-0.029311404
123	0x3d0b1500	0.033955574
124	0x3e70552e	0.23469993
125	0xbda65e44	-0.081234485
126	0xbd54600f	-0.05184942
127	0xbd864d93	-0.06557765
128	0xbdacc0eb	-0.08435234
129	0x3da512a6	0.080601975
130	0xbd6c3e51	-0.057676617
131	0xbe5dbaae	-0.21653244
132	0x3e054afa	0.13016883
133	0xbe06844d	-0.13136406
134	0xbd04755e	-0.032338493
135	0x3e823218	0.25428843
136	0x3d213c92	0.039364405
137	0x3d941efd	0.07232473
138	0x3dd044fd	0.101694085
139	0x3db02e35	0.08602563
140	0x3aeae4e7	0.0017921001
141	0x3d9bd23a	0.07608457
142	0xbd7b43de	-0.06134402
143	0xbd15da92	-0.036585398
144	0x3c9544e9	0.018221335
145	0x3c8085ab	0.015688738
146	0x3d9fd303	0.07803919
147	0xbe19b31b	-0.1500973
148	0xbe613a15	-0.21994813
149	0x3dc152f3	0.094396494
150	0xbe20631c	-0.15662807
151	0xbe15625b	-0.14588301
152	0x3a952773	0.0011379555
153	0xbd3b9742	-0.045798548
154	0xbc95ea5b	-0.018300226
155	0x3e01d364	0.12678295
156	0xbe205918	-0.15658987
157	0x3d79c076	0.06097456
158	0x3ca9bd0e	0.020720031
159	0xbd54c941	-0.051949743
160	0xbdc25bab	-0.094901405
161	0x3d2b9deb	0.04189865
162	0xbdd5467b	-0.10413834
163	0xbe0c3e53	-0.1369565
164	0x3e82703a	0.25476247
165	0x3d1f6a26	0.03891959
166	0xbe7a1bf3	-0.24424724
167	0x3e319472	0.17341784
168	0xbd91dae6	-0.0712183
169	0x3cf3e9c2	0.02977455
170	0x3df1fe1d	0.118160464
171	0xbe18c193	-0.14917593
172	0xbd6ba119	-0.05752668
173	0x3df53384	0.119727165
174	0x3e017095	0.12640603
175	0x3e51f431	0.20503308
176	0xbd7f38fd	-0.062310208
177	0x3cbb43fa	0.022859562
178	0xbcf64ba4	-0.030065365
179	0xbd02a69c	-0.031897172
180	0x3d9580e3	0.07299974
181	0xbd13c0b5	-0.03607245
182	0x3d4d0d94	0.050061777
183	0x3d3613a0	0.04445231
184	0x3e2361eb	0.15955321
185	0x3dfff8b2	0.12498607
186	0x3d60e88b	0.05490927
187	0x3bf5f5c2	0.0075061033
188	0x3d82599d	0.063647486
189	0x3c856fe3	0.016288703
190	0x3e091f62	0.13390878
191	0x3c8590a6	0.016304325
192	0x3de75f19	0.11297435
193	0xbdfdd1f0	-0.12393558
194	0x3d40a25e	0.047029845
195	0x3c9e29d5	0.019307056
196	0xbe582df1	-0.21111275
197	0x3d1a54c3	0.03767849
198	0x3e01c422	0.12672475
199	0x3cdbda40	0.026837468
200	0xbd55f8fe	-0.05223941
201	0xb949ee2a	-0.00019257577
202	0xbd07d257	-0.03315958
203	0xbe07e52d	-0.13271017
204	0xbb2daa33	-0.0026499152
205	0xbda82b45	-0.08211378
206	0xbe6b3271	-0.2296846
207	0x3c35a5b2	0.011086868
208	0x3e342f36	0.17596135
209	0x3e03149e	0.12800834
210	0x3dffcf56	0.12490718
211	0xbd8ece6d	-0.06972966
212	0x3c28f74b	0.0103128655
213	0x3d963f83	0.07336333
214	0x3c804f2b	0.01566275
215	0x3e061f9d	0.13097997
216	0xbcc90826	-0.024540018
217	0x3ce0f43f	0.027460216
218	0xbd6aa9f2	-0.05729098
219	0x3d3fcea1	0.046827916
220	0x3e1b5923	0.15170722
221	0x3d8d247b	0.06891724
222	0xbe004aed	-0.12528582
223	0xbe116bcb	-0.14201276
224	0xbdee418a	-0.11633594
225	0xbb725185	-0.003697486
226	0xbc8dedf7	-0.017325385
227	0xbd512bee	-0.051067285
228	0x3dc4e315	0.09613625
229	0xbdb535a6	-0.08848123
230	0x3e11392e	0.14181969
231	0xbe2e8525	-0.17042978
232	0xbd9dc4f9	-0.07703585
233	0x3dcbaa06	0.09944539
234	0x3daaea76	0.08345501
235	0x3d525550	0.05135089
236	0x3c910e2e	0.017706957
237	0x3df309b4	0.11867085
238	0xbe21a745	-0.15786465
239	0xbe08d6cc	-0.13363189
240	0x3e416e5e	0.18889758
241	0xbd9d26c5	-0.0767341
242	0xbda965de	-0.08271383
243	0x3d348237	0.044069495
244	0x3cfa30f7	0.030540926
245	0xbe487e62	-0.19579461
246	0xbdeb1b23	-0.11479785
247	0xbca1788e	-0.019710805
248	0x3e14a076	0.14514336
249	0xbe24ac95	-0.1608146
250	0xbccf82a9	-0.025330858
251	0x3dbaafd7	0.0911557
252	0x3cc3c0bd	0.023895616
253	0xbe2384d0	-0.15968633
254	0x3d109c9e	0.03530561
255	0x3c87792d	0.016537273

network_body._body_endoder.seq_layers.0.bias f4 [128]
0	0x3c295c2d	0.010336918
1	0x3c6f27eb	0.0145969195
2	0xbba700ee	-0.0050965464
3	0xbbd7f350	-0.0065902844
4	0xbc6aff58	-0.014343105
5	0xbc275929	-0.0102141285
6	0xbbde2851	-0.0067797084
7	0x3aa897bb	0.0012862602
8	0xbc08bbb5	-0.008345534
9	0xbc0ddd8f	-0.008658781
10	0x3bf3323a	0.007421759
11	0x3aebe78e	0.0017998086
12	0xbbe69972	-0.007037335
13	0x3bb3c143	0.005485685
14	0x3bd0b068	0.0063686855
15	0xbc7249c2	-0.014788093
16	0x3b9d177b	0.004794059
17	0x3c49f680	0.012326837
18	0x3b292fa1	0.0025815743
19	0x3aafed5d	0.001342218
20	0x3b244718	0.002506679
21	0x3c974b78	0.018468603
22	0xbca0d0b4	-0.019630767
23	0xba85f588	-0.0010220269
24	0x3b9adb6a	0.004725863
25	0xbc10279c	-0.008798506
26	0x3bc58e7a	0.0060289474
27	0x3c65b949	0.014021226
28	0x3beeb016	0.0072841747
29	0x3c60cfe6	0.013721442
30	0xb99c53a8	-0.00029816967
31	0x3c191315	0.009342928
32	0x3c463f7d	0.012100098
33	0xbc61d076	-0.013782611
34	0x3c84dbec	0.016218148
35	0xbbb56cf6	-0.005536671
36	0x3c0aa84f	0.008462979
37	0xbc2b3ee6	-0.010452008
38	0x3c4f8eb1	0.012668298
39	0x3aa62825	0.0012676759
40	0xbb48804a	-0.0030594044
41	0xbc3f5579	-0.011678093
42	0xbbdefb69	-0.006804873
43	0xbc083604	-0.00831366
44	0x3c1650d5	0.009174545
45	0x3c2464af	0.01003377
46	0x3bfc8b5d	0.007707043
47	0x3b26d059	0.0025453775
48	0xbc80f3dc	-0.015741281
49	0x3a3b5b57	0.00071470946
50	0xbc3ee51b	-0.011651303
51	0xbba76dd8	-0.00510953
52	0x3aa5fc74	0.0012663738
53	0x3c35fec5	0.011108105
54	0x3af093ea	0.0018354629
55	0x3b13cf06	0.0022553816
56	0xbb859ee4	-0.004077779
57	0x3b6a0a35	0.003571165
58	0x3c774e5a	0.015094364
59	0xbb103248	-0.0022002626
60	0xbb8cf354	-0.004301468
61	0xbc827371	-0.015924187
62	0x3b773f1f	0.0037726832
63	0x3c1f20ff	0.009712457
64	0xbc5c7366	-0.0134552475
65	0x3c806490	0.015672952
66	0x3a2f3bc4	0.0006684626
67	0x3b5bd37e	0.0033542807
68	0xbc91b959	-0.017788576
69	0x3c365d65	0.011130665
70	0xbc7de294	-0.015495915
71	0x3ae4f96c	0.0017469353
72	0x3a01ef58	0.00049566245
73	0x3c5d6828	0.013513602
74	0x3bd7c9bf	0.0065853293
75	0x3c08be2b	0.008346121
76	0xbc3e7fff	-0.011627196
77	0x3a5a9bb7	0.00083392434
78	0xbb4e7ed7	-0.0031508708
79	0x3c051720	0.008123189
80	0xbc6d33bc	-0.0144776665
81	0x3be67159	0.007032555
82	0xbb9b8ae5	-0.004746782
83	0x3bd9a57d	0.006642042
84	0xbbc3ce81	-0.005975545
85	0xbc0acbfc	-0.008471485
86	0xbbea434c	-0.0071491357
87	0xbc449c39	-0.012000137
88	0xbb4da9de	-0.0031381766
89	0x3b1fc6ae	0.0024379897
90	0xbb9c3b05	-0.004767778
91	0x3b9d4097	0.0047989595
92	0x3c824b14	0.01590494
93	0x3b6fb89c	0.0036578542
94	0xbbf8880b	-0.007584577
95	0xbbf145d1	-0.007363059
96	0x3c45cee3	0.012073251
97	0xbc1d4d6a	-0.0096009765
98	0xbbd71b08	-0.0065645017
99	0xbc74801d	-0.014923123
100	0x3c3d13d4	0.011540372
101	0xbbad9f15	-0.005298505
102	0x3b69ccb2	0.0035674986
103	0x3c8a21fc	0.016861908
104	0x3c20b8e3	0.009809705
105	0xba3148a6	-0.00067628396
106	0x3c8f8e6c	0.017523967
107	0x3c105215	0.008808632
108	0x3c0abba6	0.00846759
109	0xbc313e6b	-0.010818104
110	0xbc021d59	-0.007941567
111	0x3c88ac6b	0.016683778
112	0xbaf151f3	-0.0018411264
113	0x3ae69bfb	0.0017594093
114	0xbc107c37	-0.008818678
115	0x3b8d0010	0.004302986
116	0xbbba234c	-0.0056804772
117	0x3c2ac43b	0.010422762
118	0xbc268753	-0.0101641
119	0x3b09cec7	0.002102779
120	0xbc18e8b9	-0.009332829
121	0xbc1d1510	-0.009587541
122	0xbc9e259d	-0.019305045
123	0xbc02911e	-0.007969169
124	0x3bfc4b61	0.0076994156
125	0x3b2f1850	0.0026717372
126	0xbc06bada	-0.00822326
127	0xbbc22284	-0.0059245247

network_body._body_endoder.seq_layers.2.weight f4 [128, 128]
0	0x3da79818	0.081833065
1	0xbcc9413d	-0.02456724
2	0x3ddfc4dd	0.109262206
3	0x3cb9bf51	0.022674235
4	0xbd2c4cf2	-0.04206557
5	0xbdb97475	-0.090554155
6	0xbe287ed8	-0.16454637
7	0xbe082ff4	-0.13299543
8	0xbdee7ade	-0.11644529
9	0xbd98d0b2	-0.074616805
10	0x3d9483d3	0.07251706
11	0x3e5be1aa	0.21472803
12	0xbd063110	-0.032761633
13	0xbe5e7023	-0.21722464
14	0x3c023f87	0.007949716
15	0x3dd95e45	0.106136836
16	0x3dfbfdca	0.12304266
17	0xbe02fd4a	-0.12791935
18	0x3c3f7891	0.01168646
19	0xbd99b229	-0.075046845
20	0x3dbad9fe	0.0912361
21	0xbdd2eb82	-0.10298826
22	0xbd7edd3b	-0.0622227
23	0xbdb196c1	-0.08671332
24	0xbdbc3057	-0.091889076
25	0xbaa0c4ed	-0.001226572
26	0x3d2bb392	0.0419193
27	0xbd8f5312	-0.06998266
28	0xbb09894a	-0.0020986372
29	0x3d47c89c	0.0487753
30	0xbddd8bde	-0.10817693
31	0x3d9faca5	0.07796601
32	0xbd3089d0	-0.04310018
33	0xb84eba18	-4.928754e-05
34	0xbc7d16e3	-0.015447351
35	0xbe58135c	-0.21101135
36	0x3c81eaa0	0.015858948
37	0x3e19167a	0.1494998
38	0xbc95a82c	-0.018268667
39	0xbc3e80ff	-0.011627435
40	0x3daee86a	0.08540423
41	0xbc047c2e	-0.008086247
42	0xbd8fad8a	-0.07015522
43	0xbd67fb4a	-0.056636132
44	0x3ca76535	0.020434001
45	0xbd1199c0	-0.035547018
46	0xbd8efe81	-0.069821365
47	0xbe24211b	-0.16028254
48	0xbc43c037	-0.011947683
49	0x3d947314	0.07248512
50	0xbddc091d	-0.10743926
51	0x3e0bef97	0.13665615
52	0x3e0287e0	0.12747145
53	0xbe0cbac0	-0.13743114
54	0xbca97cc7	-0.020689381
55	0xbd17759f	-0.036977407
56	0x3e05d88a	0.13070884
57	0x3cba9212	0.02277473
58	0x3dbbec05	0.091758765
59	0xbcc64d11	-0.02420667
60	0x3e3bf720	0.1835599
61	0xbdba39ec	-0.09093079
62	0x3de7eeff	0.11324882
63	0x3cc7591f	0.024334488
64	0xbc27c539	-0.010239893
65	0x3e31d934	0.17368013
66	0x3e0461d4	0.12927943
67	0xbd4ecf95	-0.050490934
68	0x3d12f967	0.03588238
69	0x3dcce76f	0.1000508
70	0x3d766a7c	0.060160145
71	0xbd1fdff9	-0.039031956
72	0xbe853e63	-0.2602416
73	0x3ddf349a	0.10898705
74	0x3d0bb550	0.03410846
75	0xbd51f743	-0.051261198
76	0x3cb1c314	0.021699466
77	0xbc8bab25	-0.017049382
78	0x3d52414e	0.05133181
79	0xbc869eb0	-0.01643309
80	0xbdbbd42b	-0.09171327
81	0x3dabd468	0.08390123
82	0xbda4f1d6	-0.08053939
83	0xbb53d657	-0.0032323801
84	0x3db08f39	0.086210676
85	0xbd35368e	-0.04424148
86	0xbdf15cf4	-0.117853075
87	0xbdf58e67	-0.11990052
88	0xbdef36a2	-0.11680342
89	0xbc90cc9a	-0.017675687
90	0x3df0cd74	0.11757937
91	0xbde6adf7	-0.1126365
92	0xbde35a5c	-0.11101219
93	0xbd493e98	-0.04913196
94	0x3daba927	0.083818726
95	0x3dd6db2e	0.10491024
96	0xbd765440	-0.06013894
97	0xbe1558b0	-0.14584613
98	0xbb5065ac	-0.0031798882
99	0xbcbae842	-0.022815827
100	0x3d5b99fa	0.05361364
101	0x3d9965f3	0.074901484
102	0x3d0eb646	0.0348418
103	0xbd4d601f	-0.050140496
104	0xba30ac6e	-0.0006739561
105	0x3c6eaac9	0.014567086
106	0xbcdef961	-0.027218523
107	0x3d6706d9	0.056403015
108	0x3da51832	0.080612555
109	0x3e0447e4	0.12918049
110	0xbd6d09d7	-0.057870712
111	0xbddff8b4	-0.10936108
112	0xbd1915f8	-0.037374467
113	0x3cdfb1e6	0.027306508
114	0xbd7a1328	-0.061053425
115	0x3cd702f8	0.026246533
116	0x3d8e7add	0.06957028
117	0x3d6cfe6a	0.057859816
118	0x3db7df25	0.08978108
119	0x3d29af6c	0.04142706
120	0x3daae56d	0.08344541
121	0xbce91f2a	-0.028457243
122	0xbca74ceb	-0.02042242
123	0xbc224ec5	-0.009906475
124	0xbd2826f1	-0.041052762
125	0x3b0dc999	0.0021635054
126	0x3d04f38b	0.032458823
127	0x3dcbc8ec	0.09950432
128	0x3cc1756d	0.023615563
129	0x3be6bfa5	0.007041889
130	0x3d0fe8d1	0.03513414
131	0xbc0a7602	-0.008450987
132	0xbdbcbc24	-0.092155725
133	0x3dc1bcdc	0.0945985
134	0xbc8c472c	-0.017123781
135	0x3cde2d68	0.02712126
136	0xbd64a9cd	-0.055825997
137	0xbcde2720	-0.027118266
138	0x3d845028	0.06460601
139	0x3da88b32	0.082296744
140	0xbdb40cbb	-0.08791491
141	0xbb636fff	-0.0034704206
142	0x3c8b58b8	0.017010078
143	0xbd32185f	-0.043480273
144	0x3d73204f	0.059356984
145	0x3d3d0cdf	0.046154853
146	0xbe20771b	-0.15670435
147	0x39bf9aa0	0.00036545563
148	0xbda24a98	-0.07924384
149	0xbe65fe61	-0.22460319
150	0x3da5952b	0.08085092
151	0xbc06f8ef	-0.008238061
152	0x3c4dd489	0.012562879
153	0x3d355134	0.044266894
154	0xbe2a37a6	-0.1662279
155	0x3e2c6db0	0.16838717
156	0x3dfa859b	0.122325145
157	0x3e0de486	0.13856706
158	0xbcde3f0c	-0.027129672
159	0xbbec18a4	-0.007205086
160	0xbdc61b35	-0.09673158
161	0x3dd02819	0.10163898
162	0x3de7f24b	0.113255106
163	0xbd806ba8	-0.06270534
164	0xbc9b9e61	-0.01899642
165	0xbe1a7b6f	-0.15086149
166	0xbce31a4a	-0.027722497
167	0x3dc0a231	0.094059356
168	0x3da34058	0.07971257
169	0x3d3792e8	0.044817835
170	0xbd9e0376	-0.07715504
171	0xbb589c52	-0.0033052159
172	0xbda4276b	-0.08015331
173	0x3d40db37	0.04708406
174	0xbc000cbe	-0.007815538
175	0xbc0841bc	-0.008316454
176	0xbd2b95bb	-0.04189084
177	0x3d82d15a	0.06387587
178	0x3ccc5529	0.024942951
179	0xbd2398b6	-0.03994056
180	0xbe062200	-0.13098907
181	0xbdeb1f63	-0.11480596
182	0xbb8360c6	-0.004009339
183	0xbdf568cf	-0.11982881
184	0xbd0db26b	-0.03459398
185	0xbd402d81	-0.046918396
186	0xbbcab1b1	-0.0061857332
187	0x3b2720e3	0.002550178
188	0x3c943b14	0.018094577
189	0x3d13f12c	0.03611867
190	0xbd4b07f2	-0.049568124
191	0x3c056bb7	0.008143357
192	0x3c90b634	0.017665006
193	0xbdaa4d5b	-0.08315536
194	0x3de82828	0.11335784
195	0xbd10166c	-0.035177633
196	0x3d14fa2b	0.03637139
197	0x3b9be4ae	0.0047574854
198	0xbdca05dc	-0.09864399
199	0x3db4ef22	0.088346735
200	0x3deda4b3	0.116036795
201	0xbdde2ef9	-0.10848803
202	0x3d5d43e5	0.054019827
203	0x3d96ec06	0.07369237
204	0x3d151fde	0.036407344
205	0x3dfcb9e7	0.123401456
206	0xbd9b2b14	-0.07576576
207	0x3dc281ad	0.0949739
208	0x3ce6d24d	0.028176451
209	0xbda446ac	-0.08021292
210	0xbd258279	-0.04040763
211	0xbd770131	-0.06030387
212	0xbda43ba4	-0.08019188
213	0xbcf42e6a	-0.029807288
214	0x3e49a890	0.19693208
215	0xbd6fbb5a	-0.05852828
216	0xbd436a5c	-0.047708854
217	0xbd91e96f	-0.07124602
218	0xbddac30f	-0.10681736
219	0x3bdd75e3	0.006758438
220	0x3c282e7c	0.010264989
221	0xbdf70f3d	-0.12063453
222	0x3c7fc69c	0.015611317
223	0xbc1c1e02	-0.009528639
224	0xbba2de6e	-0.0049703633
225	0xbb82b29d	-0.0039885775
226	0x3d842a6f	0.06453406
227	0xbe4cdea9	-0.20006813
228	0x3d88eae6	0.06685428
229	0xbb0400aa	-0.0020141997
230	0xbcebcf89	-0.028785484
231	0xbd7022c0	-0.05862689
232	0x3de4ecc7	0.11177974
233	0xbd929b09	-0.07158477
234	0x3dd67286	0.10471062
235	0xbdaec3b7	-0.085334234
236	0x3e2150e9	0.15753521
237	0x3dd3bbaa	0.103385285
238	0x3ca8ba4a	0.020596642
239	0xbd8645cc	-0.065562814
240	0xbd67105e	-0.056412093
241	0x3bd3a028	0.006458301
242	0xbd80fe38	-0.062984884
243	0xbcc98ab7	-0.024602277
244	0x3e0edaea	0.13950697
245	0x3cc7f3e1	0.024408283
246	0x3d953066	0.07284622
247	0xbccf2b89	-0.025289314
248	0xbdc16849	-0.09443719
249	0x3e2aef21	0.16692783
250	0xbdd5cf68	-0.1043995
251	0x3d503275	0.05082937
252	0x3e180e4a	0.14849201
253	0xbd8d0509	-0.06885726
254	0x3d2bedd9	0.041974876
255	0xbdabb56f	-0.08384215

network_body._body_endoder.seq_layers.2.bias f4 [128]
0	0x3c5d442c	0.013505023
1	0x3c375018	0.011188529
2	0x3c290649	0.01031644
3	0x3b0754a1	0.0020649808
4	0x3c728b7c	0.0148037635
5	0x3c448978	0.011995666
6	0xbbd714bc	-0.006563751
7	0x3bdc71f5	0.006727452
8	0xbc3727fb	-0.011178966
9	0x3c465bc5	0.0121068405
10	0x3b1b0ed8	0.002365997
11	0xba0fd68a	-0.0005486986
12	0x3c877dc1	0.016539456
13	0x3c8462b2	0.016160343
14	0xbc20fa31	-0.009825275
15	0x3c569015	0.013095875
16	0xbc1879eb	-0.009306411
17	0xbb329e6a	-0.0027255067
18	0x3ba6fa9d	0.0050957934
19	0x3ca77158	0.020439789
20	0x3aa48ed1	0.001255477
21	0x38af60b0	8.36266e-05
22	0xbc894a2e	-0.016759004
23	0xbc19b2ca	-0.009381006
24	0xbc30e853	-0.010797578
25	0x3c5ca095	0.01346602
26	0x3c0b76b2	0.008512186
27	0x3c470656	0.012147507
28	0xbaa23b07	-0.0012377211
29	0xbc260a25	-0.010134255
30	0x3b9d80ae	0.0048065996
31	0x3c5a4d3c	0.013324078
32	0x3c9a8446	0.018861901
33	0x3c3e7745	0.011625116
34	0x3c5a4def	0.013324245
35	0x3b3b31e0	0.0028563663
36	0x3c439f24	0.011939798
37	0x3c66c568	0.014085151
38	0xbc3646a0	-0.011125237
39	0x3b868a1c	0.0041058194
40	0x3c436023	0.011924776
41	0xbbe71d29	-0.0070530367
42	0x3c3dd868	0.01158724
43	0xbc49ffef	-0.012329086
44	0xbbcf3a34	-0.006324077
45	0x3c70d9e3	0.014700386
46	0xbc055441	-0.0081377635
47	0x3be3f9b6	0.006957258
48	0x3b97efd9	0.0046367464
49	0xbb76eee9	-0.0037679023
50	0xbb991f27	-0.004672903
51	0x3ca8cf6a	0.020606715
52	0x3c6649da	0.0140556935
53	0xbc5badc9	-0.013408133
54	0xbb82ac29	-0.0039878082
55	0xbbdf1913	-0.006808409
56	0x3ca177b1	0.019710394
57	0x3be08aee	0.006852499
58	0x3b64468d	0.003483209
59	0x3b9f9bdc	0.004870875
60	0x3b61fddb	0.0034483585
61	0x3b13bdcf	0.0022543555
62	0xbc110ba4	-0.008852873
63	0x3c4196ef	0.0118157705
64	0x3c17873d	0.009248552
65	0xbc120fff	-0.008914947
66	0x3bbf371a	0.005835426
67	0x3940f21f	0.00018400744
68	0xbc169a4f	-0.0091920635
69	0x3c4dafa5	0.012554084
70	0x3c588071	0.013214217
71	0x3b2c6c47	0.0026309656
72	0xbb9c7750	-0.0047749653
73	0x3c7a3ff1	0.015274034
74	0x3bc6faa5	0.0060723596
75	0xbc462689	-0.012094148
76	0xbc28b315	-0.010296603
77	0x3c774965	0.015093182
78	0x3c1ff957	0.009764037
79	0xbaee25cc	-0.0018169223
80	0x3c1566d7	0.009118757
81	0xbc4cf0a1	-0.012508542
82	0xbc5c64ad	-0.013451737
83	0xbc42ab30	-0.011881635
84	0x3c757a54	0.014982779
85	0xbc04a94a	-0.008097002
86	0xbb8d27a8	-0.004307706
87	0xbba1aaf1	-0.004933708
88	0xbbe7d5f6	-0.0070750667
89	0x3b9b3295	0.0047362545
90	0xbc1e947b	-0.009678955
91	0xbb6a12d0	-0.003571678
92	0xba010235	-0.00049212883
93	0xbba798d4	-0.005114654
94	0x3ca1056f	0.019655911
95	0x3c99fe0e	0.0187979
96	0x3b9f4c55	0.0048613944
97	0x3ae48ea7	0.0017437533
98	0x3b374eb0	0.0027970485
99	0x3b4cd7a6	0.0031256466
100	0xbc5eb2fa	-0.013592476
101	0xbc5e60c9	-0.01357288
102	0xbc334d9f	-0.010943799
103	0x3bff03f2	0.0077824527
104	0x3c2af430	0.010434195
105	0xbc813b9c	-0.015775494
106	0xbc195dec	-0.009360772
107	0xbb85f22d	-0.0040877075
108	0xbb99dec6	-0.004695746
109	0xbc091e24	-0.0083690025
110	0x3c0e6dfe	0.008693216
111	0xbc06cd25	-0.008227621
112	0xbc773eac	-0.015090626
113	0xbc50a34a	-0.012734244
114	0xbc52ca1d	-0.01286557
115	0x3af47128	0.0018649446
116	0xbbde24df	-0.0067792977
117	0xbb844bb1	-0.0040373434
118	0xbc61f372	-0.013790952
119	0xbc3b8585	-0.011445408
120	0x3c041078	0.008060567
121	0x3bae9fb6	0.0053290976
122	0x3b9aa39e	0.0047192117
123	0xbc5d2feb	-0.013500194
124	0x3c146847	0.009058065
125	0xbbdf0ea2	-0.0068071643
126	0x3c3c39cb	0.011488388
127	0x3c43f4c4	0.011960212

action_model._continuous_distribution.log_sigma f4 [1, 2]
0	0x3bff7126	0.0077954708
1	0x3bac5d6f	0.0052601616

action_model._continuous_distribution.mu.weight f4 [2, 128]
0	0xbd03cc2b	-0.03217713
1	0xbbd3e273	-0.006466204
2	0xbb157de2	-0.0022810628
3	0xbc27ad56	-0.010234198
4	0xbc758ad5	-0.014986713
5	0x3d19c275	0.037538964
6	0x3c78051a	0.015137935
7	0x3cbad464	0.022806354
8	0x3becbb4d	0.0072244764
9	0xbc664cb2	-0.0140563715
10	0x3c85801f	0.016296444
11	0x3be91bc4	0.0071139056
12	0xbcccfe54	-0.025023617
13	0xbce1bc5d	-0.027555639
14	0x3b73c65b	0.0037197086
15	0xbd27165b	-0.040792804
16	0x3c0b2cbe	0.008494554
17	0xbc3b4968	-0.011431076
18	0xbcdcfa14	-0.026974715
19	0xbb5dae1c	-0.00338257
20	0x3ca46cdf	0.020071445
21	0xbc8b51e1	-0.017006816
22	0xbc527d45	-0.012847249
23	0x3ca3c866	0.019993018
24	0x3bbc2d76	0.005742724
25	0xbc31ff94	-0.010864157
26	0xbd1ef4ef	-0.038807806
27	0xbc6909ab	-0.014223496
28	0xbb5113ea	-0.003190274
29	0x3cdb353f	0.026758788
30	0x3d233e8d	0.039854575
31	0xbae630cb	-0.0017562149
32	0x3b47055b	0.0030368182
33	0xbb9c96fc	-0.004778741
34	0x3cf3aef7	0.029746516
35	0x3ce6085b	0.028080156
36	0xbd040359	-0.032229755
37	0x3b214be3	0.0024611882
38	0x3d030080	0.0319829
39	0xbbddaaf7	-0.0067647654
40	0x3d715299	0.058916662
41	0xbba100bc	-0.0049134176
42	0xbc1d4431	-0.009598778
43	0x3c8367ae	0.01604065
44	0x3cbd7d89	0.023131149
45	0xbc9ad7b3	-0.018901682
46	0x3d210e17	0.039320078
47	0xbc2a7c28	-0.010405578
48	0x3c2bc0b1	0.010482953
49	0x3cc443b6	0.023958068
50	0x3cc62296	0.024186414
51	0xbc176475	-0.009240259
52	0xbc5fdb49	-0.0136631215
53	0x3a180c0d	0.00058001356
54	0x3d076a5c	0.033060417
55	0x3c3566c6	0.011071866
56	0xbcdaa2d1	-0.026688965
57	0xbcb6d5a3	-0.022318667
58	0x3c816eff	0.015799997
59	0xbb9ba505	-0.0047498965
60	0xbcb84c65	-0.022497365
61	0xbc831919	-0.016003178
62	0xb9d496f9	-0.00040548274
63	0xbada3756	-0.0016648571
64	0xbd2d3ab0	-0.042292297
65	0x3b400884	0.002930195
66	0x3b47e0cd	0.0030498982
67	0xbc6ac700	-0.014329672
68	0x3cef0187	0.029175533
69	0xbc8bb1c3	-0.017052537
70	0xbd0bc1ed	-0.03412049
71	0xb9c7c8d0	-0.00038105855
72	0x3d3c5f82	0.04598952
73	0xbcc1fd91	-0.02368048
74	0x3b9176ce	0.0044392115
75	0x3cdf0ba6	0.027227234
76	0x3c191920	0.009344369
77	0xbca41ba9	-0.02003272
78	0xbc9e4e94	-0.019324578
79	0xbbafeb2a	-0.00536861
80	0x3c784825	0.015153919
81	0x3bd95387	0.0066322717
82	0x3c950a38	0.01819335
83	0x3c7511b1	0.014957831
84	0xbbd746a2	-0.0065696994
85	0x3cb4dc77	0.022077782
86	0x3a64dd8b	0.0008730522
87	0xbb9bd149	-0.0047551733
88	0x3d44384d	0.047905255
89	0x3d0a087f	0.03369951
90	0x3d2cc6de	0.042181842
91	0x3d33a535	0.043858726
92	0x3b5f6d9e	0.0034092437
93	0xbc49ccfb	-0.012316938
94	0xbc314887	-0.0108205145
95	0xbc18c9ae	-0.009325428
96	0x3d19ac4b	0.037517827
97	0x3c13ef7c	0.0090292655
98	0xbd20763d	-0.03917526
99	0x3ccbc652	0.02487484
100	0xbc8b401c	-0.016998343
101	0x3be30979	0.0069286195
102	0x3cdb8d56	0.026800793
103	0xb7cfacbe	-2.4756762e-05
104	0xbc9fccb4	-0.01950679
105	0x3c968412	0.018373523
106	0x3ce1c583	0.027560001
107	0x3c633f24	0.013870034
108	0x3c21a49d	0.009865907
109	0x3b04f9d8	0.002029052
110	0xbc83a351	-0.016069086
111	0x3cb295c7	0.021799935
112	0xbb98c019	-0.0046615717
113	0x3bcc62ff	0.006237387
114	0x3c4cd4f7	0.012501947
115	0xbc361004	-0.011112217
116	0xbc0a1ba6	-0.008429443
117	0x3cabdefc	0.02098035
118	0xbc579817	-0.01315882
119	0x3c324877	0.010881535
120	0xbcfeaac6	-0.03108729
121	0x3d6166ad	0.05502956
122	0xbcb0b4f7	-0.021570666
123	0x3c02e5a7	0.007989324
124	0x3c0ba7bb	0.008523877
125	0xbb2e0214	-0.0026551532
126	0xbcaeedb2	-0.021353576
127	0xbd188fa8	-0.037246376
128	0x3cb31dec	0.021864854
129	0x3be9dc63	0.007136868
130	0x3d47a760	0.048743606
131	0xbbf64db5	-0.0075165876
132	0x3c8cb350	0.017175347
133	0x3a8a8651	0.0010568594
134	0x3aff7820	0.0019490756
135	0x3a9e2725	0.0012066109
136	0xbcf41e51	-0.029799612
137	0x3b873ec6	0.004127356
138	0xbd2190bc	-0.03944467
139	0x3bac9f18	0.005267989
140	0x3c599e15	0.013282319
141	0x3c8c8240	0.017151952
142	0xbcf1a421	-0.029497208
143	0x3c43fe72	0.01196252
144	0xbd199af4	-0.03750129
145	0xbcf2a7f1	-0.029621096
146	0xbbf59448	-0.007494483
147	0x3cb76a35	0.02238951
148	0xbc27d688	-0.010244019
149	0xbc73c088	-0.014877446
150	0xb991fd90	-0.00027845474
151	0xbc9f33aa	-0.019433815
152	0xbbd4c12c	-0.0064927544
153	0x3c84b480	0.01619935
154	0x3b3ebef3	0.0029105514
155	0x3c35dee6	0.011100506
156	0x3ab9e745	0.0014183304
157	0xbd2b1ba3	-0.041774403
158	0xbc9c7b76	-0.01910184
159	0x3d0b85ff	0.034063336
160	0x3ca653c7	0.02030362
161	0x3cdb24e9	0.026750999
162	0x3af5744a	0.0018726673
163	0xbc779f88	-0.015113719
164	0x3c1c04d0	0.009522632
165	0x3ce622c5	0.028092751
166	0xbc4d160a	-0.012517462
167	0x39ec628f	0.0004508686
168	0x3cb8cbaf	0.022558061
169	0xbc9a38ce	-0.018825915
170	0x3cd61f70	0.026138037
171	0xbc02e829	-0.007989922
172	0xbb46aa62	-0.0030313958
173	0x3d2e165a	0.042501785
174	0xb9ceb2ea	-0.00039424683
175	0xbb07b4af	-0.002070706
176	0x3c086f8f	0.008327379
177	0x3c313612	0.010816114
178	0xbb1e1f4b	-0.0024127539
179	0x3cb140ae	0.021637287
180	0x3d656043	0.056000005
181	0xbc432366	-0.011910295
182	0xbc3d835f	-0.011566966
183	0xbc72104f	-0.014774396
184	0x3cf9198a	0.030407686
185	0xba797656	-0.00095162296
186	0xbc773884	-0.015089158
187	0x3a0d1cdf	0.0005383025
188	0xbc0f671d	-0.0087526115
189	0xbc109579	-0.0088247
190	0xbc875192	-0.016518388
191	0x3d1291bd	0.035783518
192	0xb9098690	-0.00013115467
193	0xbb3be61f	-0.0028671098
194	0x3c4a6b6a	0.012354711
195	0xbc42b83c	-0.011884745
196	0xbc9fc4c3	-0.019503003
197	0x3be7c152	0.007072606
198	0x3ccfc514	0.025362529
199	0x3baa5806	0.0051984815
200	0xbb9ea102	-0.004840971
201	0x3c0e821e	0.008698015
202	0x3c28d4aa	0.010304609
203	0xbd17b18f	-0.037034567
204	0xbd46c1d5	-0.048524696
205	0x3c5ef6b5	0.013608624
206	0x3b7eaff6	0.0038862205
207	0xbbb8add8	-0.005635958
208	0xbc985a84	-0.018597849
209	0xbc43227f	-0.01191008
210	0xbc75a760	-0.014993519
211	0xbcab8e26	-0.020941805
212	0x3c33dd83	0.0109781055
213	0x3a603d9e	0.00085541036
214	0xbc04ff3a	-0.008117491
215	0xbbbbcb27	-0.0057310048
216	0x3c033975	0.008009304
217	0x3c250bf7	0.010073653
218	0xbc57919e	-0.013157276
219	0xbc1b8786	-0.0094927605
220	0x3b95cce9	0.0045715463
221	0xbcfff232	-0.031243417
222	0x3ca6da62	0.020367805
223	0x3cb0e86f	0.021595208
224	0x3ba0bcc0	0.0049053133
225	0x3c36e0bb	0.011161978
226	0xbc8a855d	-0.016909296
227	0xbca31145	-0.019905696
228	0xbc9b1083	-0.018928772
229	0xbcb2374f	-0.021754889
230	0xbc8181eb	-0.01580902
231	0x3bef11ee	0.0072958386
232	0x3bafa3cd	0.0053601027
233	0xbcec14cb	-0.028818509
234	0xbc820d1c	-0.015875392
235	0xbce9c154	-0.028534569
236	0xbd5f9970	-0.05458969
237	0xbcb1f0d6	-0.021721285
238	0x3a29768b	0.00064645027
239	0xbcaa8119	-0.020813512
240	0xbcb4ca8d	-0.02206924
241	0xbd0df19f	-0.034654256
242	0xbc8e277f	-0.017352818
243	0xbab700ee	-0.0013962069
244	0xbd213fa1	-0.039367322
245	0xba697470	-0.0008905595
246	0xbc926e66	-0.017874908
247	0xbc3d7d90	-0.011565581
248	0xbb6375ed	-0.003470774
249	0xbc504399	-0.012711429
250	0xbb87d1cb	-0.0041448823
251	0xbcc762ae	-0.024339046
252	0x3cebc088	0.02877833
253	0xbcc3492f	-0.023838608
254	0x3b917ce4	0.004439937
255	0x3c18ca38	0.009325556

action_model._continuous_distribution.mu.bias f4 [2]
0	0xbbf797e9	-0.007555951
1	0x3c455718	0.012044691

action_model._discrete_distribution.branches.0.weight f4 [1, 128]
0	0xbc07f7ff	-0.008298873
1	0xbab44a59	-0.0013755067
2	0xbc838d5b	-0.016058614
3	0xbc0e104b	-0.008670877
4	0xb7dc9c9b	-2.6298969e-05
5	0xbbda22b2	-0.006656968
6	0xbbcdfd82	-0.006286324
7	0x3c140fe9	0.009036996
8	0xbbbbee1e	-0.005735173
9	0xbbbd1de9	-0.005771388
10	0x3c2ab17b	0.010418291
11	0xbb2ebb4b	-0.0026661928
12	0xbc189d2b	-0.0093148155
13	0xbc8806eb	-0.016604861
14	0xb952c028	-0.00020098744
15	0xbc36cecf	-0.011157705
16	0x3bdd94c7	0.0067621204
17	0xbc1cb1b5	-0.009563853
18	0x3c0679c7	0.008207745
19	0x3bbeeda8	0.0058266707
20	0xbad8e880	-0.0016548783
21	0xbc7eabd8	-0.0155439
22	0x39016a45	0.00012341987
23	0x3b9d9fa5	0.004810291
24	0x3bda9957	0.0066711116
25	0xba81f74f	-0.0009915623
26	0xbaab65fe	-0.0013076661
27	0x3c2c9a85	0.010534887
28	0x3ae68967	0.0017588557
29	0xbc8aa6ab	-0.016925177
30	0x3b8ba0d0	0.0042611137
31	0x3b331ec3	0.0027331568
32	0xbcbe1cff	-0.023207186
33	0x3bf51c30	0.007480167
34	0x3b3cec70	0.0028827451
35	0xbb86832f	-0.004104994
36	0xbc97bfeb	-0.01852413
37	0xba7aadaa	-0.0009562621
38	0xbbad1683	-0.0052822246
39	0xbc5bb33b	-0.013409431
40	0x3c1689c5	0.00918812
41	0xbbc05b91	-0.0058702906
42	0xbc1a3065	-0.009410952
43	0xbb6c4aad	-0.0036055252
44	0xbaad8614	-0.0013238811
45	0x3bd3cd7f	0.006463706
46	0xbadb663f	-0.0016738846
47	0x3c86019e	0.016358193
48	0x3c8a6ba6	0.016897034
49	0x3c0c61af	0.008568211
50	0x3ba405c1	0.0050055687
51	0x3ab650e6	0.0013909608
52	0xbb93bc5b	-0.0045085377
53	0xbbe7641d	-0.007061495
54	0x3abd7a3f	0.0014455988
55	0xbc03e5d4	-0.008050401
56	0xbca3c2af	-0.019990293
57	0xbb654b0f	-0.0034987365
58	0x3c3e15ae	0.0116018485
59	0xbc66b228	-0.014080562
60	0x3c231638	0.009954028
61	0x3baed1c2	0.0053350637
62	0xbb82b528	-0.0039888807
63	0x3b8917aa	0.004183729
64	0x3c3c6ba9	0.011500278
65	0x3be285b8	0.006912913
66	0x3bb3715c	0.00547616
67	0x3bf9591b	0.007609499
68	0x3b2bd72a	0.0026220777
69	0x3c7dfd6a	0.015502313
70	0x3bc8c5cd	0.0061270953
71	0x3aeb27b2	0.0017940907
72	0x3b8e347b	0.0043397523
73	0xbc3b4f58	-0.011432491
74	0x3c3fddce	0.011710597
75	0x3ba14e80	0.004922688
76	0x3b74fb78	0.0037381332
77	0xbc1905a1	-0.009339721
78	0xbca9064e	-0.02063289
79	0x3b864ad1	0.0040982743
80	0xbc115087	-0.008869297
81	0xbb251afd	-0.0025193088
82	0x3c355007	0.011066443
83	0x3c5029e3	0.012705299
84	0x3be02932	0.0068408484
85	0x3c28dae4	0.010306094
86	0xbba3b26b	-0.0049956343
87	0x3bc8e4f6	0.00613081
88	0xbaf2e7bf	-0.00185322
89	0x3c60cf7a	0.013721341
90	0x3c538578	0.012910239
91	0xbbe9dcbb	-0.007136909
92	0xbb937a21	-0.004500643
93	0xbb57c397	-0.0032922977
94	0x3c6a24ea	0.014291028
95	0xbb6ab04b	-0.0035810645
96	0x3c05edc2	0.008174362
97	0x3a15b88b	0.0005711398
98	0xbc1c55f0	-0.0095419735
99	0xbc2a2609	-0.010385045
100	0xbb8826f8	-0.004155036
101	0xbba358c1	-0.0049849455
102	0xbbf2cb25	-0.0074094706
103	0x3b599667	0.003320122
104	0xbc2fac8c	-0.010722291
105	0xba821c2b	-0.0009926608
106	0xbb0e64cf	-0.0021727567
107	0xbc9e64e1	-0.019335212
108	0x3b1eb02e	0.0024213898
109	0xbbb076c4	-0.0053852517
110	0xbbb8deab	-0.0056417785
111	0x3b96849a	0.004593444
112	0xbc78db77	-0.015189043
113	0xbc73b3f5	-0.014874448
114	0x3c5bea97	0.01342263
115	0x3c2bf2a9	0.010494866
116	0x3b821e06	0.003970864
117	0xbbad8bdb	-0.005296213
118	0x396b2e9b	0.00022428708
119	0x3ad16fdf	0.0015978775
120	0xbcae04e0	-0.021242559
121	0xba023b91	-0.00049679825
122	0xbbec4be0	-0.0072111934
123	0xbbd097c5	-0.0063657486
124	0xbc4cea5b	-0.012507047
125	0x3c1a8e21	0.0094333
126	0xbc1a85ef	-0.009431346
127	0x3c3f43ab	0.011673848

exp_avg f4 [128, 110]
0	0xb7ce4896	-2.4590914e-05
1	0xb7bbf475	-2.2405971e-05
2	0xb517b2a1	-5.651182e-07
3	0x37b0f8cf	2.1096695e-05
4	0x37269f22	9.931422e-06
5	0xb73a7348	-1.1113305e-05
6	0xb7710042	-1.4364779e-05
7	0xa0ee9151	-4.041493e-19
8	0xb6966e76	-4.4832077e-06
9	0xb68d3ef2	-4.2094553e-06
10	0xb80ceb05	-3.359748e-05
11	0xb69da8af	-4.698602e-06
12	0xb63a6e08	-2.7780206e-06
13	0xb634b22c	-2.69258e-06
14	0xb6695f6c	-3.4775248e-06
15	0xb69d561a	-4.688988e-06
16	0x378393b2	1.5685193e-05
17	0x3319fb77	3.5851794e-08
18	0xb6c9095b	-5.991356e-06
19	0x35e452d0	1.7011425e-06
20	0xb7006845	-7.653672e-06
21	0x372d1532	1.03165385e-05
22	0xb4379be4	-1.7099916e-07
23	0xb73d42fc	-1.1280874e-05
24	0xb755b307	-1.2737472e-05
25	0xb7c4fb84	-2.3482142e-05
26	0xb73e011f	-1.13251435e-05
27	0x330bc837	3.2545554e-08
28	0x37e5489d	2.733274e-05
29	0x370d0d08	8.407289e-06
30	0xb718fc86	-9.118701e-06
31	0xb6e5a3be	-6.843794e-06
32	0xab168466	-5.3474445e-13
33	0xb64f141c	-3.085711e-06
34	0xb7bb3fa0	-2.2321765e-05
35	0xb762a63c	-1.3509354e-05
36	0xb7a23f32	-1.9341333e-05
37	0x35118ce3	5.4221726e-07
38	0x37c8738a	2.389566e-05
39	0x36fbf45c	7.50883e-06
40	0xb7a41e7e	-1.9564523e-05
41	0xb71cbbc3	-9.342041e-06
42	0x3651ad12	3.1244167e-06
43	0xb7a373f0	-1.9485102e-05
44	0xb80de240	-3.382773e-05
45	0xb73464ec	-1.0752334e-05
46	0xb744c487	-1.1728268e-05
47	0x30d2f4cc	1.5349086e-09
48	0x37b945a8	2.2086155e-05
49	0x36deb328	6.636972e-06
50	0xb79a8cec	-1.8423852e-05
51	0xb7bac3ca	-2.22641e-05
52	0x3533bf06	6.696067e-07
53	0xb5ff439e	-1.901866e-06
54	0xb7872383	-1.610979e-05
55	0x36c3246c	5.815693e-06
56	0xb706c09a	-8.031866e-06
57	0xaf188cdd	-1.3874364e-10
58	0x3784e355	1.5841486e-05
59	0x375fcca4	1.3339482e-05
60	0xb7ba5e01	-2.2216702e-05
61	0xb62d90c5	-2.5863276e-06
62	0x34a93c88	3.1522745e-07
63	0xb603c702	-1.963636e-06
64	0xb77e5df6	-1.5161457e-05
65	0x360b3e0e	2.0748735e-06
66	0x36bf0bbe	5.6936105e-06
67	0x2d421f76	1.1034609e-11
68	0x37b4240e	2.1474461e-05
69	0x374b9a26	1.2135633e-05
70	0xb8107b4e	-3.4447112e-05
71	0xb6b43d20	-5.371534e-06
72	0x349cfd60	2.924162e-07
73	0xb63ac551	-2.7831013e-06
74	0xb6644337	-3.4013772e-06
75	0xb614cbbc	-2.2172308e-06
76	0xb69c268c	-4.6536497e-06
77	0x29ae141d	7.7306413e-14
78	0x378f767c	1.7102102e-05
79	0x3749e580	1.2033968e-05
80	0xb85c75e4	-5.256188e-05
81	0x37cbe05b	2.430396e-05
82	0xb27438d2	-1.4215589e-08
83	0x3648e1f8	2.9933854e-06
84	0x35e38604	1.6951822e-06
85	0xb78d0e5e	-1.68152e-05
86	0x379657de	1.792231e-05
87	0x2d2073a0	9.120621e-12
88	0xb4fb70d0	-4.6834475e-07
89	0x3651befe	3.12546e-06
90	0xb80425f1	-3.1506588e-05
91	0x3777324d	1.4734059e-05
92	0x2276e80f	3.3462068e-18
93	0xb72afaa4	-1.0191146e-05
94	0xb79011e0	-1.7174461e-05
95	0xb5b02018	-1.3122362e-06
96	0x375c21d3	1.3120897e-05
97	0x28423fa7	1.0782966e-14
98	0xb6a3385e	-4.8643406e-06
99	0xb6919f4c	-4.3398813e-06
100	0xb85b6046	-5.230333e-05
101	0xb6507a5a	-3.1065633e-06
102	0xb3f8df4f	-1.15890195e-07
103	0x36435e88	2.9112289e-06
104	0xb6dfadcc	-6.6661505e-06
105	0xb89c5384	-7.454216e-05
106	0x3854dedc	5.0752293e-05
107	0xb7d69bb6	-2.5583297e-05
108	0xb804055f	-3.1476255e-05
109	0x3a3c3f51	0.0007181066
110	0xb8a57c9f	-7.8910256e-05
111	0xb839eee8	-4.4329936e-05
112	0xb585db62	-9.973121e-07
113	0x38b3665b	8.55445e-05
114	0x38616d4b	5.3745967e-05
115	0xb7ecd157	-2.8230874e-05
116	0xb7df690c	-2.6632588e-05
117	0xa08b1438	-2.3560896e-19
118	0xb65f8320	-3.3305914e-06
119	0xb6f2ca90	-7.2357434e-06
120	0xb8c1569c	-9.2190894e-05
121	0x3717d63d	9.050183e-06
122	0xb6cc629a	-6.0911525e-06
123	0x37a21c85	1.9325185e-05
124	0x379e7c07	1.8892822e-05
125	0xb63bffc2	-2.8014042e-06
126	0x3871166f	5.747977e-05
127	0x3511ba60	5.428792e-07
128	0xb82dd7db	-4.1447445e-05
129	0xb727dfe8	-1.0006108e-05
130	0xb3752800	-5.7079887e-08
131	0x3834cecc	4.310794e-05
132	0xb5844ce2	-9.857142e-07
133	0xb78ae1fe	-1.6556118e-05
134	0xb78a9756	-1.6521353e-05
135	0xb864d0a0	-5.4553733e-05
136	0xb6e5bf3c	-6.8469944e-06
137	0x33d3ba3e	9.8593304e-08
138	0x38405dc5	4.5863697e-05
139	0x3717d180	9.049079e-06
140	0xb7d56c8a	-2.5442121e-05
141	0xb85b16a6	-5.2234762e-05
142	0xab625d03	-8.042041e-13
143	0x3849ed16	4.8142938e-05
144	0xb7adcc7c	-2.0718428e-05
145	0xb80dec21	-3.3836932e-05
146	0xb80a90f7	-3.3036773e-05
147	0x35b15a1f	1.3213756e-06
148	0x387395f8	5.8075384e-05
149	0x37dc0296	2.6227248e-05
150	0xb88d9f3c	-6.753064e-05
151	0xb828e414	-4.0266736e-05
152	0x375ebbf3	1.32759915e-05
153	0xb5e1250a	-1.6774586e-06
154	0xb85630e8	-5.1067123e-05
155	0xb78bdb1f	-1.6672127e-05
156	0xb7e83562	-2.7681413e-05
157	0x31005453	1.8674384e-09
158	0x38634217	5.418257e-05
159	0x377645a4	1.4678957e-05
160	0xb788b07c	-1.6294645e-05
161	0xb809f19f	-3.2888373e-05
162	0x35ea0d9c	1.743832e-06
163	0x370982bb	8.196274e-06
164	0xb7b37954	-2.139496e-05
165	0x37f4109e	2.9094805e-05
166	0xb7b03248	-2.1004249e-05
167	0xaf4b5f28	-1.8496549e-10
168	0x3829e512	4.050608e-05
169	0x37f8b152	2.9646475e-05
170	0xb7eea2f8	-2.84477e-05
171	0x36a34150	4.865382e-06
172	0x35ee4e1b	1.7755114e-06
173	0x3792ceaf	1.75008e-05
174	0xb78c93a7	-1.6758057e-05
175	0x3598b600	1.1377851e-06
176	0x37317072	1.0576203e-05
177	0x2d58dfcf	1.2327874e-11
178	0x38a76ab4	7.9830555e-05
179	0x383d3303	4.510862e-05
180	0xb88382ab	-6.2709056e-05
181	0xb5e40a00	-1.6990234e-06
182	0x3538f235	6.88978e-07
183	0xb721ebf9	-9.6512895e-06
184	0xb6f24d08	-7.2211296e-06
185	0xb6f67a44	-7.345605e-06
186	0xb7906a84	-1.7215738e-05
187	0x29f618d9	1.0928905e-13
188	0x379b52fc	1.8516082e-05
189	0x378688df	1.603778e-05
190	0xb92853bc	-0.00016052922
191	0x3839eebb	4.4329772e-05
192	0xb2b84e63	-2.1456065e-08
193	0x3846047e	4.7211062e-05
194	0x382ac922	4.0718478e-05
195	0xb7c4a5da	-2.3442251e-05
196	0x382b3c90	4.082598e-05
197	0x2d9e5b9c	1.8003203e-11
198	0xb7775017	-1.4740995e-05
199	0x36d1e57e	6.255402e-06
200	0xb8edd56d	-0.00011340794
201	0x37d3172c	2.516395e-05
202	0x22f98b27	6.763892e-18
203	0xb52f9a40	-6.5417044e-07
204	0xb6d84288	-6.445047e-06
205	0x35d90e18	1.6171862e-06
206	0x37c584ee	2.354613e-05
207	0x28d693e8	2.3822917e-14
208	0xb82cf9bf	-4.124059e-05
209	0xb7f911d8	-2.9691422e-05
210	0xb93903ad	-0.00017644344
211	0xb791f217	-1.7398079e-05
212	0xb506f267	-5.027163e-07
213	0x38230334	3.886521e-05
214	0x37544870	1.265305e-05
215	0xb8488235	-4.780498e-05
216	0x38981fe2	7.2538634e-05
217	0xb8b98187	-8.845614e-05
218	0xb8846e2e	-6.314773e-05
219	0x3a547a86	0.00081054156
220	0xb67fe0e8	-3.8128874e-06
221	0x3539b742	6.9184546e-07
222	0xb31db0d7	-3.6715246e-08
223	0x36be021c	5.662687e-06
224	0x36affb38	5.244652e-06
225	0xb5ebb360	-1.7561069e-06
226	0x35c4710d	1.463604e-06
227	0x1d691bb0	3.0851607e-21
228	0x360e26a8	2.118215e-06
229	0x363d52ee	2.8211466e-06
230	0xb634dc19	-2.6950204e-06
231	0x36214681	2.4031908e-06
232	0xb4f26f85	-4.5157154e-07
233	0x366373ab	3.3892964e-06
234	0x368d605a	4.2133443e-06
235	0x35ccc4b8	1.5256437e-06
236	0x356ad7be	8.748574e-07
237	0x301a53f0	5.6144156e-10
238	0x34d5ccd0	3.9823362e-07
239	0x35a36cf0	1.2176151e-06
240	0xb53d4d2d	-7.052029e-07
241	0x36562618	3.1910658e-06
242	0xb4296245	-1.5775102e-07
243	0x368cbac7	4.194069e-06
244	0x36aa1854	5.069227e-06
245	0xb607fa40	-2.0262232e-06
246	0x35384ac5	6.8654145e-07
247	0x2f0e3e2f	1.2936917e-10
248	0x36bbda62	5.5984574e-06
249	0x36a2bb4b	4.84978e-06
250	0xb5feae3a	-1.8975181e-06
251	0x35b6d890	1.3623085e-06
252	0x2734abef	2.5073223e-15
253	0x36ffe2fb	7.626016e-06
254	0x36f0459e	7.160662e-06
255	0xb5f4637a	-1.8208368e-06

exp_avg_sq f4 [128, 110]
0	0x31afb4c1	5.1137197e-09
1	0x322ab626	9.936718e-09
2	0x2e3371bb	4.08009e-11
3	0x3347bbb0	4.6504e-08
4	0x33545ee2	4.9446392e-08
5	0x31c7cc71	5.8149046e-09
6	0x321c22cb	9.088306e-09
7	0x2ea7b142	7.625768e-11
8	0x334c8c5f	4.7625118e-08
9	0x3359cd55	5.0710998e-08
10	0x31beca54	5.55273e-09
11	0x32307501	1.0271152e-08
12	0x2edbae59	9.9899373e-11
13	0x333a5bff	4.339017e-08
14	0x3347232e	4.6365294e-08
15	0x31d222c9	6.115759e-09
16	0x31fb1708	7.30768e-09
17	0x2f482cf1	1.820586e-10
18	0x3351d2a4	4.885318e-08
19	0x335e45ec	5.1751996e-08
20	0x31e650df	6.703075e-09
21	0x3210bc2e	8.42469e-09
22	0x2ea01289	7.27925e-11
23	0x33304a25	4.1045627e-08
24	0x333d4f97	4.4077378e-08
25	0x31d557f7	6.2091163e-09
26	0x3206a55d	7.837426e-09
27	0x2f8aae57	2.522593e-10
28	0x33598815	5.0648016e-08
29	0x33640267	5.308757e-08
30	0x31f7f417	7.216396e-09
31	0x320e82d8	8.295238e-09
32	0x2f1a92be	1.4058352e-10
33	0x3327c70b	3.9063746e-08
34	0x332fdd59	4.0946677e-08
35	0x31d90761	6.31637e-09
36	0x32095510	7.9937905e-09
37	0x2fb15157	3.2253908e-10
38	0x3368866a	5.4138958e-08
39	0x3370ef85	5.6097196e-08
40	0x31cb1f56	5.91164e-09
41	0x3205fea0	7.799514e-09
42	0x2f165f92	1.3676374e-10
43	0x332d2f3e	4.0322668e-08
44	0x3334a029	4.205518e-08
45	0x320b5efe	8.112464e-09
46	0x31fe89c1	7.4080337e-09
47	0x2f7e7566	2.3142874e-10
48	0x3366f14d	5.377051e-08
49	0x336f6c53	5.5745044e-08
50	0x31b51763	5.270452e-09
51	0x321d9899	9.1732995e-09
52	0x2ea35c4c	7.428777e-11
53	0x332f7d76	4.085947e-08
54	0x3338846f	4.2961286e-08
55	0x320f6e4e	8.348776e-09
56	0x321504d1	8.674037e-09
57	0x2f8cf113	2.5637145e-10
58	0x336807b1	5.4023705e-08
59	0x3373ee4f	5.6794587e-08
60	0x31d820b2	6.2901444e-09
61	0x32211102	9.3753005e-09
62	0x2ea14b59	7.334817e-11
63	0x332a5340	3.9656925e-08
64	0x33316171	4.1299646e-08
65	0x320e06de	8.267049e-09
66	0x32156cbe	8.697667e-09
67	0x2eba2308	8.4645235e-11
68	0x337b5ce5	5.852498e-08
69	0x33842171	6.152812e-08
70	0x31eb3b59	6.846147e-09
71	0x324064f6	1.1198827e-08
72	0x2ef8db37	1.1316675e-10
73	0x332e32a9	4.0558607e-08
74	0x3332463c	4.1507732e-08
75	0x3201fd72	7.566415e-09
76	0x3223da45	9.5374775e-09
77	0x2e91943c	6.620168e-11
78	0x338064a8	5.978774e-08
79	0x33863b57	6.250655e-08
80	0x31e8739a	6.765231e-09
81	0x321f78dd	9.282499e-09
82	0x2f058fe8	1.2147405e-10
83	0x332334b1	3.7999317e-08
84	0x332ca4f0	4.019688e-08
85	0x3203215a	7.632787e-09
86	0x32196699	8.9291e-09
87	0x2ef05414	1.0928872e-10
88	0x33807128	5.9810475e-08
89	0x3384dec1	6.187248e-08
90	0x31c93c75	5.856743e-09
91	0x32425ed7	1.131385e-08
92	0x2f3b60c0	1.7041923e-10
93	0x3324dec9	3.8386847e-08
94	0x332d8be6	4.040694e-08
95	0x32050bed	7.7443305e-09
96	0x322f1a26	1.0192286e-08
97	0x2f163e47	1.3664546e-10
98	0x3382e908	6.095985e-08
99	0x3387567f	6.302161e-08
100	0x31ee5028	6.9358244e-09
101	0x32249577	9.580041e-09
102	0x2f425c8a	1.7677074e-10
103	0x33232084	3.7980968e-08
104	0x332a061d	3.958677e-08
105	0x3489d886	2.567578e-07
106	0x34793314	2.3208514e-07
107	0x339c2ef0	7.272854e-08
108	0x3370d262	5.6070697e-08
109	0x3885cc46	6.379983e-05
110	0x3219f926	8.962422e-09
111	0x3227a6bc	9.75859e-09
112	0x2cd3d86c	6.0210083e-12
113	0x33997b10	7.1470026e-08
114	0x339f339a	7.413401e-08
115	0x321d859c	9.168982e-09
116	0x31e9a9c8	6.8004944e-09
117	0x2dbf40a1	2.1742887e-11
118	0x339dce23	7.348378e-08
119	0x33a3da46	7.629983e-08
120	0x32083d7f	7.9302245e-09
121	0x320740e3	7.872788e-09
122	0x2f38a526	1.6793375e-10
123	0x3395a96e	6.969172e-08
124	0x339b9dde	7.246466e-08
125	0x321d715a	9.164376e-09
126	0x31e784e0	6.738091e-09
127	0x2dffc200	2.9076297e-11
128	0x339df357	7.3551455e-08
129	0x33a1af9b	7.529089e-08
130	0x3208808a	7.945468e-09
131	0x31cb7f08	5.9225194e-09
132	0x2e388088	4.1950915e-11
133	0x3395d777	6.977546e-08
134	0x339b2285	7.224029e-08
135	0x320a880d	8.063592e-09
136	0x31d083b8	6.0685714e-09
137	0x308f0002	1.0404622e-09
138	0x339353ee	6.8604876e-08
139	0x339b3d68	7.22892e-08
140	0x32147bcd	8.642883e-09
141	0x31d72f6d	6.2627152e-09
142	0x2f0b6448	1.2677603e-10
143	0x3389e2fc	6.420848e-08
144	0x338d74e4	6.5870864e-08
145	0x32175533	8.808729e-09
146	0x31f6fece	7.1885102e-09
147	0x2f72f3d5	2.2096398e-10
148	0x33931471	6.848939e-08
149	0x339b1190	7.2209446e-08
150	0x31f01e3c	6.9883566e-09
151	0x31a9234b	4.9225597e-09
152	0x2f07a344	1.2336182e-10
153	0x33948bbc	6.9172046e-08
154	0x3397fc90	7.077426e-08
155	0x32010e7e	7.512083e-09
156	0x31dffc75	6.5188552e-09
157	0x2e99d2b2	6.9950615e-11
158	0x338c84be	6.543404e-08
159	0x33948bb1	6.917197e-08
160	0x31be3cb6	5.53663e-09
161	0x319fd017	4.651166e-09
162	0x2f0205b0	1.1825452e-10
163	0x339c8d16	7.2899795e-08
164	0x33a095a6	7.4778015e-08
165	0x31f5b659	7.151169e-09
166	0x31fe2619	7.396704e-09
167	0x2e948000	6.752998e-11
168	0x33886411	6.3511955e-08
169	0x339036a7	6.715464e-08
170	0x31be2186	5.533539e-09
171	0x31aae7e1	4.9740128e-09
172	0x2f050070	1.2096435e-10
173	0x3397e8e1	7.073846e-08
174	0x3398b75a	7.111403e-08
175	0x31fcbced	7.3556436e-09
176	0x31c552be	5.7428613e-09
177	0x2e064964	3.0533256e-11
178	0x338a3673	6.43603e-08
179	0x339011eb	6.708782e-08
180	0x31a40234	4.7732787e-09
181	0x31b47923	5.252461e-09
182	0x2f0d0708	1.2826373e-10
183	0x3398db2f	7.117921e-08
184	0x339c6ca3	7.284077e-08
185	0x32060b6e	7.802425e-09
186	0x31e8f6f2	6.780163e-09
187	0x2df1813d	2.7455921e-11
188	0x337d536c	5.8982025e-08
189	0x3387f3aa	6.3307496e-08
190	0x31f5ca4f	7.1534383e-09
191	0x31a85d7e	4.9000723e-09
192	0x2f075c93	1.2311067e-10
193	0x338efc0e	6.658239e-08
194	0x33933c69	6.8562095e-08
195	0x320669c6	7.823877e-09
196	0x3206f70d	7.855999e-09
197	0x2e1d01a7	3.5699135e-11
198	0x336a36d3	5.4532233e-08
199	0x337a6a0d	5.8304114e-08
200	0x31e7023e	6.7232397e-09
201	0x31d537b0	6.205447e-09
202	0x2f43280a	1.7749371e-10
203	0x33844029	6.1584e-08
204	0x338b6e0d	6.49271e-08
205	0x320d1ff5	8.214546e-09
206	0x31f123c3	7.0180888e-09
207	0x2da4cfd0	1.8736929e-11
208	0x336dd7a3	5.5376983e-08
209	0x33710408	5.611585e-08
210	0x321159db	8.460542e-09
211	0x31ebba2f	6.860567e-09
212	0x2f347a41	1.6414338e-10
213	0x336e9a34	5.555394e-08
214	0x337f1033	5.9386547e-08
215	0x349c5e5e	2.9125925e-07
216	0x34ae35b0	3.2449088e-07
217	0x340bf671	1.3035039e-07
218	0x32a0aa77	1.870397e-08
219	0x386bec89	5.6248657e-05
220	0x2e1bfdcb	3.5468333e-11
221	0x2e42b955	4.42751e-11
222	0x2b4f4017	7.3630116e-13
223	0x2fd0fd1e	3.801483e-10
224	0x2fd677f1	3.9011597e-10
225	0x2e144564	3.3712935e-11
226	0x2e2bbb57	3.904729e-11
227	0x2c057034	1.8962722e-12
228	0x2fd030f3	3.786976e-10
229	0x2fd67fd2	3.9017195e-10
230	0x2e0fc5a0	3.2689962e-11
231	0x2e7d5cbf	5.7607915e-11
232	0x2c235f8b	2.321673e-12
233	0x2fc17c04	3.5194614e-10
234	0x2fccbc33	3.7241107e-10
235	0x2e356260	4.124201e-11
236	0x2e24dffa	3.7488214e-11
237	0x2d578ef7	1.225308e-11
238	0x2fcd2c1b	3.7320622e-10
239	0x2fd143b1	3.8064976e-10
240	0x2e8a3689	6.285201e-11
241	0x2e49d65a	4.589249e-11
242	0x2bdb5e16	1.5587e-12
243	0x2fbfcebc	3.488959e-10
244	0x2fc62a5f	3.6046097e-10
245	0x2e3194b2	4.037721e-11
246	0x2e46d037	4.520492e-11
247	0x2d6fb132	1.3624922e-11
248	0x2fc46806	3.5726105e-10
249	0x2fcbe2e9	3.7086714e-10
250	0x2e5a627c	4.9654933e-11
251	0x2e24d288	3.7476272e-11
252	0x2bd46c9e	1.5093653e-12
253	0x2fb2b790	3.250844e-10
254	0x2fbca0cc	3.4311254e-10
255	0x2e343fd7	4.0983963e-11

exp_avg f4 [128]
0	0xb7be4c81	-2.268539e-05
1	0xb8ad0888	-8.250872e-05
2	0x36e1859d	6.721077e-06
3	0xb72d5c34	-1.0333071e-05
4	0xb69d5e39	-4.6899336e-06
5	0x376cb8a5	1.4109687e-05
6	0x37333cb6	1.0683367e-05
7	0x389f6feb	7.602557e-05
8	0x382369dc	3.8960818e-05
9	0x3699a986	4.5794905e-06
10	0xb579a536	-9.300014e-07
11	0xb7e602ea	-2.7419494e-05
12	0x35e6df18	1.7201264e-06
13	0xb74dbfb4	-1.22635865e-05
14	0xb66f4963	-3.5656492e-06
15	0x389bca85	7.428698e-05
16	0xb80f873c	-3.4219804e-05
17	0x368c377b	4.178784e-06
18	0xb6c0188c	-5.7249035e-06
19	0xb7a244da	-1.9343966e-05
20	0x38050a8f	3.1719504e-05
21	0xb9089e70	-0.00013028993
22	0x376531f0	1.3661091e-05
23	0x38df83d0	0.000106580206
24	0x36dc4afe	6.565241e-06
25	0x388eef33	6.815642e-05
26	0xb85bd59e	-5.2412615e-05
27	0xb95b05c2	-0.00020887612
28	0x36d902bf	6.4674236e-06
29	0xb91fc390	-0.00015236274
30	0xb79d1a2c	-1.8728046e-05
31	0xb8814eaa	-6.165852e-05
32	0xb809e676	-3.287798e-05
33	0x387ca2bc	6.023304e-05
34	0xb6ba2522	-5.547555e-06
35	0x37703f35	1.4319831e-05
36	0xb887b19d	-6.470385e-05
37	0xb798e326	-1.8225586e-05
38	0xb8853752	-6.3522384e-05
39	0x36afdd84	5.2411942e-06
40	0xb7e78bac	-2.7602386e-05
41	0x3871fe4c	5.769571e-05
42	0x36c61d7b	5.904292e-06
43	0x37217b18	9.625008e-06
44	0xb64fc2cb	-3.0958788e-06
45	0xb5f675d4	-1.8362721e-06
46	0xb89fb406	-7.615243e-05
47	0xb877b17c	-5.9054684e-05
48	0xb559c9e8	-8.113261e-07
49	0xb873cb2c	-5.8124933e-05
50	0x3813780b	3.515933e-05
51	0x364e0cc8	3.0703832e-06
52	0x3747ee2a	1.1916776e-05
53	0x378287fd	1.5560532e-05
54	0xb83781d0	-4.3751497e-05
55	0xb7598f5a	-1.2967585e-05
56	0xb7ecb195	-2.8216085e-05
57	0x348381c0	2.4495057e-07
58	0xb787cd66	-1.61889e-05
59	0xb76cc534	-1.4112611e-05
60	0x389f8c10	7.6077995e-05
61	0x3723a4da	9.75394e-06
62	0xb83a7702	-4.445669e-05
63	0xb891a713	-6.945259e-05
64	0x38c55a79	9.410544e-05
65	0xb89855e8	-7.263926e-05
66	0xb87e7dce	-6.0675484e-05
67	0x378dd408	1.6907245e-05
68	0x3798dcb0	1.8222578e-05
69	0x36bf21a4	5.69616e-06
70	0x38354788	4.322038e-05
71	0x389d5226	7.501645e-05
72	0x3871ecce	5.767942e-05
73	0xb8e92304	-0.00011116828
74	0xb7c68fca	-2.3670396e-05
75	0x37d0db82	2.4897749e-05
76	0x384f7151	4.945818e-05
77	0x38095156	3.2739095e-05
78	0x380b687a	3.3237484e-05
79	0xb88c5110	-6.690819e-05
80	0x37b359c6	2.1380267e-05
81	0xb647d50a	-2.9777316e-06
82	0x37cdbfbc	2.4527188e-05
83	0x3788b606	1.6297225e-05
84	0xb5c250b0	-1.447761e-06
85	0x36704cd4	3.5807507e-06
86	0xb42f9f40	-1.635608e-07
87	0x35476c47	7.429084e-07
88	0xb6f41f4a	-7.275409e-06
89	0x36f22e26	7.2175344e-06
90	0xb6cf8492	-6.184514e-06
91	0xb82b6722	-4.0865627e-05
92	0xb7e5e5a5	-2.7405864e-05
93	0xb84d6f86	-4.8979673e-05
94	0xb6c56894	-5.883232e-06
95	0xb6ef874a	-7.1385048e-06
96	0xb8c965ce	-9.6033895e-05
97	0x37aabb07	2.035267e-05
98	0x38bcba0b	8.999192e-05
99	0x38102e6a	3.4375502e-05
100	0xb88e51ce	-6.786325e-05
101	0x3697360c	4.5064426e-06
102	0xb8f7cd74	-0.000118161464
103	0xb83ef521	-4.5527824e-05
104	0xb80b8fd3	-3.327413e-05
105	0xb83937ae	-4.4159293e-05
106	0xb7ed604a	-2.829744e-05
107	0xb8a7e23c	-8.00532e-05
108	0xb910f3ac	-0.00013823685
109	0x3765a24d	1.3687252e-05
110	0x3880c5f0	6.140384e-05
111	0xb89481ca	-7.081365e-05
112	0xb76b6a66	-1.4031864e-05
113	0x37f7f624	2.9559313e-05
114	0x383424be	4.2949563e-05
115	0x374cdbe4	1.2210545e-05
116	0xb8189080	-3.63742e-05
117	0xb7bed512	-2.2748984e-05
118	0xb5d7e489	-1.6085261e-06
119	0xb7334fb7	-1.06877915e-05
120	0x38234072	3.8922248e-05
121	0x386b4bf4	5.6099103e-05
122	0x37dff91a	2.6699669e-05
123	0x3832eef8	4.2661064e-05
124	0xb8c11855	-9.207489e-05
125	0x37a91522	2.015621e-05
126	0x3805c6b6	3.1894735e-05
127	0xb71182e4	-8.673149e-06
