results/Exp4_FullDynamic_Net128_LR1e-4/AgentSphereBehavior/AgentSphereBehavior-165573.onnx (onnx, 112304 bytes, 8 tensors)

action_model._continuous_distribution.log_sigma f4 [1, 2]
0	0xbc3f9cef	-0.011695131
1	0xbb74e9fa	-0.0037370906

action_model._continuous_distribution.mu.bias f4 [2]
0	0xbc8bf65c	-0.017085247
1	0xbbce4855	-0.0062952437

action_model._continuous_distribution.mu.weight f4 [2, 128]
0	0x3caf0258	0.021363422
1	0x3cd6c774	0.026218154
2	0xbc6e3a61	-0.014540286
3	0x3cbc28fb	0.02296876
4	0x3c1cc526	0.009568488
5	0x3d014082	0.03155566
6	0x3d60f2c7	0.05491903
7	0x3d1b5b80	0.037929058
8	0xbce8c1a2	-0.028412644
9	0x3cd341d7	0.02578823
10	0xbc7acf43	-0.015308204
11	0x3d0f7045	0.035019178
12	0x3d16b160	0.03679025
13	0x3c5bdfa8	0.013420023
14	0x39edd2b1	0.0004536114
15	0x3c73c276	0.014877906
16	0x3cf5b02c	0.029991232
17	0xbd18f1b6	-0.03733989
18	0xbc49e31d	-0.012322214
19	0x3d2fc884	0.042915836
20	0xbc73bfa5	-0.014877235
21	0x3924f925	0.00015733072
22	0x3cb10efc	0.02161359
23	0x3c9db024	0.01924903
24	0xbcb543bd	-0.022127027
25	0x3cfb3191	0.030663284
26	0x3d27c86b	0.040962618
27	0x3d1958b8	0.037438124
28	0xbcd37072	-0.025810454
29	0x3bdea94a	0.006795083
30	0x3b02d9c6	0.001996623
31	0xba9421ce	-0.0011301578
32	0x3c68f212	0.01421787
33	0x3cea92c0	0.028634429
34	0x3caa2165	0.020767877
35	0xbc0dc74a	-0.008653471
36	0x3be3470e	0.0069359606
37	0x3ce2f567	0.027704908
38	0x3d27b583	0.040944587
39	0x3c10047d	0.008790133
40	0xbc49986f	-0.012304409
41	0x3d14293d	0.03617214
42	0x3cefda29	0.029278832
43	0xbd0efca3	-0.034908902
44	0x3ca59e68	0.020217136
45	0xbd21b7cb	-0.03948192
46	0xbcee349d	-0.029077822
47	0x3c0631d6	0.008190593
48	0x3cac4f38	0.021033868
49	0x3b3a3570	0.00284132
50	0x3d125a11	0.035730425
51	0x3d464f33	0.048415374
52	0xbd2d129e	-0.042254083
53	0xbd65095f	-0.05591714
54	0xbca5785a	-0.02019899
55	0xbcadb7b4	-0.02120576
56	0x3c30e9ed	0.01079796
57	0xb8084e43	-3.2497814e-05
58	0xbc8327ec	-0.016010247
59	0x3d1b0106	0.037842773
60	0x3d264b5c	0.040599212
61	0x3d368596	0.04456099
62	0xbc01b986	-0.007917767
63	0x3c85de8e	0.016341474
64	0x3c8addd0	0.016951472
65	0x3cbbe8a3	0.022938078
66	0xbcb6f761	-0.022334756
67	0xba45897c	-0.00075354404
68	0x3d350fd4	0.044204548
69	0xbc950d30	-0.018194765
70	0x3d415f81	0.04721022
71	0x3c072e7c	0.008250829
72	0x3bf1e7dc	0.007382376
73	0x3ac91d65	0.0015343843
74	0xbbc01fd0	-0.0058631673
75	0x3d1a9b44	0.03774573
76	0x3cb87567	0.02251692
77	0xbd1ce0a5	-0.038300175
78	0x3d25cb75	0.040477235
79	0x3c1a93a7	0.009434617
80	0xbd2073f8	-0.039173096
81	0xbc93ceaf	-0.01804289
82	0x3c2f949d	0.0107165845
83	0x3d06a27c	0.0328698
84	0xbc6bf58f	-0.014401807
85	0x3b1db6b1	0.0024065191
86	0x3d281b8d	0.0410419
87	0xbbc40772	-0.005982333
88	0xbd0d19c7	-0.03444841
89	0xbc8af3b3	-0.016961908
90	0xbc72c531	-0.014817522
91	0x3c10f242	0.008846821
92	0x3cb2775d	0.021785432
93	0x3ceb38e8	0.028713658
94	0x3cdf10b1	0.027229639
95	0xbceff1bb	-0.02929007
96	0x3c7e3769	0.0155161405
97	0x3d063dbe	0.032773726
98	0x3d019d08	0.031643897
99	0xbbb0acb4	-0.0053916816
100	0x3c1df891	0.009641782
101	0x3cabbcbc	0.020964019
102	0xbc3a3cc9	-0.011367031
103	0x3d3b5d50	0.045743287
104	0x3b0ad694	0.0021185027
105	0x3cf48a23	0.029851025
106	0x3cfa64dd	0.030565673
107	0x3d045455	0.032306988
108	0x3cdc2534	0.026873209
109	0xbd06ac4c	-0.03287916
110	0x3a3f89b6	0.00073065923
111	0x3cdc3b62	0.026883785
112	0xbcd35da2	-0.025801484
113	0x3d74d327	0.059771683
114	0xbbbc6fb1	-0.0057506193
115	0xbc1cb452	-0.009564476
116	0xbc9019c6	-0.017590415
117	0xbce322a4	-0.027726479
118	0x3cb9a496	0.022661489
119	0x3d84f31c	0.06491682
120	0x3d128c98	0.035778612
121	0x3cbd1e6b	0.023085793
122	0x3d10c098	0.03533992
123	0xbc842df2	-0.01613519
124	0xbcdf80e6	-0.027283143
125	0xbc905f6a	-0.017623622
126	0xbd06cbdf	-0.03290927
127	0x3c934b0f	0.017980127
128	0xba6f5b44	-0.0009130726
129	0x3c4577f9	0.0120525295
130	0xbab76028	-0.0013990449
131	0x3caca2d8	0.021073744
132	0x3c087508	0.008328684
133	0x3c6cecd1	0.014460758
134	0xbba7c6cb	-0.0051201335
135	0xbbbd1bbb	-0.005771128
136	0x3d05ef8d	0.032699157
137	0x3a1d0984	0.00059904926
138	0xbaa2ebfc	-0.0012429948
139	0x3cd96e8a	0.026541967
140	0xbcc997f7	-0.024608595
141	0xbbcf0320	-0.006317511
142	0xbcac7231	-0.021050544
143	0xbb8f8ed7	-0.0043810415
144	0x3c0355c8	0.008016057
145	0xbc865353	-0.016397154
146	0xbc0e3af4	-0.008681048
147	0x3c80c4f2	0.01571891
148	0xbd3a6702	-0.045508392
149	0xbd3c46cb	-0.04596595
150	0x3cbd09b7	0.023075921
151	0x3c8a1691	0.016856464
152	0xbc92057e	-0.017824885
153	0xbc69a9c7	-0.0142616695
154	0x3cad0df4	0.021124817
155	0x3cabe14d	0.020981455
156	0xbcbad869	-0.02280827
157	0x3b021bb1	0.001985293
158	0x3cc4a830	0.02400598
159	0xbcae456b	-0.021273335
160	0x3cce96dc	0.02521842
161	0xbb75c2c1	-0.0037500116
162	0x3c2c1289	0.010502466
163	0xbc233aad	-0.00996272
164	0x3d0a1c1f	0.033718225
165	0x3c9ca51e	0.019121703
166	0x3a82437a	0.0009938322
167	0xbcc2328d	-0.023705745
168	0xbcfbe465	-0.030748555
169	0xbbe7abef	-0.0070700566
170	0x3bbd0177	0.005767997
171	0xbce137f4	-0.0274925
172	0x3c871306	0.016488563
173	0x3c3f23b1	0.011666224
174	0xbbc94cbb	-0.00614318
175	0x3c8054a9	0.01566537
176	0xbc35b406	-0.011090284
177	0x3c6f028e	0.014588011
178	0xbd31ef5e	-0.04344117
179	0x3c9ddfcf	0.01927176
180	0x3c392a23	0.01130155
181	0xbd1b8b98	-0.037974924
182	0xbcd8fdf8	-0.02648829
183	0x3c695c6b	0.014243226
184	0x3cfa4a90	0.030553132
185	0xbcb575cd	-0.022150898
186	0xbc2c58ed	-0.010519248
187	0x3cfd29e8	0.030903772
188	0xbb1144ee	-0.002216633
189	0x3b843627	0.004034776
190	0xbbc0f964	-0.0058891047
191	0x3ccab37f	0.024743794
192	0x3ca1fe79	0.019774662
193	0x3c2ef833	0.0106792925
194	0x3be6c7b0	0.0070428476
195	0x3ba2a123	0.0049630567
196	0xbd069eb5	-0.0328662
197	0xbcb25de6	-0.02177329
198	0x3d002f9f	0.031295415
199	0xbc4fef48	-0.012691326
200	0xbbda8599	-0.006668758
201	0xbc782a05	-0.015146737
202	0xbd1359f6	-0.035974465
203	0x3c807758	0.015681908
204	0x3ca93b95	0.020658294
205	0x3d0e698e	0.034768634
206	0x3c082987	0.008310682
207	0xbb0afccc	-0.0021207808
208	0x3bad185a	0.005282444
209	0xbb648900	-0.0034871697
210	0xbd3c434d	-0.04596262
211	0x3d04ea50	0.03245002
212	0x3c2e51ab	0.010639588
213	0xbccb132c	-0.024789415
214	0x3c280429	0.010254898
215	0xbc39b258	-0.011334024
216	0x3c85c4b4	0.016329147
217	0xbc3db24a	-0.011578152
218	0x3c181c6a	0.009284118
219	0x3aed6f62	0.001811486
220	0x3c2d894c	0.010591816
221	0xbc5d52cd	-0.013508511
222	0x3ccf2722	0.025287215
223	0x3c926d9c	0.017874531
224	0x3ce3baac	0.027798973
225	0xbcaad965	-0.020855615
226	0x3b849b0f	0.0040468047
227	0xbc0311c4	-0.007999841
228	0xb9a53334	-0.00031509402
229	0x3d3f3793	0.04668386
230	0xbc78efdc	-0.015193906
231	0x3d2360d8	0.03988728
232	0x3ac63263	0.0015121218
233	0x3c0566c5	0.008142178
234	0xbc859330	-0.016305536
235	0xbc3baa47	-0.0114541715
236	0x3c9a4f75	0.018836716
237	0xbc784e58	-0.015155397
238	0xbba5ce74	-0.0050600115
239	0xbc202def	-0.009776576
240	0x3cab241d	0.020891244
241	0x3a842778	0.0010082563
242	0x3ca1d7fa	0.019756306
243	0xbb5431fa	-0.0032378421
244	0x3ca77e36	0.020445924
245	0xbc7ac40d	-0.015305531
246	0x3ca76b67	0.020436956
247	0x3a80f44d	0.0009838432
248	0x3cd7d4c1	0.026346566
249	0xbd0516ac	-0.032492325
250	0x3c87e1ff	0.016587256
251	0xbc1fe9a9	-0.009760299
252	0xbb09cda5	-0.0021027115
253	0x3ca2baea	0.019864518
254	0xbb40a691	-0.0029396156
255	0x3bd6ac84	0.006551327

action_model._discrete_distribution.branches.0.weight f4 [1, 128]
0	0xbb889c99	-0.0041690585
1	0x3c3bac9e	0.011454729
2	0x3a428cf7	0.0007421518
3	0x3bda546d	0.0066628964
4	0xbb856d64	-0.0040718783
5	0xbc038a0f	-0.008028521
6	0x3a6fc74d	0.00091468246
7	0xbc74f58b	-0.01495112
8	0x3b97a84c	0.004628217
9	0x3bfb190f	0.0076628993
10	0xbb0c710e	-0.002142969
11	0x3b6a1e07	0.0035723464
12	0xbc1e644a	-0.009667465
13	0x3bdc2d1b	0.006719244
14	0xba54d507	-0.0008118902
15	0xbc23f04e	-0.010006024
16	0x3c58f9b3	0.013243127
17	0xbc8d0fba	-0.017219413
18	0x3c1df068	0.009639837
19	0xbc36c403	-0.011155131
20	0x3c460f28	0.0120885745
21	0xbba6a1f2	-0.0050852234
22	0xbbc614a8	-0.006044943
23	0xbcaa747a	-0.020807493
24	0x3b008e83	0.0019616194
25	0xbb141e7c	-0.0022601178
26	0x3c51e305	0.012810473
27	0x3c2a1284	0.010380391
28	0xbc981a03	-0.01856709
29	0xbb08583a	-0.002080454
30	0x3c060bdb	0.0081815375
31	0x3b7aa00d	0.003824237
32	0xbba272f7	-0.0049575525
33	0x3c751ffa	0.014961237
34	0x3b0a6743	0.0021118678
35	0x3c41bd32	0.011824893
36	0xbaca96bb	-0.0015456298
37	0x3bdc2b52	0.0067190314
38	0x3c20a091	0.009803907
39	0xb99b8b55	-0.00029667714
40	0xbb5d9832	-0.003381264
41	0x3c240bfe	0.010012625
42	0x3bdd77ca	0.0067586647
43	0xbbf1eb77	-0.007382806
44	0x3c2bb741	0.010480703
45	0x3b349a08	0.002755763
46	0x3c90893a	0.01764356
47	0x3c0238a9	0.007948079
48	0xbbf10c2f	-0.0073561887
49	0xbb5406db	-0.003235272
50	0x3c59239b	0.013253118
51	0xbc2ffaa1	-0.010740907
52	0x3bfb9e60	0.007678792
53	0x3b814d6a	0.003945996
54	0x3b3f231c	0.0029165214
55	0xbbe95d8a	-0.0071217464
56	0x3c8dded2	0.017318163
57	0xbc349dcb	-0.011023949
58	0xbb98d221	-0.004663721
59	0x3b718aea	0.003685648
60	0xbb4de2eb	-0.0031415771
61	0xbca9d178	-0.020729765
62	0xbc41de82	-0.011832835
63	0xbc12ff77	-0.00897204
64	0xbbde4ec7	-0.0067842933
65	0x3cc622f2	0.024186585
66	0x3ac829ac	0.0015271208
67	0xba4bbe02	-0.0007772149
68	0x3c5181c0	0.0127872825
69	0x3c0c8435	0.0085764425
70	0x3c129706	0.00894714
71	0x3aedefe2	0.0018153156
72	0xbc05e0e8	-0.008171298
73	0xbba9331f	-0.005163565
74	0xb9134c35	-0.00014047402
75	0xbb93ac15	-0.0045065978
76	0xbc874507	-0.016512407
77	0xbc44a994	-0.012003321
78	0xba06b4a7	-0.00051386136
79	0x3bd8b8d3	0.0066138296
80	0xbc31ef13	-0.010860222
81	0xbb06e5ce	-0.0020583752
82	0x3babf623	0.0052478476
83	0xbbcb489b	-0.0062037236
84	0x3ad702b3	0.0016404003
85	0xbc85e3e7	-0.016344024
86	0x3b2bb93f	0.0026202945
87	0x3c13ced1	0.009021477
88	0xbb0cff86	-0.0021514609
89	0xbb9690ac	-0.004594883
90	0x3b89dc46	0.004207167
91	0x3a91235f	0.0011073163
92	0x3c023a17	0.00794842
93	0x3c60c700	0.01371932
94	0xbb3af74d	-0.002852875
95	0xba8573ac	-0.0010181568
96	0x3c0307f9	0.007997506
97	0x3a865348	0.0010248208
98	0x3bfbbc0f	0.0076823304
99	0x3ae455d7	0.0017420602
100	0xbc2987d7	-0.010347328
101	0x3bab6f2b	0.005231758
102	0xbb047893	-0.002021347
103	0xb9f28ebb	-0.0004626418
104	0x3c207483	0.009793404
105	0xba83712b	-0.0010028234
106	0x3b96ac0a	0.0045981454
107	0xbc3b2785	-0.011422996
108	0xbb0bb3ff	-0.0021317003
109	0x3b1d617f	0.002401441
110	0xbb3ce47b	-0.0028822708
111	0x3c869643	0.016429072
112	0x3b32601b	0.0027217928
113	0x3bdc5303	0.006723763
114	0xbb6a3950	-0.0035739727
115	0xbbe9ba15	-0.0071327784
116	0x3bf9e935	0.0076266774
117	0xbc80bd6b	-0.015715322
118	0x3c01e4c1	0.007928074
119	0x3b03db2b	0.0020119648
120	0xbaffcbd5	-0.0019515703
121	0xbc2bf98f	-0.010496511
122	0xbc4f1547	-0.01263935
123	0xbad5328d	-0.0016265676
124	0x3c7d4145	0.015457456
125	0xba5c0c07	-0.0008394126
126	0x3c2e6977	0.010645262
127	0xbaa9c02b	-0.0012950947

network_body._body_endoder.seq_layers.0.bias f4 [128]
0	0xbc0ea81f	-0.008707075
1	0xbc137f6c	-0.009002548
2	0x3cda11db	0.026619842
3	0xbc0dd78b	-0.0086573465
4	0xbbae79f8	-0.0053245984
5	0xbbb11213	-0.005403766
6	0xbc371539	-0.0111744935
7	0x3a4ef605	0.0007894936
8	0xbc97f6ba	-0.018550266
9	0x3c94493f	0.018101333
10	0x3c219bb3	0.009863782
11	0xbcaab694	-0.020839013
12	0x3ca23098	0.019798562
13	0xbb4ec666	-0.003155136
14	0x3bc01005	0.0058612847
15	0x3b96fb24	0.004607575
16	0xba25e176	-0.0006327847
17	0x3c9a0009	0.018798845
18	0xbca2499b	-0.019810488
19	0xbccad2f1	-0.024758788
20	0xbc3aa3f1	-0.011391626
21	0xbc989413	-0.018625295
22	0x3c857469	0.01629086
23	0x3c31e472	0.010857688
24	0xbc63241c	-0.01386359
25	0x3b6c171c	0.0036024516
26	0x3c94f54a	0.01818337
27	0x3c40a7cd	0.011758757
28	0xbbd1e61d	-0.0064056055
29	0x3c3fe584	0.011712436
30	0x3aaa363e	0.0012986136
31	0xbc577170	-0.013149604
32	0xbbb6313c	-0.0055600684
33	0x3aedf6c6	0.0018155209
34	0x3bc534db	0.0060182638
35	0xb94d3442	-0.00019569791
36	0x3c9bc459	0.019014524
37	0x3cc15744	0.023601182
38	0xbbfc9156	-0.007707755
39	0xbc7d2703	-0.015451196
40	0x3c001b5f	0.007819026
41	0x3c61c6b9	0.013780289
42	0x3c5f3673	0.013623822
43	0x3b0560fa	0.0020351992
44	0x3c8433ff	0.016138075
45	0xbc1c776e	-0.009549959
46	0x3c29c416	0.010361692
47	0x3b21463f	0.002460852
48	0xbcad025b	-0.021119287
49	0xbb2874af	-0.0025704314
50	0xbaf72751	-0.0018856322
51	0x3c02a7a1	0.007974536
52	0xbafccb94	-0.0019286745
53	0xbc16a9af	-0.009195729
54	0x3bb6f4e2	0.0055833915
55	0x3bc18e7a	0.005906877
56	0x3cfc98eb	0.030834636
57	0x3a818c23	0.0009883683
58	0xbc3724c3	-0.011178198
59	0x3bf525b6	0.007481302
60	0xbc7957e9	-0.015218713
61	0x3cacd540	0.02109778
62	0x3b96d9b1	0.0046035876
63	0x39fd3e98	0.00048302556
64	0x3cb0b5a5	0.02157099
65	0xbb9b2052	-0.0047340775
66	0x3c9b0397	0.01892261
67	0x3ca31cc2	0.019911174
68	0xbcad53bb	-0.02115809
69	0x3c91828d	0.017762447
70	0xbb74898c	-0.003731343
71	0x3c00b5bb	0.007855828
72	0x3c8de9e1	0.017323436
73	0x3ca28acc	0.019841574
74	0xbaad20a9	-0.0013208586
75	0xbc54fcf2	-0.01299976
76	0x3c68d915	0.014211913
77	0x3b8715e3	0.004122482
78	0x3cb21ffc	0.021743767
79	0xbbd32990	-0.0064441636
80	0xbced379f	-0.028957186
81	0x3c318bd5	0.010836561
82	0xb99d9ac0	-0.0003006067
83	0xbc60f6a2	-0.013730677
84	0x3c97bf44	0.01852382
85	0x3bb81508	0.0056177415
86	0x3cabd6dd	0.020976478
87	0x3c0a12cb	0.008427332
88	0x3ca442b8	0.020051345
89	0xbad0217f	-0.0015879123
90	0x3caeb036	0.021324258
91	0xbb1d3a1b	-0.0023990932
92	0x3cc70d52	0.024298344
93	0xbab8c034	-0.0014095367
94	0xbbd02288	-0.0063517727
95	0x3d009224	0.03138937
96	0xbb903494	-0.004400799
97	0x3b699c7f	0.0035646257
98	0xbb7d7a3f	-0.00386776
99	0x3bc28840	0.0059366524
100	0x3c9f9528	0.019480303
101	0x3c8e7bb2	0.017392967
102	0x3be20be1	0.0068983887
103	0x3c3f0672	0.0116592515
104	0x3ccf5578	0.02530931
105	0xbc0a0d60	-0.00842604
106	0x3c965ad0	0.01835385
107	0xbbc5e94c	-0.006039774
108	0xbb205699	-0.0024465679
109	0xbcb3abb9	-0.02193247
110	0xbc6b0d45	-0.014346425
111	0xbb961dba	-0.0045811804
112	0x3c931ca7	0.017957998
113	0x3b507898	0.003181016
114	0xbbf3b813	-0.007437715
115	0x3b5c249d	0.003359116
116	0xbc6aea7f	-0.014338135
117	0xbc7dcec5	-0.015491192
118	0x3c08f3a3	0.008358869
119	0x3cb228d1	0.021747978
120	0xbcc79176	-0.024361353
121	0xbba2c291	-0.004967042
122	0xbc01e750	-0.007928684
123	0xbbed0667	-0.0072334292
124	0xbc817402	-0.015802387
125	0x3cc38730	0.023868173
126	0x3c82d022	0.015968386
127	0x3c07481f	0.008256941

network_body._body_endoder.seq_layers.0.weight f4 [128, 80]
0	0x3de389aa	0.11110242
1	0x3cb1872f	0.021670906
2	0x3e116e23	0.1420217
3	0xbdb42c13	-0.08797469
4	0x3d3f9606	0.046773933
5	0xbd8fdc9a	-0.07024498
6	0x3e5b8432	0.21437147
7	0xbc3da732	-0.011575507
8	0xbe060013	-0.13085966
9	0x3c833ebb	0.016021123
10	0x3d8978ae	0.06712471
11	0x3cb82fce	0.022483733
12	0xbddce84d	-0.10786495
13	0xbd025bf8	-0.03182599
14	0xbd99bd85	-0.07506851
15	0xbd1fd82b	-0.039024513
16	0x3cbf4bda	0.023351599
17	0xbe2dd4b5	-0.16975673
18	0xbd26e4d4	-0.04074557
19	0xbd8b05c9	-0.06788213
20	0xbda74ef9	-0.0816936
21	0xbd373409	-0.04472736
22	0xbd6eae86	-0.058271907
23	0xbdfc1065	-0.123078145
24	0x3d4adacf	0.04952508
25	0xbc5d73db	-0.013516392
26	0xbc5e6e99	-0.013576173
27	0xbe1bd285	-0.15217026
28	0x3ab14015	0.0013523126
29	0x3e057afe	0.13035199
30	0x3d890531	0.06690443
31	0x3dc20c9c	0.09475061
32	0xbd8c6b74	-0.068564326
33	0xbd879c09	-0.06621558
34	0xbd9742ac	-0.073857635
35	0x3dcba65c	0.0994384
36	0x3dbedd4c	0.09319553
37	0x3d8d5a90	0.06902039
38	0xbd80a124	-0.06280735
39	0xbd06ef6a	-0.032943167
40	0x3e3e8689	0.18606009
41	0x3d2ed7bf	0.04268622
42	0x3e434595	0.19069512
43	0x3d62b5c0	0.05534911
44	0xbe5ad74d	-0.21371193
45	0x3d1c66a1	0.038183812
46	0x3e181e2b	0.14855258
47	0x3c4bc4e9	0.012437084
48	0x3ccf4d68	0.025305465
49	0xbe021c13	-0.12706022
50	0x3d66ec66	0.05637779
51	0xbda0976a	-0.0784138
52	0x3d185c66	0.037197493
53	0xbd2d3644	-0.04228808
54	0x3da44b8d	0.08022223
55	0x3d984239	0.07434506
56	0x3d6dd2a6	0.058062218
57	0xbe1b875e	-0.15188357
58	0x3d4a8f8b	0.0494533
59	0xbd20caf4	-0.03925605
60	0x3c912209	0.017716425
61	0x3e6ca0a4	0.23108155
62	0xbd8535bb	-0.06504389
63	0x3e175d20	0.14781618
64	0xbcfe2f8e	-0.031028535
65	0x3df09cd9	0.11748666
66	0x3d8cf770	0.068831325
67	0x3e141593	0.14461355
68	0xbdc6d43f	-0.097084515
69	0xbd4fcee7	-0.050734427
70	0x3e8729de	0.2639913
71	0xbe68d290	-0.22736573
72	0x3d5e3ae4	0.05425538
73	0x3df1bc5f	0.11803507
74	0xbc8de72a	-0.017322142
75	0xbeb28238	-0.34864974
76	0xbdf658c5	-0.1202865
77	0xbdc4e8d9	-0.09614725
78	0x3d5f6f86	0.054549716
79	0x3cdb92b7	0.026803358
80	0x3d345185	0.044023056
81	0xba328a78	-0.00068107946
82	0xbd712f19	-0.058882806
83	0x3dfd7770	0.123762965
84	0xbd11b406	-0.035572074
85	0x3bd201bb	0.0064088977
86	0x3e532ea2	0.20623258
87	0xbe25bd5b	-0.16185515
88	0x3d8719f2	0.065967456
89	0xbe01a122	-0.12659124
90	0x3d9b2f36	0.07577364
91	0x3d54e8ca	0.051979817
92	0xbd0b65ef	-0.03403276
93	0x3e1d0b93	0.15336446
94	0x3d445692	0.047934122
95	0xbd94d47a	-0.07267089
96	0x3c1c0d70	0.009524688
97	0x3bad48be	0.0052882126
98	0x3ce71a0f	0.028210668
99	0xbd95218f	-0.072817914
100	0x3c355fa9	0.01107017
101	0xbe48f91e	-0.1962628
102	0xbd8ce6dc	-0.068799704
103	0xbd1c616d	-0.03817885
104	0xbe8213c2	-0.254057
105	0x3df0bd3a	0.11754842
106	0xbcb5968b	-0.022166511
107	0x3d2b5c39	0.041835997
108	0x3e2d626a	0.16932073
109	0xbd14d451	-0.036335293
110	0xbe06d528	-0.1316725
111	0xbe2e8aac	-0.17045087
112	0x3c5eb0ce	0.013591958
113	0x3dba769d	0.09104655
114	0x3daa4fa1	0.08315969
115	0xbdaf5abb	-0.08562227
116	0xbdc82da3	-0.097743295
117	0x3e196a8d	0.14982052
118	0xbd838bc1	-0.0642314
119	0x3da01e64	0.078182966
120	0x3df1b350	0.11801779
121	0x3c9e9807	0.019359602
122	0x3cf8102e	0.030281153
123	0x3dbfe402	0.09369661
124	0xbe0e8f06	-0.13921747
125	0x3dbf6f87	0.09347444
126	0xbdb34911	-0.08754171
127	0xbe671eae	-0.22570297
128	0x3d4eecfe	0.050518982
129	0xbdce3fb2	-0.10070743
130	0xbc957373	-0.018243527
131	0xbe3a06e4	-0.18166691
132	0x3de044b0	0.10950601
133	0xbce6ec8f	-0.028188972
134	0xbd0989f0	-0.033578813
135	0x3e73687c	0.23770326
136	0xbd61b917	-0.055108156
137	0x3e0db2e8	0.13837779
138	0xbe3b76d3	-0.18307047
139	0xbd6eb7ae	-0.05828064
140	0xbd91ed9e	-0.071254
141	0xbdfade19	-0.12249393
142	0x3e3587aa	0.17727533
143	0xbbf5f60a	-0.007506137
144	0xbd329dba	-0.04360745
145	0xbdde930a	-0.10867889
146	0x3d0e92c0	0.03480792
147	0x3dfdb380	0.123877525
148	0x3c3397de	0.010961501
149	0xbd2486d6	-0.040167652
150	0x3d9b2795	0.07575909
151	0xbcb1bcc7	-0.021696461
152	0x3cb77683	0.022395378
153	0x3d809d5f	0.06280016
154	0xbcd64aef	-0.026158778
155	0x3ceb0ebf	0.028693555
156	0x3dcca6d6	0.09992759
157	0x3da489dd	0.08034108
158	0xbe1f70c3	-0.15570359
159	0xbd9c81d4	-0.0764195
160	0x3dbc9885	0.09208778
161	0xbe076dce	-0.13225481
162	0xbdee2777	-0.11628621
163	0x3d81e404	0.06342319
164	0xbc0fbc4c	-0.008772921
165	0x3d87a5e7	0.0662344
166	0xbd687e9c	-0.05676137
167	0x3d0eee57	0.034895267
168	0xbd96d122	-0.07364108
169	0x3e410572	0.18849733
170	0x3d856f06	0.06515317
171	0xbda27b08	-0.079336226
172	0x3dbc28f0	0.09187496
173	0xbe2b7436	-0.1674355
174	0x3b1ceb3c	0.0023943922
175	0x3e1d4bcc	0.15360945
176	0xbce6e2bc	-0.028184287
177	0xbd98a800	-0.074539185
178	0xbe00f7b1	-0.12594487
179	0x3e06cc6b	0.13163917
180	0xbdf5bec8	-0.11999279
181	0xbd712f2e	-0.058882885
182	0xbd8ac2f1	-0.06775463
183	0x3de378ef	0.111070506
184	0x3d8ef5aa	0.069804505
185	0xbd9dbf87	-0.077025466
186	0xbd7af624	-0.061269894
187	0x3cdcba63	0.026944345
188	0xbdc68fa4	-0.09695366
189	0x3e338b49	0.17533602
190	0x3e303f2e	0.17211601
191	0x3cdaa1b7	0.02668844
192	0xbd4e605e	-0.05038487
193	0x3e61faae	0.22068283
194	0x3dd845fd	0.10560224
195	0x3a3e081c	0.0007249133
196	0x3e56e834	0.20987016
197	0xba0d6b3f	-0.0005394704
198	0xbe11e4d5	-0.14247449
199	0x3af9c1f6	0.0019054997
200	0xbe3a3bc8	-0.18186867
201	0xbe36f563	-0.17867045
202	0x3de680a4	0.11255005
203	0x3d602c23	0.054729592
204	0x3c280ab1	0.010256455
205	0x3d2137f9	0.03936002
206	0xbe5152f6	-0.20441803
207	0xbdbddbaf	-0.09270417
208	0xbcb83248	-0.022484913
209	0x3dacd6bf	0.08439397
210	0x3e3f061d	0.18654676
211	0xbc3eb74f	-0.011640384
212	0x3b80ef17	0.0039347517
213	0x3d6a2294	0.057161883
214	0xbd5c799d	-0.053826917
215	0x3d03466f	0.032049593
216	0xbe965350	-0.29360437
217	0xbcf9b9df	-0.030484138
218	0x3e047df8	0.12938678
219	0xbc818c86	-0.015814077
220	0x3c6d1e5b	0.014472569
221	0x3dce4ee0	0.10073638
222	0x3bf40f73	0.0074481308
223	0x3d65959b	0.056050878
224	0x3e089aeb	0.13340347
225	0x3d81f993	0.06346431
226	0xbe1c1b99	-0.15244903
227	0xbe937f21	-0.2880793
228	0xbe00e1cf	-0.12586139
229	0xbd98a85a	-0.074539855
230	0xbd52cd2f	-0.05146521
231	0xbdb4bc2b	-0.08824953
232	0xbd0dd322	-0.03462518
233	0x3bb00ac3	0.0053723766
234	0xbd52a30a	-0.051425017
235	0x3dd90670	0.10596931
236	0x3dba2206	0.09088521
237	0x3e822257	0.25416824
238	0xbdf5d303	-0.12003138
239	0xbe1cc097	-0.15307842
240	0xbc97b174	-0.018517233
241	0x3dff4154	0.12463632
242	0xbd6726e6	-0.05643358
243	0x3e1e8c2e	0.15483162
244	0xbe357576	-0.17720589
245	0x3c669fe2	0.014076205
246	0xbe6e3fcf	-0.23266529
247	0x3db6d7d4	0.08927885
248	0xbcabb71d	-0.020961339
249	0x3de30575	0.11085025
250	0xbbafdbbc	-0.0053667706
251	0xbd3d25af	-0.046178516
252	0x3dbd9fd7	0.09259003
253	0xbd38219d	-0.04495393
254	0x3d678c40	0.056530237
255	0xbe66f052	-0.22552612

network_body._body_endoder.seq_layers.2.bias f4 [128]
0	0xbc5bd073	-0.013416397
1	0xbaf4a910	-0.0018666107
2	0x3c1bab8a	0.009501347
3	0xbb924114	-0.0044633243
4	0xbc57bfd5	-0.013168295
5	0x3b9f4cbf	0.004861444
6	0xbb92c453	-0.00447897
7	0xbc55c88d	-0.013048303
8	0x3bec4a0f	0.007210977
9	0x3c738fb2	0.014865803
10	0x3c93c01d	0.018035943
11	0xbb6425bd	-0.0034812533
12	0xbb443cff	-0.0029943583
13	0xbc512179	-0.012764328
14	0x3bdfa77e	0.0068253865
15	0xbc114905	-0.008867507
16	0xbba1c3dc	-0.0049366783
17	0x3cd41941	0.025890948
18	0xbc6a63e5	-0.014306043
19	0xbc253006	-0.01008225
20	0x3c3afb19	0.011412405
21	0x3bc484aa	0.00599726
22	0x3c0ed767	0.008718348
23	0xbcad83ff	-0.021181105
24	0x3c5ad7d0	0.013357118
25	0x3aa73f98	0.0012760041
26	0x3bc2cd54	0.005944887
27	0x38ac1b62	8.2066996e-05
28	0x3cb7504b	0.022377154
29	0xbc98113b	-0.018562904
30	0x39cb6301	0.0003879294
31	0x3bf69017	0.007524501
32	0x3c391d36	0.011298468
33	0x3b451967	0.0030074955
34	0xbc02ac9c	-0.007975724
35	0x3c8cf687	0.017207397
36	0x3a80025a	0.0009766326
37	0x3b2dba13	0.0026508614
38	0x3be503dd	0.006988986
39	0xbc071d57	-0.008246741
40	0x3c29ce9b	0.0103642
41	0xbc24cd15	-0.010058661
42	0xbc51b8f5	-0.012800445
43	0x3cb7ada6	0.02242167
44	0xbc4e5f67	-0.012595988
45	0x3c5cc7df	0.013475387
46	0x3cb5f200	0.022210121
47	0xbab363b1	-0.0013686327
48	0xbbef6611	-0.0073058684
49	0x3ba4ca72	0.005029016
50	0xb9c5437b	-0.00037625045
51	0xbbd88963	-0.0066081746
52	0x3c87466a	0.016513068
53	0x3c732be0	0.014842004
54	0x3c5ff9c7	0.013670391
55	0x3bff6829	0.0077943993
56	0x3b9bdd28	0.0047565885
57	0x3bea2069	0.007144977
58	0x3c8f314c	0.017479561
59	0xbbf1d39e	-0.007379963
60	0x3bf383e8	0.007431496
61	0xbbc45a09	-0.0059921783
62	0x3c5a5700	0.0133264065
63	0x3bf7cd63	0.007562326
64	0xbc52a361	-0.012856335
65	0xbc56a43e	-0.013100682
66	0x3c504b9d	0.01271334
67	0xbbe2a551	-0.00691668
68	0x3b6df7e9	0.0036311096
69	0x3c4fea80	0.0126901865
70	0x3b5445e4	0.003239029
71	0x3ab45e33	0.0013760984
72	0xbbdc9974	-0.00673216
73	0xba9791e2	-0.0011563862
74	0xbab3d655	-0.0013720492
75	0xbc42c0e4	-0.011886809
76	0xbb331f72	-0.0027331975
77	0x3c6c86a0	0.014436394
78	0x3c9fc3bf	0.019502519
79	0xbc73a225	-0.014870201
80	0x3c71fecf	0.014770224
81	0x3ca29bbd	0.019849652
82	0x3b699b1b	0.0035645429
83	0xbb776d6a	-0.0037754425
84	0x3c03e000	0.008049011
85	0x3c16889d	0.009187845
86	0xbc378030	-0.011199996
87	0x3c60b15b	0.01371416
88	0x3c16618c	0.00917853
89	0x3ca2d9ce	0.019879248
90	0x3c764627	0.015031374
91	0xbba646b9	-0.0050743488
92	0xbc6d93af	-0.014500543
93	0x3c468130	0.012115762
94	0xbb6ad70e	-0.003583375
95	0x3bbb6c37	0.0057196873
96	0x3c0b7c1b	0.008513476
97	0xbbc2e005	-0.0059471154
98	0x3a3b934a	0.00071554317
99	0x3c867992	0.016415391
100	0xbc82d6b3	-0.015971517
101	0xbad139b5	-0.0015962633
102	0x3c83c1cf	0.016083626
103	0xbb49d561	-0.003079735
104	0xb70203ea	-7.749515e-06
105	0xbb4aff68	-0.0030974988
106	0xbbcdcecf	-0.006280757
107	0xbbc10aed	-0.005891195
108	0xbbed06a1	-0.0072334562
109	0x3ca3226a	0.01991387
110	0xbb286d3f	-0.0025699881
111	0xbbb758cc	-0.005595302
112	0x3bbc5920	0.005747929
113	0x3bbde9b0	0.00579568
114	0x3b92ce53	0.004480162
115	0x3c84683f	0.01616299
116	0xbbbca6b9	-0.0057571796
117	0x3ca8847a	0.020570982
118	0xbc2e318c	-0.01063193
119	0xbb7aa484	-0.0038245032
120	0x3bfd208b	0.0077248267
121	0xbb872425	-0.004124182
122	0xbb21476e	-0.0024609226
123	0x3ca425c8	0.020037547
124	0x3c90d6ec	0.017680608
125	0x3c8c17b6	0.01710115
126	0x3cd077b6	0.025447708
127	0x3bc9d020	0.0061588436

network_body._body_endoder.seq_layers.2.weight f4 [128, 128]
0	0x3d75e793	0.0600353
1	0x3e007d83	0.12547879
2	0x3d2f5920	0.042809606
3	0x3c600488	0.013672955
4	0xbda14cea	-0.07875998
5	0xbd4dd3f3	-0.05025096
6	0xbd401db7	-0.04690334
7	0x3c5f82d0	0.013642028
8	0xbc31a081	-0.01084149
9	0xbe006fe5	-0.12542684
10	0xbdbb743f	-0.091530316
11	0xbc71ec29	-0.014765778
12	0x3e0e805c	0.13916153
13	0xbceec5f3	-0.029147124
14	0xbda4b18d	-0.080416776
15	0x3ad1330b	0.0015960647
16	0xbd0dafa6	-0.03459134
17	0xbd93c54e	-0.07215367
18	0xbb08eb74	-0.0020892294
19	0xbdb88850	-0.090103745
20	0x3d61db75	0.05514093
21	0xbe2b47e0	-0.16726637
22	0xbdc251bd	-0.094882466
23	0xbd423d97	-0.047422018
24	0x3b51004d	0.0031891048
25	0xbe007164	-0.12543255
26	0xbc7cbf77	-0.015426508
27	0x3cf54920	0.029942095
28	0x3db1e721	0.086866625
29	0x3c1d2dff	0.009593486
30	0x3d248e99	0.040175054
31	0xbda9a59d	-0.08283541
32	0x3d46d456	0.048542343
33	0x3dacee6e	0.08443914
34	0x3e017a73	0.12644367
35	0x3d8db77b	0.06919762
36	0x3ca9ebf6	0.020742398
37	0x3d3b3cc8	0.045712262
38	0x3c8153ae	0.015786972
39	0x3da17d49	0.07885224
40	0x3d2ee132	0.04269523
41	0xbbe18818	-0.0068826787
42	0x3e155abf	0.14585398
43	0xbca700a7	-0.020386053
44	0x3c8a2d46	0.016867291
45	0x3d147fb5	0.036254603
46	0x3ca9e9a5	0.020741293
47	0xbe2bd5bb	-0.1678075
48	0x3c1500c3	0.00909442
49	0x3e38f79c	0.18063205
50	0xbd7ef60f	-0.06224638
51	0xbd684ccb	-0.05671386
52	0x3d24b929	0.040215645
53	0x3da55ed0	0.08074725
54	0x3d4c1d4a	0.04983262
55	0xbe03b039	-0.12860192
56	0x3b98b30f	0.0046600173
57	0xbbbb4c89	-0.005715911
58	0x3e32e2ba	0.17469302
59	0xbd8b658d	-0.06806479
60	0x3e15761b	0.14595835
61	0xbdafa9b2	-0.08577289
62	0xbddb0698	-0.10694617
63	0x3bda2f07	0.006658438
64	0xbd5fceb0	-0.054640472
65	0x3dde89c4	0.108661205
66	0xbcd1adc3	-0.025595551
67	0x3dbcb79c	0.09214708
68	0x3dfe9572	0.12430848
69	0xbe030b5d	-0.12797303
70	0xbd17b53a	-0.037038065
71	0x3d10486f	0.035225328
72	0xbe5be5ab	-0.2147433
73	0x3e105e76	0.14098534
74	0xbcffacb7	-0.031210287
75	0xbd37642a	-0.04477326
76	0x3dcc5c74	0.099785715
77	0x3aa7abd7	0.0012792301
78	0x3ccf7c95	0.02532796
79	0xbdb58e3a	-0.08865018
80	0x3d8aeefa	0.067838624
81	0x3e22e31d	0.1590695
82	0x3e0fb966	0.14035568
83	0x3d365ed9	0.044524048
84	0xbd471f40	-0.048613787
85	0xbd94c3a7	-0.0726388
86	0x3cd3569e	0.025798138
87	0x3d57511d	0.05256759
88	0xbd7a06cf	-0.06104165
89	0x3d96857d	0.073496796
90	0x3ddb698a	0.10713489
91	0x3ce106b2	0.027469013
92	0xbc881c9f	-0.01661521
93	0x3dabf2cd	0.0839592
94	0xbe3fae64	-0.18718868
95	0xbd7a5fad	-0.0611264
96	0x3e52755f	0.20552586
97	0xbc05a89c	-0.008157875
98	0x3dfe5888	0.1241923
99	0xbdc7a2d8	-0.09747857
100	0xbe100f60	-0.14068365
101	0x3dcfd085	0.10147194
102	0xbcca77f9	-0.02471541
103	0xbb2905a9	-0.0025790727
104	0x3dc3f7c5	0.09568743
105	0xbd40cd94	-0.047071055
106	0x3dde7841	0.1086278
107	0x3d773f39	0.06036303
108	0xbdf33faf	-0.11877381
109	0xbd9b2373	-0.07575121
110	0xbd73aebe	-0.05949282
111	0xbcc315c1	-0.023814084
112	0x3e2bd952	0.1678212
113	0xbd83e231	-0.06439627
114	0x3dcef3c8	0.10105091
115	0x3d979b3f	0.07402658
116	0x3e091dcc	0.13390273
117	0x3cc85645	0.024455199
118	0xbda8719b	-0.082247935
119	0xbd611f68	-0.054961592
120	0x3ca55749	0.020183222
121	0xbc189dfe	-0.009315012
122	0x3e037dcd	0.12840958
123	0x3e3e536c	0.1858651
124	0x3c5bfdf2	0.0134272445
125	0xbcd694e6	-0.026194047
126	0x3e190525	0.14943369
127	0x3c1cc8c5	0.009569352
128	0xbe0112a4	-0.12604767
129	0x3dcac0db	0.099000655
130	0x3e05e408	0.13075268
131	0xbd7371c4	-0.059434667
132	0x3d15b390	0.036548197
133	0xbdb43d9f	-0.08800816
134	0x3ca962cf	0.020676998
135	0x3caa0c19	0.020757722
136	0x3c5a377e	0.013318894
137	0xbd049eb0	-0.0323779
138	0x3be1224c	0.0068705436
139	0xbdde9053	-0.108673714
140	0xbbe41ad2	-0.006961205
141	0xbd83e914	-0.064409405
142	0xbb282b9b	-0.0025660757
143	0x3a96c74c	0.0011503487
144	0xbd372bbb	-0.04471944
145	0xbce0c461	-0.02743739
146	0xbd1b52a3	-0.037920605
147	0x3c33561b	0.010945822
148	0xbc3c0db1	-0.011477874
149	0xbe0e3ba1	-0.13889934
150	0xbd8bba96	-0.06822698
151	0xbca135c2	-0.019678954
152	0xbc020e0d	-0.00793792
153	0x3c3b9617	0.011449358
154	0xbc4f8cc3	-0.012667838
155	0x3d1c2493	0.038120817
156	0x3c8ee8ad	0.017444933
157	0xbdb25397	-0.0870735
158	0xbca161f9	-0.019700037
159	0xbdd01b95	-0.10161511
160	0x3daaa746	0.08332686
161	0x3e8bf0a5	0.27332035
162	0x3e995fa5	0.29955783
163	0xbc4d511d	-0.012531546
164	0xbd2a3d34	-0.041562274
165	0x3d9c06eb	0.07618507
166	0xbd62b367	-0.055346873
167	0xbd12f4b8	-0.035877913
168	0xbe269f64	-0.1627174
169	0xbe3f32cb	-0.1867172
170	0xbd14391c	-0.036187276
171	0xbe1ec641	-0.15505315
172	0xbdc1e005	-0.094665565
173	0xbd25d016	-0.04048165
174	0x3d10b6b7	0.0353305
175	0xbdee587b	-0.1163797
176	0x3db3603f	0.08758592
177	0xbe57a1ea	-0.21057859
178	0xbd3fff2b	-0.046874207
179	0xbe45085b	-0.19241469
180	0xbbe0bbd6	-0.0068583293
181	0x3cb796f3	0.022410845
182	0x3d2fd55b	0.04292808
183	0x3cc5906d	0.02411672
184	0xbdcd3715	-0.10020272
185	0xbd37a5a9	-0.04483572
186	0xbba8aca3	-0.005147533
187	0x3dcebc2b	0.10094484
188	0x3e491e1b	0.1964039
189	0xbd7dcebe	-0.061964743
190	0x3dab4ea9	0.083646126
191	0x3d509de2	0.05093182
192	0xbd87efe1	-0.0663755
193	0xbd8b0f40	-0.06790018
194	0x3db1cd52	0.0868174
195	0xbd61272e	-0.054969005
196	0xbcff2726	-0.031146597
197	0xbcd2f662	-0.02575225
198	0x3dd8a74e	0.10578786
199	0xbde76997	-0.112994365
200	0x3b5f439c	0.0034067398
201	0xbe02d31a	-0.12775841
202	0xbddbba8e	-0.10728942
203	0xbcdabcaa	-0.02670129
204	0xbc11829e	-0.008881239
205	0x3d775322	0.060382016
206	0xbe0e41cb	-0.13892286
207	0x3d9400e9	0.07226736
208	0x3db632f3	0.088964365
209	0xbd669c50	-0.056301415
210	0x3c9ca5a3	0.01912195
211	0xbd710ef6	-0.05885216
212	0xbe059f7d	-0.13049121
213	0xbcbd0d96	-0.023077767
214	0xbd10f9bf	-0.035394426
215	0x3da2968a	0.07938869
216	0x3d1fe96f	0.03904098
217	0xbd3bcd0c	-0.045849845
218	0x3d73e953	0.059548687
219	0xbdb1eba2	-0.086875215
220	0xbdbbf838	-0.09178203
221	0x3b8bb3b9	0.004263368
222	0xbdabd6d9	-0.08390588
223	0xbd9a038f	-0.0752021
224	0xbdad63b7	-0.08466285
225	0xbd9ed547	-0.07755523
226	0xbd943aae	-0.07237755
227	0xbd267129	-0.04063526
228	0x3d7bb195	0.061448652
229	0x3deec794	0.1165916
230	0x3dcf037c	0.101080865
231	0x3d1d4ee8	0.03840533
232	0xbcaa6029	-0.020797806
233	0x3dabca90	0.08388245
234	0xbe7c729b	-0.24653094
235	0xbd421927	-0.04738727
236	0x3d95d673	0.073162936
237	0xbd384be6	-0.044994257
238	0xbd8051cb	-0.06265601
239	0x3e1fab30	0.15592647
240	0x3ce7a5eb	0.028277358
241	0xbdd8aee5	-0.105802335
242	0x3d1e43f4	0.038639024
243	0xbc0cc89c	-0.008592751
244	0xbe0ccbab	-0.13749568
245	0xbd5bc009	-0.053649936
246	0x3dc96f0a	0.09835632
247	0xbdcb5f18	-0.09930247
248	0xbd131641	-0.035909895
249	0x3d025334	0.03181763
250	0x3c7424fa	0.014901394
251	0xbd529600	-0.051412582
252	0x3d709697	0.058737364
253	0x3d9335a3	0.07187965
254	0xbbc74809	-0.0060815853
255	0xbdbd2b41	-0.09236766
