Assets/TrainedModels/AgentSphereBehavior-866062.onnx (onnx, 127664 bytes, 8 tensors)

action_model._continuous_distribution.log_sigma f4 [1, 2]
0	0x3dafbcaf	0.085809104
1	0xbd48ca25	-0.049020905

action_model._continuous_distribution.mu.bias f4 [2]
0	0xbc8303ea	-0.015993077
1	0xbd4b69e6	-0.04966154

action_model._continuous_distribution.mu.weight f4 [2, 128]
0	0xbc755f15	-0.014976283
1	0xbd51363c	-0.051077113
2	0xbd0b4402	-0.034000404
3	0x3d27e83b	0.040992957
4	0xbd6292f8	-0.05531594
5	0xbc98e275	-0.01866267
6	0x3d5ced3f	0.053937193
7	0xbd8f946a	-0.070107296
8	0xbd5281f3	-0.05139346
9	0xbdf43dbc	-0.119258374
10	0xbd804ca3	-0.06264617
11	0x3bb137b1	0.0054082503
12	0xbbf0d95b	-0.0073501295
13	0xbd136f39	-0.035994742
14	0xbd1691dc	-0.036760196
15	0x3d0d82b4	0.034548476
16	0xbcfc8b28	-0.030828074
17	0x3d89447e	0.06702517
18	0xbdce64a4	-0.100777894
19	0xbdf9edde	-0.12203573
20	0xbcd813d8	-0.02637665
21	0xbdbdd2cc	-0.09268722
22	0x3d41eedc	0.047346935
23	0xbdc31e47	-0.09527259
24	0x3d9588b0	0.07301462
25	0xbd812b79	-0.0630712
26	0xbcd5be9c	-0.026091866
27	0xbc10da8e	-0.00884117
28	0x3d90cf24	0.07070759
29	0x3c84766a	0.016169745
30	0xba9a82c3	-0.0011788238
31	0x3d577004	0.05259706
32	0x3cfd4b8d	0.030919814
33	0x3dcda895	0.1004192
34	0x3cd775b3	0.02630124
35	0x3dc8b94c	0.098009676
36	0xbd09b44c	-0.03361921
37	0xbd1cad40	-0.03825116
38	0xbd9d90b6	-0.07693617
39	0xbbfce944	-0.007718237
40	0xbd2e9384	-0.04262115
41	0xbdf711b7	-0.12063926
42	0x3d228d9b	0.039685827
43	0xbc5b2a04	-0.0133767165
44	0x3d11a0fc	0.035553917
45	0xbcbe60ea	-0.023239572
46	0xbe0bffad	-0.13671751
47	0xbd8d7412	-0.06906904
48	0xbd455149	-0.048173223
49	0xbd991fac	-0.07476744
50	0x3c62156b	0.013799052
51	0x3e1b5a88	0.15171254
52	0x3c12e735	0.008966257
53	0xbe0bb25a	-0.13642254
54	0x3c41267b	0.01178896
55	0xbc1f5203	-0.009724143
56	0xbcb6a9d3	-0.022297775
57	0xbd27ff8e	-0.0410152
58	0x3d26efa9	0.0407559
59	0xbd5bbbc5	-0.053645868
60	0xbdb3cc37	-0.08779185
61	0xbd56b945	-0.05242278
62	0xbb24d4c4	-0.0025151232
63	0xbd18c5f9	-0.037298176
64	0xbe0a47a7	-0.13503896
65	0x3dca90bc	0.09890887
66	0xbd18c402	-0.037296303
67	0x3c3f6f67	0.011684275
68	0x3d89c2ce	0.06726609
69	0xbbf44cba	-0.0074554356
70	0x3e0d1015	0.13775666
71	0x3c149855	0.009069522
72	0xbadd12a6	-0.001686652
73	0xbd9d3258	-0.07675618
74	0x3c56c206	0.013107782
75	0xbd977bc5	-0.07396654
76	0xbd4260a6	-0.047455452
77	0x3cc29929	0.023754673
78	0xbcac7b0b	-0.021054765
79	0x3d3acc6b	0.045605104
80	0x3c643055	0.013927539
81	0x3c724445	0.014786785
82	0xba827d8a	-0.0009955626
83	0x3c338543	0.010957065
84	0x3d673e37	0.056455817
85	0xbba72a6a	-0.0051014917
86	0x3d373dea	0.04473678
87	0xbdcca060	-0.099915266
88	0x3da9b9d7	0.08287399
89	0xbd7d9aaa	-0.061915077
90	0xbdc352a6	-0.09537248
91	0x3b0a6b5f	0.0021121127
92	0x3ced0134	0.028931238
93	0x3caf96c2	0.021434192
94	0xbd286bd6	-0.041118465
95	0x3d85a800	0.06526184
96	0x3c45dd83	0.012076738
97	0xbd8502b3	-0.064946555
98	0x3c515c3e	0.01277834
99	0xbcabb5e3	-0.020960754
100	0x3a18f8ad	0.00058353954
101	0x3c8d3568	0.01723738
102	0x3bc9e61c	0.0061614644
103	0xbb7bcbc2	-0.003842101
104	0xbd09d87a	-0.033653714
105	0xbd5fff38	-0.054686755
106	0x3d6bc355	0.05755933
107	0xbd97111b	-0.073763095
108	0xbd086763	-0.033301722
109	0xbd070e5a	-0.03297267
110	0x3e1e5208	0.1546098
111	0x3d217661	0.039419536
112	0x3c3c6be4	0.0115003325
113	0xbc8dcfc5	-0.017310986
114	0x3cf7e844	0.03026212
115	0xbda867dc	-0.082229346
116	0x3e047a13	0.12937193
117	0xbde0f4e6	-0.10984211
118	0xbdae144c	-0.08499965
119	0x3d2a5b7d	0.041591156
120	0xbcbda53e	-0.023150083
121	0x3e1e157c	0.15437883
122	0x3df77bbc	0.12084147
123	0xbbd26529	-0.0064207506
124	0x3cdbe9cf	0.026844887
125	0x3c33e0c7	0.010978884
126	0x3d9b1521	0.075723894
127	0xbb96ad2a	-0.0045982795
128	0x3de2a400	0.11066437
129	0x3c361c96	0.011115214
130	0x3d238c06	0.03992846
131	0x3d430bd3	0.0476187
132	0x3d83e1b1	0.064395316
133	0xbdab7055	-0.08371035
134	0x3e0d49eb	0.13797729
135	0xbd00836a	-0.031375326
136	0x3da6a11c	0.08136198
137	0xbd5d1007	-0.053970363
138	0xbd954589	-0.072886534
139	0x3da24e38	0.07925075
140	0x3bc70471	0.0060735275
141	0xbc3b51f6	-0.011433115
142	0x3df6f705	0.12058834
143	0x3d65978e	0.056052737
144	0x3d177bcb	0.036983293
145	0x3c51655d	0.012780515
146	0x3d0831b6	0.033250533
147	0xbd95db47	-0.073172145
148	0x3e2017cc	0.15634078
149	0xbc802a01	-0.015645029
150	0x3db08214	0.086185604
151	0x3da2cd3f	0.07949304
152	0x3dd7811c	0.105226725
153	0x3e2376e5	0.15963323
154	0xbc759975	-0.0149902
155	0xbdae3cfb	-0.08507725
156	0x3e4308d7	0.19046341
157	0x3b2d0d3c	0.0026405593
158	0x3de1c470	0.110237956
159	0xbd5f34d9	-0.05449376
160	0xbd060f34	-0.032729343
161	0x3b8776be	0.004134028
162	0xbda63fe0	-0.08117652
163	0x3c41bdf6	0.011825075
164	0x3e26fe95	0.16308053
165	0x3cd36729	0.025806027
166	0x3e14086b	0.14456336
167	0xbd98af9f	-0.07455372
168	0xbd5dd3cf	-0.054157075
169	0x3c9003fc	0.017580025
170	0x3daecef0	0.08535564
171	0x3dfcacde	0.12337659
172	0xbcedb874	-0.029018618
173	0xbd82287f	-0.0635538
174	0x3b5685c0	0.003273353
175	0x3d0c2b06	0.034220718
176	0x3b0f138e	0.0021831724
177	0xbd1efe4e	-0.038816743
178	0x3d7a2093	0.06106622
179	0x3e1990bc	0.14996618
180	0x3d7a7531	0.06114692
181	0xbd3b0a42	-0.04566408
182	0xbda08613	-0.07838073
183	0x3e1c520e	0.15265676
184	0xbcdf81b9	-0.027283536
185	0x3e2aa971	0.166662
186	0x3e2da9db	0.16959326
187	0xbd81bd55	-0.0633494
188	0x3d63fa91	0.05565888
189	0x3df964e8	0.121774495
190	0x3d2666f2	0.04062552
191	0xbcf54012	-0.029937778
192	0x3be13845	0.006873163
193	0x3a1541e2	0.0005693716
194	0xbd6c907f	-0.05775499
195	0x3e06c0c9	0.13159479
196	0x3e1e32c8	0.15449059
197	0x3e29f472	0.16597155
198	0x3e3ad5a4	0.1824556
199	0x3ccf1357	0.025277777
200	0xbd4d7d69	-0.05016843
201	0x3e0200de	0.12695643
202	0x3d41b410	0.04729086
203	0xbc5ec2ee	-0.01359628
204	0x3da45411	0.08023847
205	0x3d80c3b0	0.062873244
206	0x3c1dfc9f	0.009642749
207	0x3c9720f9	0.01844834
208	0xbd9a67dc	-0.07539341
209	0x3d1f8e8e	0.03895431
210	0x3d5383ec	0.051639482
211	0x3ca1e7b1	0.0197638
212	0x3bf7b7fc	0.0075597744
213	0xbd9db35b	-0.07700225
214	0xbd59d618	-0.05318269
215	0xbcf27f34	-0.02960167
216	0x3cbde861	0.023182096
217	0xbd9b206d	-0.07574544
218	0xbd47c501	-0.048771862
219	0x3d368590	0.04456097
220	0x3c042b4f	0.008066966
221	0x3e2a5c9d	0.16636892
222	0x3d0e7ee4	0.03478898
223	0x3c4fcbaf	0.012682839
224	0xbd88113f	-0.066439144
225	0xbdc56a81	-0.09639455
226	0x3b918071	0.0044403602
227	0xbd922e0c	-0.07137689
228	0xbde73963	-0.112902425
229	0x3dc76910	0.09736836
230	0x3d0e4bb0	0.03474015
231	0x3e218213	0.15772276
232	0x3dc59289	0.0964709
233	0x3e229d60	0.15880346
234	0xbdbe0b38	-0.092794836
235	0x3e067886	0.13131914
236	0xbdcb7d63	-0.09936025
237	0x3dd9a544	0.10627225
238	0x3d902e22	0.07040049
239	0xbc1f375f	-0.009717791
240	0xbcb291a1	-0.021797957
241	0x3e0ce587	0.13759433
242	0xbda6f627	-0.081524186
243	0x3d3dbe7e	0.046324246
244	0x3dd3f589	0.103495665
245	0x3b4f5712	0.0031637591
246	0xbd964707	-0.07337766
247	0x3d51ca28	0.05121818
248	0x3c4edb66	0.012625551
249	0x3d837774	0.06419268
250	0x3d0b5e6e	0.034025602
251	0xbd6a3f9d	-0.057189573
252	0x3e078841	0.1323557
253	0x3cc8c5bf	0.024508355
254	0xbd0ac780	-0.033881664
255	0x3cac88bf	0.0210613

action_model._discrete_distribution.branches.0.weight f4 [1, 128]
0	0x3c8fa5c1	0.017535092
1	0xbc21d733	-0.009877968
2	0x3b6cb8b3	0.0036120832
3	0x3c21bb18	0.009871267
4	0x3bcc2fad	0.0062312693
5	0xbbc9328a	-0.006140058
6	0xbca5881f	-0.02020651
7	0x3c3b0172	0.011413919
8	0x3acdd87f	0.001570478
9	0xbbcd744f	-0.0062699686
10	0xbbc4abde	-0.0060019335
11	0x3bb888ba	0.0056315335
12	0x3af8484a	0.0018942442
13	0xbc7f40cd	-0.015579415
14	0x3bc561f3	0.0060236393
15	0x3c1e5624	0.009664092
16	0x3c8351aa	0.016030151
17	0xbab198a2	-0.0013549516
18	0x3bb2a6a5	0.0054519945
19	0xbc87a79b	-0.016559413
20	0x3bf3ffd2	0.0074462676
21	0xbc60ad7a	-0.013713235
22	0x3c27e9aa	0.010248581
23	0xbc3bb5eb	-0.011456947
24	0x3bbe9a26	0.005816716
25	0x3b461f18	0.0030230936
26	0xbc1156b2	-0.008870767
27	0xbb76ea63	-0.0037676326
28	0xbbec0a85	-0.0072034025
29	0xbc3ac03f	-0.011398374
30	0xbae565bb	-0.0017501632
31	0xbc11b854	-0.008894045
32	0xb9dc6602	-0.00042037672
33	0xbb4cdc68	-0.0031259302
34	0x39ad4eb5	0.00033055773
35	0x3b0c1e41	0.0021380337
36	0x3c67b6a3	0.014142665
37	0x3c20d77b	0.009817
38	0x3bf55353	0.0074867397
39	0xbc26058d	-0.010133159
40	0x3c76890f	0.015047326
41	0x3b686ad3	0.0035464063
42	0xba67608a	-0.0008826336
43	0x398702f7	0.00025751416
44	0x3c0e00e0	0.008667201
45	0xb908c6d4	-0.0001304404
46	0xbc5360af	-0.012901469
47	0x3a4f4d02	0.00079078984
48	0xba987411	-0.001163127
49	0x3c806ef3	0.015677905
50	0xbc8dbaa6	-0.017300915
51	0xbc072e6c	-0.008250814
52	0x3ba4431f	0.0050128843
53	0xbc043ccf	-0.0080711385
54	0x3a4834af	0.0007637245
55	0x3bf16215	0.0073664286
56	0x3bafc170	0.0053636357
57	0xbc65f573	-0.01403557
58	0x3acba0a2	0.0015535543
59	0xbcb392c5	-0.021920571
60	0xbc50b20d	-0.012737763
61	0xb9d33520	-0.00040284637
62	0xbc1ca90e	-0.00956179
63	0xb95f19f5	-0.00021276607
64	0xbb67f418	-0.0035393294
65	0x3c7e3e68	0.0155178085
66	0xbb541772	-0.0032362607
67	0x3c04c917	0.008104584
68	0x3c3a5734	0.01137333
69	0x38df7c1d	0.000106565865
70	0xbb2660dc	-0.0025387323
71	0x3c6fd143	0.014637294
72	0xbc15f19f	-0.009151845
73	0xbb8b4c9f	-0.0042510773
74	0xbc1098a1	-0.008825452
75	0x3b25f5df	0.0025323553
76	0xbc03603d	-0.00801855
77	0xba853c3b	-0.0010165045
78	0xbc3fc4f3	-0.011704671
79	0xbaafed6d	-0.0013422199
80	0xbb39df24	-0.0028361762
81	0x3b3befcb	0.0028676863
82	0x3c0cd209	0.008594998
83	0x3b0461d5	0.0020199914
84	0xba7adb02	-0.0009569378
85	0xbba246c3	-0.004952283
86	0xbb23b0e6	-0.0024977266
87	0xbbf606f2	-0.007508152
88	0xbba965fd	-0.0051696287
89	0xbc58e0f5	-0.013237228
90	0x3cb6d425	0.022317955
91	0x3bbab4cf	0.0056978236
92	0x3cb064d5	0.021532455
93	0x3b33831d	0.0027391382
94	0xbb8ec872	-0.004357391
95	0x38b3002d	8.535418e-05
96	0x3c223997	0.009901426
97	0x3b7fb913	0.0039020225
98	0xba40ca61	-0.00073543756
99	0x3b506198	0.0031796452
100	0xbb90d1a9	-0.0044195247
101	0x3c469bd5	0.012122114
102	0xbbeb3dd8	-0.007179003
103	0xbc6a3862	-0.014295669
104	0x3bf5cb07	0.0075010094
105	0xbbb42f3b	-0.0054987944
106	0x3b5a1b9b	0.0033280614
107	0x3c19d331	0.009388731
108	0xbba83c12	-0.005134114
109	0x3b3a69f0	0.0028444491
110	0x3bde10bf	0.0067768986
111	0x3c76226b	0.015022854
112	0xbcce25c7	-0.025164498
113	0xba24fde7	-0.0006293938
114	0x3c35f236	0.011105111
115	0xbc6d5a6f	-0.014486893
116	0xbca5b841	-0.02022946
117	0xbbf9fcd2	-0.0076290155
118	0xbc3129f6	-0.010813227
119	0xbc24e473	-0.010064232
120	0x3b1bd55f	0.0023778302
121	0x3b974b0f	0.004617102
122	0xbbf707ca	-0.0075387703
123	0xbbc50b31	-0.006013297
124	0xbbeb1930	-0.0071746334
125	0x3b983cb8	0.00464591
126	0xbbe571b7	-0.0070020813
127	0x3bf754f5	0.0075479695

network_body._body_endoder.seq_layers.0.bias f4 [128]
0	0xbd8268e4	-0.063676625
1	0x3d97c02a	0.07409699
2	0x3d49e4ba	0.049290396
3	0x3d6eb8da	0.058281757
4	0xbdaa60af	-0.08319222
5	0xb89860c8	-7.265952e-05
6	0xbd8b4661	-0.06800533
7	0x3bde1591	0.0067774733
8	0x3cfb7286	0.030694257
9	0xbd2033e7	-0.039111998
10	0x3da9fd07	0.08300214
11	0xbc871a43	-0.016492015
12	0xbbe02802	-0.006840707
13	0x3d14568d	0.036215354
14	0x3d2643b8	0.040591925
15	0x3d6de973	0.058083963
16	0x3d11562c	0.03548257
17	0xbc5b0e95	-0.013370176
18	0xbcb34189	-0.021881836
19	0x3dcfd61f	0.10148262
20	0x3d8a7951	0.067614205
21	0xbd221ec1	-0.03958011
22	0x3d02eb70	0.031962812
23	0xbdc73bf5	-0.09728233
24	0x3d209a90	0.039209902
25	0x3d6bfae2	0.057612307
26	0xbdb388a5	-0.08766297
27	0x3d4d3f2e	0.05010908
28	0xbd577453	-0.05260117
29	0x3ade0d44	0.0016941209
30	0xbd72da7b	-0.05929039
31	0xb889881c	-6.5580214e-05
32	0x3ddf35ca	0.10898931
33	0xbdd3a848	-0.103348315
34	0xbcc84e80	-0.024451494
35	0x3d9d4360	0.076788664
36	0x3c56119b	0.013065721
37	0xbca5e769	-0.020251947
38	0x3d333e91	0.04376084
39	0x3e0a7fb2	0.13525274
40	0x3cd35d90	0.02580145
41	0x3d056f34	0.032576755
42	0xbde2b5bf	-0.110698216
43	0x3c9e2c7c	0.019308321
44	0x3d2f6cd8	0.04282841
45	0xbc8ed703	-0.01743651
46	0x3c775419	0.015095734
47	0xbd78974f	-0.060691174
48	0xbe035bda	-0.12828007
49	0x3d2fe53e	0.04294323
50	0x3d86200e	0.06549083
51	0xbd1fda72	-0.039026685
52	0xbc310b34	-0.010805894
53	0xbc92f91a	-0.017941047
54	0xbb37cedd	-0.0028046884
55	0x3d04945f	0.03236806
56	0x3d8b66ff	0.06806754
57	0x3d9ce649	0.07661111
58	0x3d30c027	0.043152
59	0x3da23ae1	0.079213865
60	0xbbb2adad	-0.0054528327
61	0xbc7675e3	-0.015042755
62	0x3dc7899f	0.09743046
63	0x3d0d27b8	0.034461707
64	0x3d4127a9	0.047156963
65	0x3d790903	0.06079961
66	0x3c7e244f	0.015511586
67	0xbd968c8f	-0.07351028
68	0x3d55cfa9	0.052199993
69	0x3da3c2e1	0.079961546
70	0x3c49afa0	0.012309939
71	0xbb291aa0	-0.0025803223
72	0x3a6c14bc	0.0009005775
73	0xbbb7d5ee	-0.005610219
74	0xbc83e96e	-0.016102519
75	0x3c4e28e3	0.01258299
76	0x3cc128a4	0.02357895
77	0x3d871825	0.06596402
78	0xbd1977f6	-0.03746792
79	0x3d6b3a7e	0.05742883
80	0x3bcc6537	0.0062376517
81	0xbd996d94	-0.074916035
82	0xbba2f021	-0.0049724733
83	0x39b1bc3b	0.00033900313
84	0x380b3c1a	3.3196156e-05
85	0x3d0be238	0.034151286
86	0x3d3dfc19	0.046382997
87	0xbd6120de	-0.054962985
88	0x3cc55254	0.024087109
89	0x3dfe66ab	0.12421926
90	0x3d7005fc	0.058599457
91	0xbd73d39a	-0.05952797
92	0x3dc377e4	0.09544352
93	0x3d65330d	0.05595689
94	0x3d5f573c	0.054526553
95	0x3a9e7395	0.001208889
96	0xbdd2ad31	-0.1028694
97	0x3d2314f2	0.039814897
98	0xbd3124cf	-0.043247994
99	0xbc9e8c68	-0.01935406
100	0xbd0e6fb6	-0.034774505
101	0x3d6d1f7e	0.05789136
102	0xbd836720	-0.06416154
103	0x3cbc29cb	0.022969147
104	0x3d727a4c	0.059198663
105	0x3d9d89ae	0.07692276
106	0x3dd59c8c	0.104302496
107	0xbc2440ef	-0.010025247
108	0xbdc34660	-0.09534907
109	0xbd991534	-0.07474747
110	0xbd765c12	-0.0601464
111	0x3d0c07d8	0.034187168
112	0xbcd0986f	-0.025463311
113	0x3da8b9a0	0.0823853
114	0x3db9df3f	0.09075784
115	0xbd75460c	-0.059881255
116	0xbdfb4dbf	-0.12270688
117	0xbd83e682	-0.0644045
118	0xbc1b81af	-0.009491368
119	0x3cad2c35	0.021139244
120	0x3e1347d6	0.14382872
121	0xbce1e788	-0.027576223
122	0xbab0dbad	-0.0013493203
123	0x3cdcceaa	0.026954014
124	0xbca29cb9	-0.019850122
125	0x3bb9cc9d	0.0056701438
126	0x3d885fa0	0.06658864
127	0x3d5b194e	0.05349093

network_body._body_endoder.seq_layers.0.weight f4 [128, 110]
0	0x3da48e0d	0.080349065
1	0x3e814df1	0.25254777
2	0xbe493dff	-0.19652556
3	0xbdcc1b44	-0.09966138
4	0x3e2b8ca6	0.16752872
5	0xbe8f77fc	-0.28021228
6	0x3e212fbf	0.1574087
7	0xbe0bf724	-0.13668495
8	0x3cb7047f	0.022341011
9	0xbe2dca47	-0.16971694
10	0xbd3709b2	-0.04468698
11	0x3e6fec8f	0.23430084
12	0xbd51987f	-0.051170822
13	0xbd1484d4	-0.036259487
14	0x3e077854	0.13229495
15	0xbecf15e2	-0.40446383
16	0x3d95c05b	0.073120795
17	0xbd0f1c08	-0.034938842
18	0xbcacdc9e	-0.021101292
19	0xbc94e105	-0.018173704
20	0xbc983f2f	-0.018584816
21	0x3dd6c6ec	0.1048716
22	0xbd4edcf8	-0.0505037
23	0xbd964977	-0.07338231
24	0xbd84d1be	-0.06485318
25	0xbcb8a89d	-0.022541339
26	0x3d6bf17b	0.05760334
27	0x3cee51c7	0.029091729
28	0x3d1a804b	0.037720006
29	0xbe2d958a	-0.16951576
30	0xbc8059af	-0.015667764
31	0x3e201629	0.15633453
32	0x3e0ec160	0.13940954
33	0x3ce9f764	0.028560348
34	0x3cca0c01	0.024663927
35	0xbe8684f3	-0.26273307
36	0x3e311190	0.17291856
37	0x3d0b44cf	0.034001168
38	0xbe149f72	-0.14513949
39	0xbe09e857	-0.13467537
40	0x3db9a6f3	0.09065046
41	0x3e0693fe	0.13142392
42	0x3c90a884	0.01765848
43	0x3dc38cf0	0.09548366
44	0xbe1dee00	-0.15422821
45	0x3d779324	0.06044306
46	0xbd8c35e5	-0.06846217
47	0x3d10d172	0.035355993
48	0xbe229cfe	-0.158802
49	0xbbf9bcc6	-0.0076213805
50	0x3e23b48e	0.15986845
51	0x3e0a7359	0.13520564
52	0x3d4671d9	0.048448417
53	0x3dd01967	0.10161095
54	0x3e9fb543	0.3119298
55	0x3dcf4dfb	0.101222955
56	0xbd5861a7	-0.052827504
57	0xbdd26762	-0.10273625
58	0x3d5e6542	0.054295786
59	0x3de56117	0.11200159
60	0xbe0c3eff	-0.13695906
61	0x3df75e8e	0.12078582
62	0x3e26d947	0.16293822
63	0xbe0ed869	-0.13949741
64	0xbd323011	-0.04350287
65	0xbe36a80f	-0.17837547
66	0xbd073c14	-0.03301628
67	0x3dc284d1	0.09497989
68	0x3c56736d	0.013089043
69	0xbe1b1713	-0.15145521
70	0xbe646157	-0.22302757
71	0x3dd9b2de	0.10629819
72	0xbda4bc2f	-0.08043706
73	0x3d97543e	0.07389115
74	0x3c614d31	0.013751314
75	0x3d0070a8	0.031357437
76	0x3df5bb04	0.11998561
77	0x3e642049	0.22277941
78	0xbe7b5754	-0.24545032
79	0xbe005b21	-0.12534763
80	0xbc8f1994	-0.017468251
81	0x3e42f40e	0.19038412
82	0x3e053d50	0.1301167
83	0x3c6a2462	0.014290901
84	0xbe19321a	-0.14960518
85	0xbe12f196	-0.1434997
86	0x3e0bd86c	0.13656777
87	0xbd934904	-0.07191661
88	0xbd79db16	-0.060999952
89	0xbe016037	-0.1263436
90	0xbd9a89c6	-0.075458094
91	0x3e18836b	0.14893882
92	0xbd1ba97e	-0.038003437
93	0xbe37990e	-0.1792948
94	0xbc7f4b8a	-0.015581975
95	0xbd502158	-0.05081305
96	0xbe845d65	-0.25852504
97	0x3e0800bb	0.13281529
98	0xbe8d192b	-0.27558264
99	0xbd8a5014	-0.06753555
100	0xbe1b5429	-0.15168823
101	0x3ded1880	0.11576939
102	0x3db40ae3	0.08791139
103	0xbd06b11e	-0.032883756
104	0xbe086ca4	-0.13322693
105	0x3dd3beba	0.103391126
106	0xbdad75eb	-0.08469757
107	0xbd9d056c	-0.0766705
108	0xbe457efe	-0.19286725
109	0xbbd9a455	-0.0066419044
110	0x3d81f314	0.063451916
111	0x3e65df97	0.22448574
112	0x3a122f8d	0.00055765436
113	0xbe3c7fd3	-0.18408136
114	0x3de699a8	0.11259776
115	0x3e30094c	0.17191046
116	0x3dcf56a3	0.101239465
117	0xbd9ab533	-0.07554092
118	0x3ddda7ff	0.10823058
119	0x3da93aae	0.082631454
120	0xbe11b12f	-0.14227746
121	0x3e13cd2c	0.14433736
122	0x3eac491a	0.33649522
123	0x3e1d8685	0.15383346
124	0x3d21fb65	0.03954639
125	0xbe3a8714	-0.1821559
126	0x3e47cb45	0.19511135
127	0x3dcaac6d	0.09896169
128	0x3a2feaa6	0.00067106856
129	0x3e627f29	0.2211882
130	0xbd8fb02d	-0.07016025
131	0x3cd012df	0.025399623
132	0x3d68cc32	0.05683536
133	0x3d9fe03d	0.07806442
134	0xbde46a63	-0.11153104
135	0x3dca5042	0.09878589
136	0x3d0d94a4	0.034565583
137	0x3ce9fe1e	0.028563555
138	0x3d5a4957	0.0532926
139	0x3e33acdf	0.17546414
140	0x3c91cda4	0.017798252
141	0x3e2c9448	0.1685344
142	0x3e2424d1	0.1602967
143	0x3d101096	0.035172068
144	0x3d673872	0.056450315
145	0x3da59d1f	0.08086609
146	0x3d146b54	0.03623517
147	0xbd8cbdb3	-0.0687212
148	0x3e4d0b79	0.20023908
149	0x3d9b33fe	0.07578276
150	0xbe22fd1d	-0.15916868
151	0xbd035532	-0.03206367
152	0x3e0252ed	0.12726946
153	0xbe31ed58	-0.17375696
154	0xbc024d7a	-0.007953042
155	0xbd25516a	-0.040360846
156	0xbe13e947	-0.14444457
157	0xbcfb9512	-0.03071073
158	0x3d9ff5cb	0.07810553
159	0xbd5f5cb1	-0.054531757
160	0x3d6711d6	0.056413494
161	0x3cfebf89	0.03109719
162	0x3daa807a	0.08325286
163	0x3cc5a803	0.024127966
164	0x3e18bed8	0.14916551
165	0x3e70083c	0.23440641
166	0xbe4989ad	-0.19681425
167	0x3e3b3c01	0.18284608
168	0x3e17b166	0.14813766
169	0xbcad7da6	-0.021178078
170	0x3e17d6a3	0.14827971
171	0xbe001c2e	-0.1251075
172	0x3a908e41	0.0011028723
173	0x3d8af3d5	0.067847885
174	0x3e1a81bc	0.15088552
175	0xbd88c293	-0.06677737
176	0x3dab91ef	0.08377444
177	0xbcd54a62	-0.026036445
178	0xbd1533a2	-0.036426194
179	0xbc8cb816	-0.017177623
180	0x3dc53c5f	0.096306555
181	0x3d8cd378	0.06876272
182	0x3d863e77	0.06554883
183	0x3d196385	0.037448425
184	0x3cc0cb28	0.023534372
185	0x3e85fe05	0.26170364
186	0x3d488656	0.048956238
187	0x3d08e295	0.03341921
188	0xbdb8140c	-0.08988199
189	0xbda29745	-0.079390086
190	0x3e49a28a	0.1969091
191	0xbdaa10bd	-0.08303974
192	0x3cffc5e8	0.031222299
193	0x3c7a8727	0.015291012
194	0x3dd44cae	0.10366188
195	0xbda85bf4	-0.08220664
196	0x3d43e07b	0.047821503
197	0xbd568f6d	-0.052382875
198	0xbdbeee23	-0.09322765
199	0x3d299bd6	0.041408382
200	0xbd236dbb	-0.03989957
201	0xbdcf59ce	-0.10124551
202	0xbe274d84	-0.16338164
203	0x3c1603ab	0.009156148
204	0x3e2c9eae	0.16857406
205	0xbdac8caf	-0.08425271
206	0xb9bd99df	-0.00036163532
207	0x3cba8db3	0.022772646
208	0xbc4ac907	-0.01237703
209	0x3dce5bad	0.100760795
210	0x3d2c064c	0.041998193
211	0xbe57e618	-0.21083868
212	0x3c361523	0.011113438
213	0x3c17da22	0.0092683155
214	0x3c28078f	0.010255708
215	0x3e2c5a96	0.16831431
216	0x3e92beda	0.28661233
217	0xbdfc5e37	-0.123226576
218	0x3ea14935	0.31501165
219	0x3c5dc370	0.013535365
220	0x3d974d3b	0.073877774
221	0xbe5b94f1	-0.21443535
222	0x3e85f822	0.26165873
223	0x3e0a49c0	0.13504696
224	0x3bb4de52	0.0055196667
225	0xbba45fbd	-0.0050162957
226	0xbe0eb1b1	-0.13934971
227	0xbbac7f57	-0.0052642035
228	0xbe0012a5	-0.12507112
229	0xbc7b1cca	-0.015326688
230	0x3e5def6e	0.21673366
231	0xbdd7b8b8	-0.10533279
232	0xbe2b029c	-0.16700214
233	0xbd7424ef	-0.059605535
234	0x3c6b1c0a	0.014349947
235	0xbb3ce8a5	-0.002882519
236	0xbc951e19	-0.018202828
237	0x3c4389db	0.011934723
238	0xbc70ad85	-0.014689808
239	0x3cbc04e7	0.022951556
240	0xbd51a334	-0.051181033
241	0x3c8bc296	0.01706056
242	0xbd26a083	-0.04068042
243	0xbd2232c4	-0.039599195
244	0xbd4e2cdf	-0.05033576
245	0xbd27fe1f	-0.041013833
246	0xbe00e9ba	-0.1258916
247	0x3cc66310	0.024217159
248	0x3d76d6eb	0.060263555
249	0xbd82fad7	-0.063955
250	0x3d1af4c7	0.037831094
251	0xbe3a19d8	-0.18173921
252	0xbd64b70d	-0.055838633
253	0xbdec56c5	-0.115399875
254	0xbd84cd6c	-0.064844936
255	0xbd2b1080	-0.041763783

network_body._body_endoder.seq_layers.2.bias f4 [128]
0	0x3d68c1f0	0.05682558
1	0x3d4c35da	0.049856044
2	0x3d530599	0.05151901
3	0xbc70c9bb	-0.014696534
4	0x3d4923f2	0.049106546
5	0x3d46a574	0.048497632
6	0x3db36401	0.087593086
7	0x3db65de6	0.089046285
8	0x3d173a64	0.03692092
9	0x3de60bc2	0.112327114
10	0x3d92fbf2	0.07176961
11	0x3b90a033	0.0044136285
12	0xbd20dcfb	-0.039273243
13	0xbd30baf0	-0.043147027
14	0x3d4286ff	0.047492024
15	0x3cc630b7	0.02419315
16	0xbbc8fd89	-0.0061337394
17	0x3d077698	0.033072084
18	0x3d92e81a	0.07173176
19	0x3d9ad232	0.07559623
20	0x3da36970	0.07979095
21	0x3da357a3	0.079757
22	0x3d53d701	0.051718716
23	0x3d7b21f9	0.061311696
24	0x3d8c6eb3	0.06857052
25	0x3d928bdb	0.071555816
26	0x3c7f6670	0.015588388
27	0x3d72a5ab	0.059240025
28	0x3dba6643	0.09101536
29	0xbc857a04	-0.016293533
30	0x3d298bf9	0.041393254
31	0x3d3be242	0.045870073
32	0x3d438091	0.047730032
33	0x3d8b70f6	0.06808655
34	0x3da2800d	0.0793458
35	0x3d48a1d1	0.048982445
36	0x3d933002	0.07186891
37	0xbcb31d60	-0.021864593
38	0x3d78c762	0.06073702
39	0x3d95a94f	0.07307684
40	0x3cf665dd	0.03007787
41	0x3d94a325	0.0725768
42	0x3d32af08	0.043623954
43	0x3d3c2968	0.045937926
44	0x3d1f0351	0.038821522
45	0x3d3dccb8	0.046337813
46	0x3db502c3	0.088384174
47	0x3d918f3f	0.071074
48	0x3d8c9cb0	0.06865823
49	0x3db45de7	0.08806973
50	0x3bb12c81	0.0054069166
51	0x3dfd7b00	0.12376976
52	0x3cd6adf5	0.026205996
53	0x3da1a053	0.078919075
54	0x3d7c05d9	0.061529014
55	0x3d876521	0.06611086
56	0x3d234882	0.03986407
57	0x3d9064df	0.0705049
58	0x3db102a5	0.086430825
59	0x3d2e8bd5	0.042613823
60	0x3d7db613	0.061941218
61	0x3da48373	0.080328844
62	0xbc5b0be0	-0.01336953
63	0x3d435dec	0.047696993
64	0x3db87d4f	0.09008276
65	0x3cee0d17	0.029058976
66	0x3d4903f4	0.049076036
67	0x3db562a9	0.088567086
68	0x3d97ff39	0.07421727
69	0x3daa3a3d	0.08311889
70	0x3de28951	0.11061347
71	0xbcc2c6a0	-0.023776352
72	0x3d4e8518	0.050419897
73	0x3d5fca00	0.054636
74	0xbcd4917b	-0.025948277
75	0x3da82005	0.08209232
76	0x3d96a48b	0.07355603
77	0x3bbf1eb6	0.0058325185
78	0xbd7e17b2	-0.062034316
79	0xbbcac0d4	-0.0061875377
80	0x3d7bebfd	0.061504353
81	0xbd5eba0f	-0.054376658
82	0x3c7a67b6	0.015283516
83	0xbc9beedc	-0.019034795
84	0x3d27bba7	0.040950444
85	0x3d62aaf0	0.0553388
86	0x3d614c89	0.05500463
87	0x3da492a7	0.08035784
88	0x3d28064d	0.041021634
89	0x3da4210d	0.080141164
90	0x3d809973	0.06279268
91	0x3cb397bf	0.021922944
92	0xbbd5f867	-0.006529856
93	0x3d96b9e5	0.07359675
94	0x3d360556	0.044438682
95	0x3d236d42	0.03989912
96	0x3d67e416	0.056614004
97	0x3d64c7fd	0.055854786
98	0x3bc6de23	0.006068961
99	0x3da1f63f	0.07908296
100	0x3d95a08d	0.07306013
101	0x3cec90bb	0.028877607
102	0xbc726547	-0.014794654
103	0x3d6a987f	0.057274338
104	0x3d330375	0.04370447
105	0x3d89fad5	0.067372955
106	0x3d7b4364	0.061343566
107	0x3d94d85d	0.072678305
108	0x3d9f73b7	0.07785743
109	0x3d86327a	0.065525964
110	0x3df39391	0.118933804
111	0x3c174804	0.009233478
112	0x3ce25d63	0.02763242
113	0x3daacb78	0.0833959
114	0x3d8ab636	0.06773035
115	0x3d8db8a9	0.06919987
116	0x3de64e19	0.11245365
117	0x3dcccf04	0.100004226
118	0x3d7e62ce	0.062105946
119	0x3c843c6a	0.016142089
120	0xbcdbca43	-0.026829844
121	0x3d9ea5ca	0.077464655
122	0x3d60a3c3	0.054843675
123	0x3d874c85	0.06606392
124	0x3d9fc483	0.078011535
125	0xbba9e2cd	-0.0051845075
126	0x3d0c0c5a	0.034191467
127	0xbd5c1b19	-0.05373678

network_body._body_endoder.seq_layers.2.weight f4 [128, 128]
0	0xbdb5cf21	-0.08877397
1	0x3d8b09de	0.067889914
2	0xbd4932ea	-0.04912082
3	0xbda2f4f0	-0.07956874
4	0x3dc55f19	0.09637279
5	0x3c546f02	0.012965919
6	0x3db02aaa	0.086018875
7	0xbe09217a	-0.13391677
8	0xbe0b7142	-0.13617423
9	0x3e58edc0	0.21184444
10	0xbdadf6cb	-0.08494338
11	0xbd7612fe	-0.060076706
12	0xbc670b95	-0.014101882
13	0xbe2a11a7	-0.16608296
14	0xbd895d4a	-0.067072466
15	0xbde7b2cc	-0.113134
16	0xbd0cc03b	-0.034363013
17	0x3db3f483	0.08786871
18	0xbe05b2e9	-0.1305653
19	0x3e40a2e8	0.18812144
20	0xbe048ab9	-0.12943543
21	0xbdb9756d	-0.090556
22	0x3ccf1678	0.025279269
23	0xbe1681ec	-0.14697999
24	0xbe85133a	-0.2599123
25	0xbe491d3a	-0.19640055
26	0x3e492cf3	0.19646053
27	0x3dcdc076	0.10046475
28	0xbd1e4305	-0.038638134
29	0xbe2c5b95	-0.16831811
30	0xbda784b0	-0.08179605
31	0xbdc37ede	-0.09545682
32	0xbe28e41b	-0.16493265
33	0xbd94d881	-0.07267857
34	0x3e250c8f	0.16118072
35	0x3e5ab5f6	0.21358475
36	0xbdfd32a5	-0.12363175
37	0x3db564c4	0.0885711
38	0x3e183f40	0.14867878
39	0x3ddacb20	0.10683274
40	0x3d43a506	0.0477648
41	0xbd1fdded	-0.039030004
42	0xbc193100	-0.009350061
43	0xbe673e6c	-0.22582406
44	0xbe063d4d	-0.13109322
45	0xbc517bf5	-0.012785901
46	0xbe5b0d48	-0.21391785
47	0x3d9d1426	0.07669859
48	0xbe05018a	-0.12988868
49	0xbe3be558	-0.18349206
50	0xbe804285	-0.2505075
51	0xbcf91031	-0.030403228
52	0xbd866d59	-0.06563825
53	0x3a06aafe	0.0005137174
54	0xbdeb1394	-0.114783436
55	0xbc2a5585	-0.010396366
56	0x3d8213ac	0.06351408
57	0x3c88ee77	0.016715271
58	0xbdd004b3	-0.10157146
59	0xbdc3a181	-0.09552289
60	0x3c86212f	0.016373245
61	0xbe099e05	-0.13439186
62	0xbbaf92d4	-0.0053580794
63	0x3d57139d	0.05250894
64	0xbdc1a6ae	-0.0945562
65	0xbdf8c0ed	-0.12146173
66	0xbdb79368	-0.089636624
67	0x3dc55d7b	0.096369706
68	0xbdc5a890	-0.09651291
69	0xbdd1c6c1	-0.102429874
70	0xbd99a682	-0.07502462
71	0xbd9b61c3	-0.07587006
72	0x3e12783c	0.14303678
73	0xbd4201ad	-0.04736488
74	0x3e34ec35	0.17668231
75	0xbde61999	-0.11235351
76	0xbdcef0c7	-0.101045184
77	0xbd42a3a9	-0.04751936
78	0x3e2ac0c4	0.16675097
79	0xbd0b6aaa	-0.03403727
80	0xbca28243	-0.019837504
81	0xbe2e24ae	-0.1700618
82	0x3df1c412	0.118049756
83	0xbdddb049	-0.10824639
84	0xbd32e0aa	-0.043671288
85	0xbea37eeb	-0.31932768
86	0xbc41f894	-0.011839051
87	0xbe811d27	-0.25217554
88	0x3e06911e	0.13141295
89	0x3d46755e	0.048451774
90	0x3e57a762	0.21059945
91	0x3d7307c9	0.059333596
92	0x3b5c9c26	0.0033662408
93	0xbdef6ec4	-0.11691049
94	0xbdb67388	-0.089087546
95	0x3db5d378	0.08878225
96	0x3ab4d53b	0.0013796458
97	0xbcb38df5	-0.021918276
98	0x3cee8f9b	0.02912121
99	0x3cc36a24	0.023854323
100	0x3d2961b3	0.04135294
101	0xbd9f4944	-0.07777646
102	0xbba3df67	-0.005000997
103	0xbe055b88	-0.13023198
104	0xbd052625	-0.03250708
105	0xbe419e7d	-0.18908115
106	0x3bed7e6d	0.007247737
107	0xbd1b294e	-0.037881188
108	0x3d996f38	0.074919164
109	0xba0040e0	-0.00048924796
110	0xbe38bc1e	-0.18040511
111	0x3d002e71	0.03129429
112	0x3e02b7a0	0.1276536
113	0xbd8c24ad	-0.06842933
114	0xbd1ac84e	-0.03778868
115	0xbd748e64	-0.059706107
116	0xbe8b7ff9	-0.27246073
117	0xbd3f1d67	-0.0466589
118	0xbdb275f5	-0.08713905
119	0xbd9aa940	-0.07551813
120	0xbc713ee4	-0.014724467
121	0xbe003f7c	-0.12524217
122	0xbde0f578	-0.109843194
123	0xbd818122	-0.06323458
124	0xbdbd17e7	-0.09233075
125	0xbd202451	-0.039097134
126	0xbd8b91a5	-0.06814889
127	0x3e568ad4	0.20951396
128	0xbdb94374	-0.09046069
129	0xbddabc0d	-0.10680399
130	0xbd53a8ec	-0.05167477
131	0xbe88d501	-0.2672501
132	0x3e0e95e0	0.1392436
133	0xbacc289d	-0.0015576069
134	0x3d4bfc83	0.04980136
135	0xbdb6dd04	-0.08928874
136	0xbe0c1185	-0.13678558
137	0xbd2a272d	-0.041541267
138	0xbe4cebcc	-0.20011824
139	0xbde9f698	-0.11423987
140	0x3d1166d0	0.03549844
141	0x3da57f82	0.08080961
142	0xbdc2163f	-0.09476899
143	0xbe5fa790	-0.21841264
144	0xbc189be3	-0.00931451
145	0xbd343bd6	-0.044002376
146	0xbda212c5	-0.07913736
147	0x3e288669	0.16457523
148	0xbe1d0dfc	-0.15337366
149	0x3d8f7d7b	0.070063554
150	0x3cc50f44	0.02405513
151	0xbd470111	-0.048585
152	0xbdfafec7	-0.12255626
153	0x3d5e64fd	0.05429553
154	0xbe52de91	-0.20592715
155	0xbdd7fd97	-0.10546415
156	0xbcb4b965	-0.02206106
157	0xbd9c2d3a	-0.07625814
158	0xbd31968b	-0.04335646
159	0x3e01b1cc	0.1266548
160	0xbe82f364	-0.25576317
161	0x3e33f413	0.17573576
162	0xbdd6c837	-0.10487407
163	0x3ccf5019	0.025306748
164	0x3d6480b7	0.055786815
165	0x3c85fb06	0.016355049
166	0x3cb074bd	0.02154004
167	0x3dd5efb2	0.10446109
168	0x3ca7fbe1	0.020505847
169	0xbdcd44ca	-0.10022886
170	0x3ceaa957	0.0286452
171	0xbe52565a	-0.20540753
172	0xbe593c37	-0.21214376
173	0x3e08e3af	0.13368104
174	0xbd7178e8	-0.058953196
175	0xbd9763b0	-0.07392061
176	0x3d7bedd7	0.06150612
177	0xbb3a5c72	-0.002843645
178	0xbd21e215	-0.03952225
179	0xbd56ea24	-0.052469388
180	0xbc964563	-0.018343633
181	0xbd5b7066	-0.05357399
182	0xbdc56c02	-0.096397415
183	0xbe56b768	-0.20968401
184	0xbe74a0e8	-0.23889506
185	0xbdf93478	-0.12168211
186	0xbe19cc44	-0.15019327
187	0x3d52a563	0.051427256
188	0x3defff79	0.117186494
189	0xbc998392	-0.018739495
190	0xbdf18dad	-0.11794601
191	0xbd7c74a5	-0.06163468
192	0xbce5ee00	-0.028067589
193	0xbe2142d2	-0.15748146
194	0xbe55635f	-0.20838688
195	0x3dc49f88	0.09600741
196	0xbdb2da66	-0.087330624
197	0xbddb151f	-0.10697388
198	0x3c24a6ba	0.010049516
199	0x3cad9b16	0.021192115
200	0x3b331024	0.0027322853
201	0xbe636cf9	-0.22209539
202	0x3d542a28	0.051798016
203	0xbde22369	-0.1104191
204	0x3d43356f	0.04765838
205	0xbde1a92a	-0.110185936
206	0xbd9cb07a	-0.07650848
207	0xbda4930a	-0.08035858
208	0xbdaf4216	-0.08557527
209	0x3d14d129	0.036332283
210	0xbd1c2273	-0.03811879
211	0xbe7f9100	-0.24957657
212	0xbd911730	-0.07084501
213	0xbcd611ba	-0.0261315
214	0xbe3b3efb	-0.18285744
215	0xbdd4445b	-0.103646
216	0xbe30d76e	-0.1726968
217	0xbe402046	-0.18762311
218	0xbe2438e4	-0.16037327
219	0xbd89c123	-0.06726291
220	0xbde1461f	-0.10999703
221	0xbe11e0c8	-0.14245903
222	0xbc9da8c1	-0.019245507
223	0xbb3732e3	-0.0027953915
224	0xbd482eef	-0.048872884
225	0xbe960756	-0.29302472
226	0xbdb1e2dc	-0.08685848
227	0x3c87127d	0.016488308
228	0xbb842f88	-0.0040339865
229	0xbe064656	-0.13112769
230	0xbd94cc14	-0.07265487
231	0xbda0130d	-0.07816134
232	0xbe2c72af	-0.16840623
233	0x3d1e5d10	0.03866297
234	0x3d6a263a	0.057165362
235	0x3dfb6fa6	0.122771546
236	0xbdbc6bfa	-0.092002824
237	0x3c9afbf8	0.018918976
238	0x3d942d58	0.07235211
239	0xbe1beebc	-0.15227789
240	0x3e0a533c	0.13508314
241	0xbd81ccea	-0.063379124
242	0x3e4e4fe8	0.2014767
243	0xbd7b1222	-0.06129659
244	0xbdbadcc1	-0.09124137
245	0xbe1622fc	-0.14661783
246	0xbe06d062	-0.13165429
247	0x3cff04f4	0.031130292
248	0xbce7ce64	-0.028296657
249	0xbd093d4a	-0.033505715
250	0xbd20d944	-0.0392697
251	0xbdad00e0	-0.084474325
252	0xbd910784	-0.070815116
253	0xbcdf8eb0	-0.027289718
254	0x3c2b9a6c	0.010473829
255	0xbd22105d	-0.039566386
