results/MovingTargetTest/AgentSphereBehavior/AgentSphereBehavior-54454.pt (torch, 669775 bytes, 39 tensors)

network_body._body_endoder.seq_layers.0.weight f4 [128, 80]
000000 8e f5 39 3d b2 b6 bb 3d 8b 5c 7f be b2 04 55 3e
       0.045400195 0.09165706 -0.24937646 0.20802572
000010 bf 96 d5 bd c4 9e a0 3c 4d f7 d7 3d f7 4b 9c be
       -0.10429143 0.019606955 0.10545216 -0.30526707
000020 85 8d 38 3e 2f cf 01 3c 27 d6 27 3e 64 4d 78 bd
       0.18022735 0.007922932 0.16390286 -0.06062068
000030 0a 5d a0 3d 39 5f f0 bd 46 a2 37 bd 5e 45 86 bc
       0.07830246 -0.11736912 -0.04483249 -0.016390499
000040 95 ab a4 3d 9c 49 39 3b 33 b8 5e be 5d e7 5d bc
       0.08040539 0.0028272634 -0.21749954 -0.013543931
000050 a0 8f b9 bd 81 06 c1 3d 2f 3b e1 3c 4c b0 47 3d
       -0.090605974 0.09425069 0.027494041 0.048752114
000060 66 1c 64 bd 68 ac 91 3c 1a 2e 3f 3e 17 ad 1a be
       -0.055691145 0.017782405 0.1866993 -0.15105091
000070 e3 cc f4 bc ef d9 9c 3b e0 12 0f 3c 36 4e 0e bd
       -0.029882854 0.004786722 0.0087325275 -0.034742557
000080 f9 4a c5 3c 69 4e d6 3d 91 b9 dc 3b 16 10 f0 3d
       0.024083601 0.10464174 0.0067359884 0.11721818
000090 97 02 63 3c d3 2d 27 bd f8 96 02 3e 8f 9a 04 3b
       0.013855598 -0.040815186 0.12752903 0.0020233726
0000a0 b5 3e 56 3e 66 85 56 3e da 6a ba 3c f1 ea 3e bd
       0.20922358 0.20949325 0.022756029 -0.046610776
0000b0 1f 04 1a 3e d0 16 dc bd 73 8a 78 3e 02 10 05 3e
       0.15040635 -0.10746539 0.24271564 0.12994388
0000c0 93 49 20 3e 03 49 54 3c 2f 58 9b bc 54 30 7d bd
       0.15653066 0.0129568605 -0.018962948 -0.061813667
0000d0 92 0c ac bb 79 ee 02 bd c4 fb eb bd 30 de ea bb
       -0.005250522 -0.031965706 -0.1152263 -0.0071676
0000e0 f1 28 0a 3e cf de e7 3d ae 6d a5 3d fe 3e 8f 3d
       0.1349218 0.11321794 0.0807756 0.06994437
0000f0 a0 34 36 be 74 75 b9 3d fb 8b 7b bd 36 5f 94 3d
       -0.17793512 0.090556055 -0.061412793 0.072447225
000100 57 6a dc bc 00 ef 6e 3d c0 97 43 bd 2c 95 97 bd
       -0.026906176 0.058333397 -0.047752142 -0.07401499
000110 ff 13 ff bd ed d9 a7 3d a7 47 1a 3c f2 d9 bd bd
       -0.12454986 0.08195863 0.009416497 -0.092700854
000120 70 4b f1 bd 1a 10 26 be 5c b3 16 3d 23 44 ff 3d
       -0.11781967 -0.1621708 0.036792144 0.12464168
000130 b1 2a 5f 3d 30 31 11 bd c1 60 ed 3d ba d9 58 3d
       0.054484073 -0.0354473 0.1159072 0.052942015
000140 cf ae 2c bd 93 06 86 3a e8 24 4a be 82 21 17 be
       -0.042158898 0.0010225348 -0.19740641 -0.14758876
000150 5c 95 c5 bd ee d2 18 3e c8 71 ea bd 88 96 cc bd
       -0.09647629 0.14924213 -0.11447483 -0.09989649
000160 f0 99 c8 3d 3c 98 35 3d 46 d2 19 be bd 7e 25 3e
       0.09794986 0.044334635 -0.15021619 0.16161628
000170 92 e7 40 3c c0 63 8f 3d 0d 29 13 3e 50 b7 af bb
       0.011773961 0.07001448 0.14371128 -0.0053624287
000180 c7 8d 68 bd 2e f6 44 3e 1a f9 cd bd d1 d5 ea 3c
       -0.056775834 0.19234535 -0.10057278 0.028666409
000190 02 fa 9c 3b 76 f0 76 3d 15 bd 54 3d 47 1f b7 bd
       0.0047905454 0.060287915 0.051938135 -0.089415126
0001a0 33 96 01 bd 14 8e 51 3b 7f 51 4f bd ac 0f d9 3d
       -0.03163738 0.0031975554 -0.05061483 0.10598692
0001b0 64 a8 fa 3c 38 38 aa 3d a0 7b 01 3e ee a3 41 3d
       0.030597873 0.08311504 0.12644815 0.047275476
0001c0 d5 b0 4d be 47 20 6f 3d 6c 0c cd 3d 45 99 1e bd
       -0.20086987 0.05838039 0.10012135 -0.038720388
0001d0 c0 d6 99 bc 1f 72 93 be 20 2f 4f be a2 89 47 be
       -0.018779159 -0.28798005 -0.2023282 -0.19486097
0001e0 51 4c d5 3d da 05 49 3e a6 98 26 3d 5d 46 90 bd
       0.10414947 0.19631138 0.04067292 -0.07044671
0001f0 25 3f 9b bd 88 16 82 bd 26 48 cf 3d 12 8d b4 bc
       -0.07580403 -0.06351954 0.10121183 -0.022039924
000200 14 a5 95 be 08 a7 13 bd 5d 78 72 be a1 72 0f 3e
       -0.29227507 -0.036047965 -0.23678727 0.14008571
000210 85 61 df 3b ff 51 ea bd e7 63 29 3d 4e dd 9b 3d
       0.006817045 -0.11441421 0.04135504 0.0761057
000220 0d b3 07 3d de 7a b6 bb 55 38 12 3d 16 33 ad bc
       0.03312974 -0.005568846 0.035698254 -0.021142524
000230 68 1c 16 3c f3 27 59 be 0d 05 f4 3c 52 23 fd bc
       0.009162046 -0.21206646 0.029787565 -0.030900631
000240 a5 29 bb bc 92 60 de 3d ed b6 8e 3e 55 b4 95 bd
       -0.022847006 0.10858263 0.27873936 -0.07309786
000250 a2 c1 ac be 4b 8e e7 bd 19 09 13 be 55 f7 82 3b
       -0.3374148 -0.11306437 -0.14358939 0.0039967694
000260 07 33 9c 3c 8f 5f 6c 3d ee 89 d3 bd e0 48 9f 3d
       0.0190673 0.05770832 -0.103290424 0.07777572
000270 a1 cf 75 3d 4f 88 31 3e 0a 41 57 be 6b 2d b0 3d
       0.060012463 0.17337154 -0.21020904 0.08602413
000280 47 03 4b 3e 1c 64 32 be 28 b8 0d 3d 89 43 36 bd
       0.19825469 -0.17421001 0.034599453 -0.044498
000290 37 f2 31 bc cb 79 3e 3d f6 9e cf bd da d2 d5 bc
       -0.010860971 0.04650287 -0.10137741 -0.026101518
0002a0 65 60 e7 bb d2 03 be 3d 7a d1 2a bc ae 17 9e bd
       -0.0070610517 0.092780724 -0.01042592 -0.0771936
0002b0 cd 36 c0 3d da 67 37 bc 6e 0d 3b 3e 7c 22 4f 3d
       0.093854524 -0.011194194 0.18266842 0.050569996
0002c0 e7 14 a6 bd 68 47 c9 3d d9 65 b6 bd f0 68 02 3d
       -0.081094556 0.09828073 -0.08906145 0.031838357
0002d0 6b f1 d5 bd 9c cc e2 3d 07 ae 99 3a 37 b4 5b bd
       -0.104464374 0.110741824 0.0011724838 -0.053638663
0002e0 e3 39 46 be 02 52 a8 bc 2c d7 3f b9 36 2b b2 3d
       -0.1935802 -0.020546917 -0.00018295337 0.08699648
0002f0 76 df 16 bd b3 7b c5 bd df c5 66 bc bb 66 d5 bd
       -0.036834203 -0.096427344 -0.014085262 -0.10419985
000300 2a 97 1b be 28 96 10 bd 93 72 60 3d ae 7a 11 bc
       -0.15194383 -0.03529945 0.054796766 -0.008879347
000310 8b c7 1f bd fd 42 85 bd 21 ae 4f 3e 25 81 c6 3d
       -0.03900866 -0.065069176 0.20281269 0.09692601
000320 f7 7d eb bd ee 54 2a bc 69 7f 9f 3d 97 21 04 be
       -0.11498635 -0.010396225 0.077879734 -0.12903439
000330 6a 0d bf 3d 8a 91 fb bc 5d 3d 6a 3c aa 56 34 bd
       0.093287304 -0.030709047 0.014296857 -0.04402796
000340 77 55 ff 3d 21 c6 69 bd dc 13 0b 3e dc 51 69 bd
       0.12467473 -0.057073716 0.13581795 -0.056962833
000350 df 78 59 be af 40 59 bc 82 4c 15 3d e4 a1 89 bd
       -0.21237515 -0.013260051 0.036449917 -0.06720331
000360 b5 78 8b 3d ff 80 4e 3e 2d e5 c4 3d fb 45 23 3e
       0.068101324 0.20166396 0.09614024 0.15944664
000370 46 09 8e bc 6c 18 e8 bd 77 da 68 3e 5b bd c1 3d
       -0.017338406 -0.11332783 0.22739588 0.09459945
000380 04 72 60 bc b1 f2 42 bd c3 7f 07 3e 4b 5d ee bd
       -0.013699058 -0.04759473 0.13232331 -0.11638888
000390 aa 4f 6c bd e4 c9 52 bd c1 83 5e 3e 7d 61 82 bd
       -0.05769316 -0.05146207 0.21729948 -0.06366251
0003a0 f0 44 f9 3d c2 d4 0b be 40 dc a2 3c de 34 d6 bd
       0.12171352 -0.1365538 0.019880414 -0.10459302
0003b0 74 22 fa bd 5a a2 8f bd 89 88 88 3d 30 c9 51 3d
       -0.12213603 -0.07013388 0.06666667 0.051217258
0003c0 27 b2 10 3a b0 8e 00 be 95 5c df 3d 09 ab d7 bd
       0.0005519711 -0.12554431 0.109063305 -0.10530669
0003d0 a6 1e ad 3d 7b e2 8f bc 27 9f 95 bd 53 e1 2d 3e
       0.08453111 -0.017564049 -0.073057465 0.16980486
0003e0 35 ad 43 3e ea ec f9 3d 47 be e7 b9 34 35 31 bc
       0.19109042 0.12203391 -0.0004420152 -0.010815907
0003f0 19 d7 f5 3d e3 e7 a2 bd 02 37 09 3d 29 38 14 3e
       0.12003917 -0.07954385 0.033499725 0.14474548

network_body._body_endoder.seq_layers.0.bias f4 [128]
000000 eb d4 e2 ba e1 b7 1c bc 23 9a 50 bb 5c 11 6a bb
       -0.0017305886 -0.0095653245 -0.0031830154 -0.0035715913
000010 bc 0d 76 bb 91 87 96 3c a3 0c 76 bb b8 9d 18 bc
       -0.0037544807 0.01837519 -0.0037544153 -0.009314947
000020 08 ea 11 3c d4 5e 1c bb 52 36 f4 bb 49 1f 34 3a
       0.008905895 -0.0023860233 -0.0074527645 0.0006871117
000030 f4 2c 9e 3a 50 8f a2 ba 4b 3a 64 ba 63 69 f3 3b
       0.001206784 -0.001240233 -0.0008706196 0.0074283346
000040 67 40 b6 3b 9d 52 87 3b 97 88 1c bb a7 5d 16 bb
       0.0055618766 0.0041297213 -0.0023885125 -0.0022944005
000050 6e cc b3 3b 65 5c 14 3b 0f 99 9b ba 08 65 a4 bc
       0.0054870164 0.002263808 -0.0011871177 -0.020067707
000060 d2 d8 a7 bb e4 78 ae 37 02 98 99 bc 3a bc a9 ba
       -0.0051222825 2.079871e-05 -0.01874924 -0.0012949773
000070 05 2c 82 bb 77 29 10 bc ca f9 6d 3b f8 5d f8 3a
       -0.0039725327 -0.0087989485 0.0036312216 0.0018948903
000080 e0 bd 86 3b d9 fb b6 bc 65 6a a6 bb db a2 cf 3b
       0.0041119903 -0.022336887 -0.005078601 0.0063365526
000090 23 51 ae bb fe 57 bf 3a 6f 4f 95 b9 1b d6 3b ba
       -0.005319731 0.0014598367 -0.00028478677 -0.0007165388
0000a0 89 2b 9e 3a a8 ee be 3b 6a 70 c4 bb b9 d5 06 bb
       0.0012067418 0.00582679 -0.005994846 -0.0020574166
0000b0 fe cc 0f bc 70 1b 33 bc 7e 66 09 bb 92 20 1a 3c
       -0.008776901 -0.010931835 -0.002096563 0.009407179
0000c0 2f 82 02 3c 35 41 45 3b 54 b3 89 bc 9e f4 9f ba
       0.0079656085 0.003009868 -0.016809143 -0.0012203639
0000d0 2a e4 02 bc fb a5 87 bb 3b a0 a3 3a e3 81 81 bb
       -0.007988969 -0.0041396595 0.0012483665 -0.0039522513
0000e0 6d 43 58 3c 88 11 9c bb 3c b0 7e bc 08 c8 23 3c
       0.013199669 -0.004762832 -0.015544947 0.009996422
0000f0 23 7f c0 bb 49 f0 9d bb a4 d9 3b bb 6e b3 97 b8
       -0.005874531 -0.004819904 -0.002866366 -7.2336625e-05
000100 e5 98 1a bb fc 8a 4c bb 24 41 ce 3b 3e 52 34 ba
       -0.0023589667 -0.003121077 0.0062943865 -0.000687871
000110 05 11 97 bc cc ec 66 bb 2a 08 a4 bc 7b 7f 0e bb
       -0.018440733 -0.0035236357 -0.020023424 -0.0021743465
000120 e7 fb 1f 3b a2 c0 5d 3a 84 61 83 bb a2 a7 39 3b
       0.002441162 0.00084591855 -0.0040094275 0.0028328677
000130 42 d2 66 3b 72 e2 05 bb b8 21 1e bc 66 d0 c5 3b
       0.0035220538 -0.0020429161 -0.009651594 0.006036806
000140 7e 1a a5 ba 21 67 ad 3b 19 52 a4 bb 06 d3 76 bb
       -0.0012596396 0.005291835 -0.0050146696 -0.00376624
000150 6c ad 84 bb 1e e2 26 bb d8 37 57 3c 42 41 10 3c
       -0.004048994 -0.0025464366 0.013135873 0.008804621
000160 8a 93 06 bb 9e 21 e3 bb aa 2f 05 3c ce 5a 0b 3d
       -0.0020534717 -0.0069314977 0.00812904 0.034022145
000170 be 79 6d 3a 96 2c 2b bb f0 9d 72 3b 4e 1e a1 bb
       0.00090589735 -0.0026119105 0.0037020408 -0.0049169427
000180 36 48 05 ba 82 48 c9 bb da fc a3 3b 35 78 7a bb
       -0.00050843076 -0.006142677 0.0050045075 -0.0038218622
000190 e8 0c 60 bc 4a bc e2 bb c8 19 0a bc f0 22 da bb
       -0.013674952 -0.0069194185 -0.008428998 -0.006656997
0001a0 ce ff 05 bb 99 10 ed bb b4 62 a3 bb 38 1e 97 bc
       -0.002044666 -0.0072346446 -0.0049861316 -0.018447027
0001b0 03 cd 96 bb aa b6 7f bb 19 1d 6c 3c 06 c4 1c bc
       -0.004602076 -0.0039018788 0.014411234 -0.00956822
0001c0 b3 c6 74 3a 65 7d 47 b9 d2 35 19 3a 33 55 a5 bb
       0.000933747 -0.00019024832 0.00058445067 -0.005045557
0001d0 e5 87 60 3c 49 85 6e 3b 91 a1 d7 3b 6e 4d 47 ba
       0.013704275 0.0036395362 0.0065805395 -0.00076027855
0001e0 bb 3b 30 3c 1e da a7 ba 95 ad a5 3b e2 49 65 bb
       0.010756428 -0.0012806093 0.005056093 -0.0034986665
0001f0 73 41 48 bb 4a 26 79 bb f6 3d 06 bd 54 f5 a6 bc
       -0.003055659 -0.0038017207 -0.032773934 -0.020380653

network_body._body_endoder.seq_layers.2.weight f4 [128, 128]
000000 46 f3 a3 bd b8 b4 e4 3c d8 14 a8 bd 8d 18 eb 3c
       -0.08005385 0.027918205 -0.08207101 0.02869823
000010 61 fb d2 bd 07 00 d8 bd 7c f6 e8 3c 8d fb 17 be
       -0.10301853 -0.1054688 0.028437845 -0.14842053
000020 08 d6 a3 bd 34 88 bd bd 71 0e 95 bb 5b e2 4a 3d
       -0.079998076 -0.09254494 -0.0045488407 0.049532276
000030 51 87 f9 3c ef d2 af bd e5 b1 2c bd 86 7c ab 3d
       0.030460032 -0.08585154 -0.04216184 0.0837336
000040 83 99 f3 bd cc 24 df bd 46 9e 3d bd b3 c1 27 3d
       -0.118945144 -0.1089569 -0.04629352 0.04095621
000050 4e f4 e4 3c 57 77 2b be 22 49 b9 bd d3 d3 57 bd
       0.027948525 -0.16744743 -0.09047152 -0.052692246
000060 f1 b6 20 bd fa 02 c4 3c ee 58 8d bd bb 05 d1 bc
       -0.039236967 0.0239272 -0.069017276 -0.025515428
000070 f6 2d 1a 3d 10 02 ed 3c 4a 89 93 bc ed 8f 29 3d
       0.037641488 0.028931648 -0.0180098 0.041397024
000080 b1 28 a8 3c 6e 57 1a be 64 5a 7d 3d 67 2b 06 3b
       0.020527216 -0.15072414 0.06185378 0.0020472647
000090 75 f3 c5 3d 44 fd f3 bd fa ec 86 3c 7b 47 07 be
       0.09665576 -0.11913541 0.016470421 -0.13210861
0000a0 19 cf 6a 3d 18 02 0a bd 18 1e 61 3a a7 ec 15 3d
       0.05732641 -0.033693403 0.0008587553 0.036602642
0000b0 35 1f 32 3d 69 62 bc 3c 53 12 45 3c 5f ff e8 3d
       0.043486793 0.022996144 0.012028295 0.11376833
0000c0 04 9c 70 bc 46 71 81 bd 21 a4 31 bd 9f c3 a0 3c
       -0.0146856345 -0.06320433 -0.043369416 0.01962453
0000d0 ba 66 0d be f5 53 9d 3c 46 b0 b8 bd 0b b8 d5 bd
       -0.13808718 0.019205073 -0.090179965 -0.10435494
0000e0 6f ef a1 bd 28 06 7f 3e 51 51 19 3c e6 da 18 3d
       -0.079069965 0.24904692 0.009357766 0.037318133
0000f0 9f 8a 07 be 4d f0 8a be 9b e2 fc 3b 3f 55 25 bd
       -0.13236474 -0.2713646 0.007717443 -0.0403645
000100 b4 53 06 3d cf 6c e3 3c 6d cf 58 3d 77 64 8e bd
       0.03279467 0.027761845 0.05293219 -0.06952756
000110 1a 54 da 3d 6d 18 37 be 78 00 11 be 94 c9 85 3d
       0.10660572 -0.17880411 -0.14160335 0.065325886
000120 15 dc 2b 3d 35 f1 d9 bc 46 ce c7 bd ca 5d 27 3d
       0.041957933 -0.026604274 -0.097561404 0.04086093
000130 c7 fa ce 3c 3f 5f 18 be 46 fe 81 bd 43 9b 88 bc
       0.025266064 -0.14880084 -0.06347327 -0.016675597
000140 c0 15 36 3c d3 be 56 3e d0 42 c1 3b 34 85 1d 3e
       0.011113584 0.20971231 0.0058978572 0.15382844
000150 a8 63 d0 3d 27 e8 31 be f1 91 ed 3d 6f 58 11 3e
       0.10175258 -0.17373715 0.11600102 0.14193891
000160 9e 91 a4 bd 33 5c d1 bd f4 2a eb bc a9 9b 93 bd
       -0.08035587 -0.10222664 -0.028707005 -0.07207424
000170 41 89 9a 3d 86 53 ca 3c fa ee 2e bd 90 44 1b bd
       0.0754571 0.02469803 -0.042708375 -0.037907183
000180 52 c7 43 3d 6f 67 03 bd 67 83 c4 bd c6 a3 97 bd
       0.04779751 -0.032081064 -0.095953755 -0.07404284
000190 e1 6a 02 3e b2 ad 6a bd bf f2 0c be 7f 57 52 bd
       0.12736084 -0.057294555 -0.13764475 -0.051352974
0001a0 ab fb 3a be 3c c0 e6 bd 5e dc c7 3d d9 63 83 bd
       -0.18260066 -0.112671345 0.097588286 -0.06415529
0001b0 57 72 00 3d 92 b1 94 bd b1 85 69 bd 05 85 41 3e
       0.031359043 -0.07260431 -0.057012264 0.18898399
0001c0 83 68 44 3d 2c bb 82 bd 2f c6 93 3d af df be bd
       0.047951233 -0.063833565 0.07215535 -0.09320008
0001d0 c7 db 69 bd c3 33 b3 bd 37 17 e7 bc 0d 8a 88 3d
       -0.05709436 -0.08750107 -0.028209312 0.06666956
0001e0 a9 72 0e be 32 4a 0e 3c 27 8e 41 bd 04 8b ec bd
       -0.13910927 0.008684682 -0.047254708 -0.115499526
0001f0 5e d4 3f bd 0f 28 30 ba 81 af a2 3c 6a 4e 58 3d
       -0.04683339 -0.00067198364 0.019859077 0.052809156
000200 a2 47 f8 3c 43 0e da bd ea a9 4e 3c 98 89 d9 bc
       0.030307595 -0.106472515 0.012613753 -0.026554868
000210 cb de 3d bd 73 1d 94 bc 6a 73 c3 3d 48 2b 06 3d
       -0.04635505 -0.018080449 0.09543498 0.03275612
000220 93 2d a2 bc f6 51 ef bc 32 8c a5 3d 12 3a 47 bd
       -0.019797122 -0.029213887 0.08083381 -0.048639365
000230 92 cd 80 bd 10 1e d4 bd 73 e9 f0 bd 01 04 a1 3d
       -0.062892094 -0.103572965 -0.11763277 0.07862092
000240 c9 e5 85 bd 39 89 f4 3d c2 f4 4e bd c9 15 1b bd
       -0.06537969 0.11940236 -0.050526388 -0.037862573
000250 98 c4 99 3c 21 40 d3 bd b1 77 77 bc 06 ac 52 3d
       0.018770501 -0.10314966 -0.01510422 0.051433586
000260 3f a3 25 bd 0a 31 9e 3c b6 74 05 3d 92 b8 7f be
       -0.040438887 0.019310493 0.032582007 -0.24972752
000270 52 f7 1a 3d e5 dd ab 3d 34 fa e2 bd 47 b9 51 bc
       0.03783352 0.083919324 -0.11082879 -0.012800521
000280 fb 84 13 bd 32 01 c5 bd 07 aa c5 bd 54 26 f4 3c
       -0.036015492 -0.096193686 -0.09651571 0.029803433
000290 79 aa 35 bd f7 a3 9b bd d5 9c ef 3b 7e d2 94 bd
       -0.04435203 -0.07599633 0.007312397 -0.07266711
0002a0 e3 b7 14 3b 12 e4 94 bd 38 fc ae 3d 51 0a 8f bb
       0.0022692613 -0.072700635 0.08544201 -0.0043652435
0002b0 1a 57 e5 3d 01 e4 11 3e f5 2c 5b 3e 99 fd 11 3e
       0.11198254 0.14247133 0.21403868 0.14256896
0002c0 b7 42 a8 bd 2d f4 1b be b9 69 2d bd 83 a7 24 3d
       -0.0821585 -0.15229864 -0.042337153 0.040198814
0002d0 49 b0 e3 3c 1b f4 80 3b 6c 53 31 bd 41 0c d5 3d
       0.02779402 0.0039353496 -0.043292448 0.10402728
0002e0 fb b6 eb ba 05 6c 3b 3c b4 02 22 3d 8c 9c 8f bd
       -0.001798361 0.011439328 0.03955336 -0.07012281
0002f0 12 fa a8 bb 95 5e e7 3d 05 04 e4 bd 2f 2a 29 be
       -0.005156764 0.11297337 -0.11133579 -0.16519998
000300 3a a7 04 3e fa 6b 02 be 76 ee 08 be ce b4 af bd
       0.12954417 -0.12736502 -0.13372216 -0.08579408
000310 34 9d e4 bd f6 9b f9 bc 96 30 c1 3a 35 ed df bd
       -0.111627966 -0.030469876 0.0014739211 -0.109339155
000320 e4 cb a7 3c 41 9f 05 be 65 57 c9 bd 76 e3 1b bc
       0.020482965 -0.13049032 -0.09831122 -0.00951468
000330 3a a6 48 be 86 b9 a1 3d 0d a0 86 bd 50 0b 60 bd
       -0.1959466 0.07896714 -0.06573496 -0.05469829
000340 5c f6 6a be 7f ed 76 3d c8 3e 8d 3d 00 47 fc b9
       -0.22945541 0.060285088 0.0689674 -0.00048118085
000350 76 4b 70 bd 91 83 d3 3d db de de 3d cf 2b 58 bd
       -0.058665715 0.10327829 0.1088235 -0.052776154
000360 ad e0 78 bb 29 01 c1 bd 65 d2 2f bd 1c ef 57 be
       -0.0037975714 -0.094240494 -0.042925257 -0.21087307
000370 be 21 b6 3d 56 13 8e bc c3 c1 13 be a6 cb a2 bd
       0.088931546 -0.017343204 -0.14429383 -0.07948999
000380 68 f4 7c 3b 47 da ba 3d b2 5c 63 bc 61 09 c7 bd
       0.0038597826 0.09123664 -0.013877081 -0.09718586
000390 9e 5c 63 3e 67 0b f2 3b 1a fb 94 bc 4e 5b fd 3c
       0.222033 0.007386613 -0.01818614 0.030927327
0003a0 43 0c d4 3c 2d 96 2e 3c 4a da c8 3d 53 e3 ec 3d
       0.025884753 0.010655922 0.0980726 0.11566796
0003b0 d9 12 28 3e dd ae c9 bc 04 e2 47 3e fd 0b 12 bc
       0.1641344 -0.024619514 0.19519812 -0.008913991
0003c0 9e 59 18 3d c5 bc c8 3d 95 3d d0 3d 1d 7a 19 be
       0.03719484 0.0980163 0.10167996 -0.14987989
0003d0 61 e3 b9 3d ec 6d be 3d 2e 52 ad 3d 52 61 1b be
       0.09076572 0.0929831 0.0846294 -0.15173844
0003e0 8e ce 81 bd f8 d7 d5 bb 53 18 36 bd ca e1 c6 3d
       -0.06338225 -0.0065259896 -0.04445679 0.097110346
0003f0 49 d5 c5 3d 70 7f d5 bd 4f c9 d2 bd 79 56 00 3d
       0.096598215 -0.104246974 -0.10292303 0.031332467

network_body._body_endoder.seq_layers.2.bias f4 [128]
000000 62 92 39 ba c8 44 29 bc 3e 98 0e 3b 19 e8 7a bc
       -0.00070790027 -0.01033134 0.0021758224 -0.015314125
000010 4e ea 67 3a 0b fb 90 39 ba 2a 37 ba bc 83 f8 3b
       0.0008846865 0.00027652862 -0.0006987263 0.0075840633
000020 3b d8 c3 ba 63 86 6a bc 98 2d b3 bb 94 92 37 bb
       -0.0014941761 -0.014314267 -0.0054680817 -0.0028010951
000030 00 91 a8 bb 87 85 ac bb 43 10 1f 3a 83 6c 36 bc
       -0.0051442385 -0.005264941 0.0006067792 -0.01113427
000040 f4 0c 30 bb 67 5d bc 3a a1 0f 61 ba a1 11 45 ba
       -0.002686319 0.0014371098 -0.0008585398 -0.00075175805
000050 76 1d 1a bb 88 d9 18 bb 91 91 78 3b 76 ed 9f ba
       -0.0023516095 -0.0023323018 0.0037928561 -0.0012201506
000060 53 db 92 bb 88 40 36 ba a7 75 b3 bb 67 f2 96 3b
       -0.004481712 -0.0006952365 -0.0054766717 0.0046065333
000070 f7 73 c3 ba 4c aa 29 bc 94 d8 c5 3b b2 e0 90 3b
       -0.001491188 -0.010355543 0.006037781 0.004421317
000080 26 7a 85 ba 8e 33 57 ba 64 fd 68 bb b7 e2 2a bc
       -0.0010183498 -0.00082092814 -0.0035551423 -0.01043003
000090 f3 16 82 3b ed 8a ab 38 e4 f5 2b ba 89 d1 8d bb
       0.003970021 8.179792e-05 -0.0006559773 -0.004327957
0000a0 d0 9e 07 bc 5f 5b d3 ba 68 a3 39 bb 4b 85 a1 3b
       -0.00827761 -0.0016125253 -0.0028326157 0.00492922
0000b0 05 ea 1a bc a2 53 3b bb 4b f4 48 3b 72 16 26 3b
       -0.009455209 -0.0028583785 0.0030663188 0.0025342968
0000c0 8a 7f 6c bc 3c 4f 9b ba c1 8d 90 ba 4f 79 83 bb
       -0.014434705 -0.0011849175 -0.0011028574 -0.004012264
0000d0 ca 8d 7c 3c 09 ec de bb 1b 6b 1b 3c 5a b5 9d ba
       0.0154146645 -0.00680304 0.009485985 -0.0012032196
0000e0 7d 74 9e bb e1 01 74 ba 8a 3e 42 bc 33 52 7b ba
       -0.004835664 -0.00093081413 -0.011855731 -0.0009587139
0000f0 1d 99 93 3a 74 54 8d ba 56 72 86 bb 1b 13 58 3b
       0.0011260841 -0.0010782615 -0.0041029854 0.0032970372
000100 77 a8 0f 3b 63 4e 39 bb 8d ad e8 b9 54 4e fe b7
       0.0021920481 -0.0028275482 -0.00044379794 -3.0315634e-05
000110 29 9e 38 ba 2b 98 7d bb 85 f8 bc bb 04 5e 58 bb
       -0.00070426107 -0.0038695436 -0.0057669305 -0.0033015022
000120 17 d9 1c bc 72 02 ad bb ff 7f 2e bc 5f 6b 2f 3b
       -0.009573243 -0.0052798325 -0.010650634 0.002676688
000130 22 61 ab bb 48 da bf ba a5 a4 dd 39 60 16 84 bc
       -0.005230085 -0.0014637196 0.00042275075 -0.01612395
000140 bd 46 53 ba 6a bb 7b ba 9d 46 2c 3b f0 35 a7 b9
       -0.0008059552 -0.0009602817 0.0026287206 -0.0003189291
000150 74 83 a3 bb e7 2a d2 bb 48 0b 6c bb 4c f9 d7 b9
       -0.0049900357 -0.0064138058 -0.0036017466 -0.00041193736
000160 2f 35 a2 b9 bb ef 4a bb 7b 8c 76 3b d7 45 19 bc
       -0.00030938673 -0.0030965644 0.0037620354 -0.00935503
000170 5c 3a a0 3b 82 13 00 3a d5 85 4e bb 4d 11 d4 bb
       0.0048897695 0.00048857194 -0.0031512876 -0.006471789
000180 d7 f5 d1 b9 30 59 53 bb b6 ad ca 3b 8a 51 a9 bb
       -0.0004004675 -0.0032249205 0.0061852587 -0.005167191
000190 54 cb ac ba 87 4c 0e bb dc 6a 8a 3b 7a 05 d1 ba
       -0.0013183155 -0.0021713094 0.0042241644 -0.0015947067
0001a0 e6 5a ae ba 9f 4f 45 bc 11 9c d3 3a 1d cc 18 3b
       -0.0013302236 -0.012042909 0.0016144534 0.002331502
0001b0 15 5a b4 bb ef 78 ff bb 26 37 04 bc db 0e 38 3a
       -0.0055039027 -0.007796399 -0.008069789 0.00070212566
0001c0 49 c6 e7 bb 97 6a 8d ba 0a 69 03 3b 78 bb f5 bb
       -0.007073198 -0.0010789213 0.0020051622 -0.0074991547
0001d0 ea 70 5d bb 01 d4 9e 3a e4 de 23 bb 34 27 b2 bb
       -0.0033789226 0.0012117625 -0.002500468 -0.0054368023
0001e0 d7 83 25 bc 4b 9d 35 bc f9 17 9f bb e5 c8 47 bc
       -0.010102234 -0.011084865 -0.0048551527 -0.012193893
0001f0 e0 7f 7b 3b a4 91 bd ba 08 3a ce ba 80 e0 f7 bb
       0.003837578 -0.001446296 -0.0015733847 -0.0075646043

action_model._continuous_distribution.log_sigma f4 [1, 2]
000000 92 e3 8c 3b e1 45 07 bc
       0.0042995894 -0.0082564065

action_model._continuous_distribution.mu.weight f4 [2, 128]
000000 49 30 9f 3c 7f 91 75 3b 8b b2 01 3d 7e ad 6a 3c
       0.019432204 0.0037470756 0.031664412 0.01432359
000010 e0 4e 02 3b 9a 3b 99 bc 57 35 93 3c 75 d9 d3 bc
       0.001988344 -0.018705178 0.01796977 -0.025860528
000020 a5 35 f8 3c 30 8d 6f 3b 25 f1 93 3b af 9d ff bc
       0.030299017 0.003655266 0.0045148307 -0.03120312
000030 ec 85 50 bb 66 97 e5 ba 31 65 03 3d 0b d7 a5 bb
       -0.0031818105 -0.0017516434 0.032078926 -0.0050610355
000040 b8 bc 9c bc 46 6c 11 3d 03 e0 89 3c 6d dd f8 3b
       -0.019132957 0.03550365 0.01683045 0.0075947554
000050 db 39 a7 bc 8c 90 59 3c a1 74 9f bb 54 f6 0e bc
       -0.02041333 0.013279092 -0.004866198 -0.008725721
000060 f4 d2 71 3b 45 0e 2f bc b2 1c 03 3b 4b ba 93 ba
       0.003689942 -0.010684554 0.0020006117 -0.001127073
000070 2c a6 05 bb 5a 4b 97 bc 9f 92 61 bc ff e7 36 3c
       -0.0020393236 -0.018468548 -0.013767867 0.011163711
000080 f1 7f ee 3c 3c d9 1c bd c0 59 a5 3b fc 35 aa bb
       0.029113742 -0.03829311 0.0050460994 -0.0051944237
000090 3f 6c c8 bc ec 5f 2b bc a2 d7 de 3b be 16 a9 bb
       -0.024465678 -0.010459881 0.006800608 -0.005160182
0000a0 0d 88 37 3c be 4d 5a 3c 4e f8 ab bc 07 48 dd bb
       0.011201871 0.013324199 -0.020992424 -0.006752971
0000b0 2b d3 13 3d 74 b5 19 3c 96 20 a7 3c e4 08 89 bb
       0.036090057 0.009381641 0.02040128 -0.004181968
0000c0 bd bc 2b 3b 0f be 4b bb 4c f0 36 3c 63 b2 e4 bc
       0.0026205026 -0.0031088626 0.01116569 -0.027917093
0000d0 7f 58 c0 3c 61 fb 57 3c 66 ef 28 bd ac ae c7 3c
       0.023479698 0.013182492 -0.041243933 0.024375282
0000e0 49 9c 6e bc 0e 54 92 ba db cf a2 3b f8 a6 57 bc
       -0.0145636285 -0.0011163966 0.004968626 -0.013162367
0000f0 7c 81 22 bc e0 dc 58 3b a8 58 cf 3b 09 40 32 bc
       -0.009918567 0.0033090636 0.0063277073 -0.010879525
000100 0c 3f e4 3b cb c5 34 bb ab 2e 53 bc c4 4e ae 3c
       0.0069655236 -0.0027583714 -0.0128895445 0.021277793
000110 dc bd 08 3d 98 28 0e 3d 4b a8 46 bc 4f 3d e0 bb
       0.03338419 0.034706682 -0.012125085 -0.006843246
000120 38 c8 de bb 7b 3f a0 bc f5 82 39 3b 9d 11 e5 3c
       -0.0067987703 -0.01956152 0.0028306816 0.0279625
000130 0c d9 27 bc fc 77 b4 bb 9c 63 8c bc fa d3 92 3b
       -0.010244619 -0.0055074673 -0.017137341 0.004480836
000140 36 95 78 bd 95 93 f7 3c 30 ff 4f 3c bf 40 0c 3d
       -0.060689174 0.03022174 0.012695119 0.034241434
000150 85 39 02 3c 2c db df bb a3 23 a5 bc 2a 90 44 3a
       0.007948284 -0.0068315472 -0.020158594 0.0007498289
000160 d0 80 96 bc 9f 96 e7 bc 32 87 67 bd 71 fa a0 3c
       -0.01837197 -0.028270064 -0.056525417 0.01965067
000170 14 1d 5f bb a2 61 55 3c 96 64 5e bc 68 60 83 bc
       -0.0034044432 0.013023766 -0.013573786 -0.016037181
000180 31 af 40 bc ea 93 6a 3b 44 71 57 bc 15 6d b2 bb
       -0.011760519 0.003579373 -0.013149563 -0.0054451325
000190 3b c1 a0 3c 6a e9 90 3b 19 6e 2f 3b 37 21 87 3c
       0.01962339 0.0044223564 0.0026768504 0.01649533
0001a0 89 bf 1f bd 9d 11 ec bb 4c fe 50 3c 68 94 cd 3c
       -0.03900102 -0.007204248 0.012755942 0.02509518
0001b0 4c 2a 93 3c 9b 4a d3 3a 0f df f7 3c 99 c5 90 bc
       0.017964505 0.0016120257 0.03025773 -0.017672347
0001c0 05 10 97 3a f7 30 78 bc 50 8d 11 bc ef 96 0c bc
       0.001152516 -0.015148393 -0.008883789 -0.008580907
0001d0 2c a8 e2 bb 90 69 98 3c 11 a0 03 bd 2a df 6c bc
       -0.0069170203 0.018605024 -0.032135073 -0.014457503
0001e0 4b fd e5 bb 72 ad 00 bb 06 15 42 3c d3 08 f5 3c
       -0.0070187203 -0.0019634631 0.011845833 0.029911434
0001f0 22 25 c9 bc f5 69 06 3c 50 25 0c bc fc 51 f5 3c
       -0.02455384 0.008203973 -0.008553818 0.02994632
000200 5c c6 4d bb 41 f4 57 bc e5 df 26 3c 20 da c4 3b
       -0.003139875 -0.013180793 0.010185217 0.006007448
000210 35 c4 87 bc 7d 65 c1 3c ae 33 84 ba b1 8c ef 3c
       -0.016573051 0.023607964 -0.0010086203 0.029241892
000220 6b e2 30 3c b8 91 3e bb 07 1e 8e 3c 3c 7e ea bc
       0.01079617 -0.0029078554 0.017348303 -0.028624646
000230 a8 1b d9 3b f5 22 22 3c 0b 4f 07 bc eb 28 09 bc
       0.0066256113 0.00989603 -0.008258591 -0.008371572
000240 7e 6b 3d ba aa 42 6a 3c 02 d3 09 3c 79 5d 43 bb
       -0.00072257954 0.0142981205 0.008412125 -0.0029810353
000250 af 2c 83 3b f0 58 0e bb 62 bb 1c 3d 61 bf 81 bc
       0.0040031294 -0.0021720491 0.03826464 -0.015838327
000260 8d ab 26 3c 9f 96 a7 bc 99 c1 b2 3b 4a 9d 80 bc
       0.010172737 -0.020457564 0.0054552075 -0.015700001
000270 9a 60 64 bb 46 27 08 bb 07 60 24 3d bb c4 21 bc
       -0.0034847618 -0.0020775362 0.04013064 -0.009873564
000280 96 c9 d6 3c 9a 6c 2d bc fb a8 ac 3b ce 0a 25 3d
       0.02621917 -0.010584975 0.0052691675 0.040293507
000290 6d b8 44 3b a8 2b cc 3a 36 4a 1a bc f7 c0 79 bb
       0.0030017153 0.0015576975 -0.009417107 -0.00381094
0002a0 10 76 4b bc 3f 33 00 3d 1c 0a b3 3a e6 73 d4 3c
       -0.012418285 0.031298872 0.0013659629 0.025934171
0002b0 e7 e9 2a 3d 0d 06 89 38 17 11 08 bd 03 49 0c bd
       0.041726973 6.533796e-05 -0.033219423 -0.034249317
0002c0 ff 22 20 3c b8 ce 28 bc 86 d7 ac b9 ad 5d 84 3c
       0.009773969 -0.010303192 -0.00032966974 0.01615795
0002d0 16 18 de bc b0 11 a4 3a e6 3f 1e 3c 56 5e 17 3d
       -0.027111094 0.0012517478 0.009658789 0.0369552
0002e0 fa 38 18 3c 02 cf 5a bc ca 3d e1 3c 13 60 89 bb
       0.009290928 -0.013355019 0.027495284 -0.004192361
0002f0 34 e9 7f bc 7d 7d 7d bc 3a de 39 3c 28 4e d8 38
       -0.015619565 -0.015471813 0.011344487 0.0001031424
000300 7a 62 d0 bc f6 ad e3 bb a9 a9 5f b9 db 0a 84 bc
       -0.025437582 -0.006948228 -0.0002133014 -0.016118458
000310 07 e6 25 bd f6 5c 57 bc 83 73 99 3c 09 81 a0 3c
       -0.040502574 -0.013144722 0.018731838 0.019592779
000320 4e 93 67 3b 59 65 94 bc 71 6a 33 bc 6c 93 ca bb
       0.0035335603 -0.018114733 -0.010950671 -0.006182125
000330 e6 32 b5 bb b9 a8 1e 3c 79 7d b4 bc bd 20 81 bc
       -0.005529749 0.009683781 -0.022032486 -0.015762681
000340 6c 72 d9 bc 65 ac 95 3b 76 23 19 bc 1f 6f de bc
       -0.026543818 0.00456767 -0.009346833 -0.027152596
000350 a3 08 8e 3c 8b 7e dc 3b 94 68 f1 3c 50 3c 0a bc
       0.017338103 0.0067289523 0.029468812 -0.008437231
000360 2a a7 ce bc 5a d1 8b 3c a7 3f 81 ba de 6e 86 bb
       -0.025226194 0.0170676 -0.0009860889 -0.004102572
000370 30 cb 71 bc 96 ea 78 bb 98 fe 04 3a f3 ad 27 3c
       -0.014757916 -0.003798162 0.0005073338 0.010234344
000380 a5 0b 54 ba dd 16 82 3c f3 9c ca 3c 30 ff cb 3a
       -0.00080888934 0.015880043 0.024733042 0.0015563723
000390 e5 12 b8 3c cb 31 d9 bb 00 15 c7 3c 95 c2 91 3c
       0.022469947 -0.0066282502 0.024302006 0.01779298
0003a0 e5 bc a5 bb 68 de 46 bc 35 94 f9 bb 11 8e 2c bc
       -0.0050579184 -0.012137987 -0.0076165446 -0.010531918
0003b0 68 2d 3f 3c 58 71 14 3a 95 d9 be 3c 73 66 11 3c
       0.011668541 0.00056626415 0.02329711 0.008874523
0003c0 24 a7 46 39 1e 5b 40 3a ea 22 35 3b 9a a9 1e 3b
       0.00018945016 0.0007337796 0.0027639219 0.0024209977
0003d0 57 12 05 3d 44 6a 42 bc e1 45 ba 3b 89 79 04 3c
       0.032488193 -0.011866156 0.0056845997 0.008085617
0003e0 12 76 cd 3b c7 08 4c 3c 18 64 87 3c 9d 39 7d bb
       0.0062701786 0.012453265 0.01652722 -0.0038639077
0003f0 c9 de 92 bc 4d d3 4c 3b 3e e4 66 3c e0 e3 a8 bc
       -0.017928498 0.0031253875 0.014092503 -0.020616472

action_model._continuous_distribution.mu.bias f4 [2]
000000 ff d3 ee 3a 5d 23 70 bb
       0.0018221139 -0.0036642172

action_model._discrete_distribution.branches.0.weight f4 [1, 128]
000000 57 d3 9f bc 3f b1 20 bc cb c3 4d 3b d5 6e ce bb
       -0.019509954 -0.009807884 0.003139722 -0.0062998333
000010 e3 25 61 3c 4b fb ac bb c5 bd 45 3b 83 df 66 3b
       0.013741943 -0.00527898 0.0030172926 0.0035228438
000020 87 27 c7 3c 47 54 35 3b ad 36 e6 bb 35 f5 53 bc
       0.02431084 0.0027668641 -0.007025561 -0.01293688
000030 c5 33 d0 bb 1f 96 96 bb df cb d7 3b 28 c0 ec bb
       -0.0063538277 -0.0045955325 0.0065855826 -0.0072250552
000040 f3 62 b4 39 18 ec 0b bc fe b6 0f 3c c7 6b 47 3b
       0.00034405998 -0.008540176 0.008771656 0.003042923
000050 a3 91 82 bc af e2 0c 3a 87 f7 7a bb 1b 4a a9 3c
       -0.015938586 0.00053743547 -0.003829451 0.020665219
000060 fd ed 69 39 ee 8b 29 3c 0a 71 11 bc 92 0e ec b9
       0.00022309269 0.010348303 -0.008877048 -0.00045024283
000070 66 73 ad bb 67 44 34 ba 1f b8 98 bc 29 ec 97 bb
       -0.0052932976 -0.0006876648 -0.018642483 -0.004636307
000080 1f 5d 15 bc 2b ad 0c bc f4 6c 18 3c 77 72 a1 3c
       -0.00911644 -0.008586208 0.00930332 0.019707901
000090 e7 98 01 3c 7b 25 16 bc 4b f3 be bb 38 0f ed bb
       0.00790999 -0.0091642095 -0.0058273426 -0.00723448
0000a0 f5 97 ce 3b e3 9d 29 bb 73 99 27 3c af 64 6e bb
       0.006304736 -0.0025881461 0.010229456 -0.003637593
0000b0 6a 65 00 bb a7 9a b3 3a d3 c7 ad ba 92 7d 77 bb
       -0.0019591697 0.0013702706 -0.0013258405 -0.0037764055
0000c0 e7 81 c4 3b 38 2c 08 3c 92 75 0f bc 0d d8 78 3c
       0.005996931 0.008311324 -0.008756058 0.015188229
0000d0 d7 5d 94 bb 97 c3 6b 3b 0f 5d 84 3b 69 a4 8a bb
       -0.004527788 0.0035974735 0.0040394138 -0.004231025
0000e0 17 e0 4b bb 3f 05 1c 3b 6f 4e 6d bc 80 5c 81 3b
       -0.003110891 0.0023806838 -0.014484032 0.0039477944
0000f0 42 b1 8f 3c 03 83 03 bb e1 fe c7 ba bb d9 08 bb
       0.017540578 -0.0020067103 -0.0015258455 -0.002088173
000100 22 ab ce bb 78 be e5 3b 4b c1 0a 3c 43 5c b9 3b
       -0.0063070217 0.007011231 0.008468936 0.0056567504
000110 76 a7 4a bc 36 f4 87 3c f5 e5 15 bc 7d 41 55 ba
       -0.012369027 0.016595941 -0.009149064 -0.00081350637
000120 3b b7 84 3c c5 b2 f9 3b c1 91 8e ba 35 f8 a8 3c
       0.016200652 0.007620188 -0.0010877178 0.020626167
000130 65 fa 45 3b d1 a9 09 3a 0b 35 97 bb f0 fb 0c bc
       0.0030209061 0.000525144 -0.0046144775 -0.008604988
000140 bf b9 f8 bb fb 8f a3 ba d8 f2 fc bb 0b 21 9e 3a
       -0.007590502 -0.0012478823 -0.007719379 0.0012064291
000150 6b 41 16 bb 58 b8 5a 3b 17 60 16 bc b5 f8 c5 bb
       -0.0022927176 0.0033374038 -0.009178183 -0.006041611
000160 63 a9 ae bb f4 d8 c9 3b 9a 4d 72 3c a0 e5 58 bc
       -0.005330251 0.006159896 0.0147890095 -0.013238341
000170 05 7d 09 bc 88 71 ec 3b 0d 66 7e 3b 5b 46 aa 3b
       -0.008391623 0.0072156824 0.0038818151 0.0051963753
000180 26 6a 42 bc 11 74 32 3c 2b a3 09 3c 8f df ef 3b
       -0.011866128 0.01089193 0.008400719 0.0073203514
000190 49 07 28 3c b9 ed 8a 3b 6e 77 1c bc 1e b2 3e bb
       0.010255643 0.0042397645 -0.009549959 -0.0029097865
0001a0 3d aa 0d 3c a5 a0 5b 3c ca c3 6d bb af 20 9a 3b
       0.008646545 0.013405 -0.003628003 0.004703603
0001b0 ab 67 6f bc 47 c6 82 3c e5 6c 40 bc dd 61 9c 3a
       -0.014612119 0.015963687 -0.0117447125 0.0011931021
0001c0 5d 93 c2 ba 40 dc 3b ba 8e 9e 8d 3c 3d 98 2c bc
       -0.0014844943 -0.00071663037 0.017287519 -0.010534343
0001d0 84 61 41 39 88 8c 18 3b f3 28 fc 3b df d8 e3 bb
       0.00018442242 0.0023277123 0.007695311 -0.0069533433
0001e0 27 f6 a1 bc da bf 2c bb 5a 02 9a bb 68 73 56 bb
       -0.019770695 -0.002635947 -0.0046999874 -0.0032722596
0001f0 65 e9 25 bc 5b 68 aa b9 97 b1 55 bb e3 0c 72 3b
       -0.010126446 -0.00032502678 -0.0032607072 0.003693395

exp_avg f4 [128, 80]
000000 13 89 1a 37 c1 12 4a 37 ce ab 97 1d b6 a6 fe 37
       9.21103e-06 1.2044505e-05 4.014701e-21 3.035679e-05
000010 34 55 30 38 3c ce 9c b5 a8 d0 07 37 00 f0 33 22
       4.204102e-05 -1.1682928e-06 8.095209e-06 2.4386079e-18
000020 36 15 ac 38 f3 86 a4 38 43 a1 29 38 8c 56 46 37
       8.20555e-05 7.845266e-05 4.0442927e-05 1.182187e-05
000030 fd 29 25 2a 0e a9 dc 37 02 14 24 38 97 4d 5c b7
       1.4669512e-13 2.6304766e-05 3.911928e-05 -1.3131087e-05
000040 25 85 63 b7 3d dd de b4 d7 64 e6 38 ee 34 c4 38
       -1.35612545e-05 -4.1511694e-07 0.000109860375 9.355867e-05
000050 6e 69 05 38 ce 61 bc b4 1d c5 ae 91 9c 16 62 38
       3.180786e-05 -3.508889e-07 -2.757384e-28 5.3903655e-05
000060 42 a4 77 38 db 46 c0 36 92 c8 c3 b7 9a ef 6b 27
       5.9042366e-05 5.7302946e-06 -2.333921e-05 3.274269e-15
000070 c6 27 cf 38 68 8f b7 38 26 90 94 37 d4 7b 97 b6
       9.8779376e-05 8.7528315e-05 1.77101e-05 -4.514566e-06
000080 2e fb 2d aa 2f d4 06 38 2b ca 92 38 be 1d 85 b6
       -1.5452632e-13 3.21457e-05 6.999479e-05 -3.9671713e-06
000090 a6 e7 79 b7 fc d9 42 ab 10 77 75 38 c1 16 ab 38
       -1.4895491e-05 -6.922516e-13 5.8523437e-05 8.158154e-05
0000a0 ae b8 07 38 b8 1e 43 b7 0a 94 79 28 ea 87 74 38
       3.2358505e-05 -1.1630058e-05 1.38543775e-14 5.8300713e-05
0000b0 d3 69 97 38 a2 2f 68 b7 ea e0 76 b7 5f dc 63 a6
       7.2199524e-05 -1.3839368e-05 -1.47151095e-05 -7.9055104e-16
0000c0 aa 4a ad 38 ac c9 a7 38 91 11 ff 37 81 9c 39 b6
       8.26319e-05 8.000745e-05 3.0406549e-05 -2.7658245e-06
0000d0 8d 27 d3 23 c3 5e 9a 37 7f 38 52 38 b4 ce b9 b7
       2.2893416e-17 1.8402357e-05 5.0120518e-05 -2.2149972e-05
0000e0 4e 06 0e b8 7b 0a 08 aa eb 00 fe 38 b5 f2 d9 38
       -3.386131e-05 -1.2082863e-13 0.00012111835 0.00010392574
0000f0 3d e1 09 b7 3f a7 56 b6 85 57 de 2c 89 d7 41 38
       -8.218279e-06 -3.1985835e-06 6.319336e-12 4.621552e-05
000100 72 51 4f 38 de 66 dd b7 c7 64 71 b7 85 99 0d 32
       4.9428498e-05 -2.6393154e-05 -1.4388183e-05 8.2421865e-09
000110 8a ab e5 38 2a 2f c9 38 7e 90 58 b7 d6 fa 29 36
       0.000109515226 9.593212e-05 -1.29082455e-05 2.5328968e-06
000120 03 8f 04 2a 23 8f c7 37 95 75 09 38 66 f2 d6 b8
       1.1773572e-13 2.3789302e-05 3.2772852e-05 -0.000102494654
000130 f5 7f b2 38 ca ef e1 38 ae a3 a5 38 bf ab 88 3a
       8.511535e-05 0.000107735 7.898301e-05 0.0010427161
000140 91 ae 65 b7 b1 1b 4d b7 97 91 25 1e f8 e3 e8 36
       -1.3690108e-05 -1.22254e-05 8.7651345e-21 6.940678e-06
000150 75 79 a8 36 6a 4b 6e b7 a5 fc 90 b6 9b 88 88 23
       5.0209296e-06 -1.4203464e-05 -4.320946e-06 1.4803004e-17
000160 d3 a0 29 38 00 10 ce 37 fe 87 22 b8 30 e5 1c b7
       4.044252e-05 2.4564564e-05 -3.8750462e-05 -9.3516865e-06
000170 67 01 b3 29 ff a6 68 38 62 58 30 38 92 a4 0d b7
       7.94944e-14 5.5468638e-05 4.2043983e-05 -8.442572e-06
000180 60 b4 07 b7 fa 55 c5 34 70 24 06 b7 92 ed 77 37
       -8.088624e-06 3.6756666e-07 -7.995506e-06 1.4777661e-05
000190 18 49 0c b8 dc d2 f8 b5 ff b2 d3 0f 69 d9 3f 38
       -3.3446675e-05 -1.8538808e-06 2.0875153e-29 4.5740428e-05
0001a0 04 0b fe 37 e6 23 0f b8 ec 59 4e b6 c6 f0 41 a7
       3.028429e-05 -3.412729e-05 -3.0748733e-06 -2.6914654e-15
0001b0 46 f4 52 37 bc d3 97 37 60 64 dc b6 ba 37 10 37
       1.257385e-05 1.80992e-05 -6.568196e-06 8.596044e-06
0001c0 1a cb 92 a9 4d 18 2b 38 86 13 af 37 08 d0 f0 b7
       -6.518935e-14 4.079221e-05 2.0870717e-05 -2.8707102e-05
0001d0 19 9f 6e b4 98 3b 14 aa f7 01 a2 37 18 5c 33 36
       -2.2223357e-07 -1.3165716e-13 1.931282e-05 2.6726684e-06
0001e0 5a b7 ab 37 2c 7e be b5 db b2 49 a8 1c d0 1a 37
       2.0470168e-05 -1.4192824e-06 -1.11965245e-14 9.2275695e-06
0001f0 4e fe 17 38 bc b3 76 b5 ac cc 61 36 28 e8 bb a6
       3.6238045e-05 -9.190369e-07 3.3646747e-06 -1.3038658e-15
000200 02 e4 5c b8 e4 f7 43 b8 6e d6 21 b7 28 be 20 37
       -5.2664436e-05 -4.672249e-05 -9.646274e-06 9.581017e-06
000210 45 d7 d4 a4 fd c6 98 38 48 ec 74 38 65 38 52 37
       -9.2305025e-17 7.284989e-05 5.8394187e-05 1.2530106e-05
000220 b9 7a 95 37 0c d4 5d 2a 36 dc a2 b8 5c 0c 89 b8
       1.7819331e-05 1.9702312e-13 -7.7657794e-05 -6.534971e-05
000230 70 6f e9 b4 af 58 dd 36 cd f0 ce ad ca f6 8b 38
       -4.3480713e-07 6.5966374e-06 -2.3526426e-11 6.6740045e-05
000240 25 ee 86 38 95 36 6f 37 4a d2 6d 37 41 16 66 b2
       6.433976e-05 1.42582185e-05 1.4175263e-05 -1.3392822e-08
000250 c6 65 c3 b8 f2 43 ac b8 43 31 af 36 eb 85 10 b7
       -9.3172814e-05 -8.214255e-05 5.2211412e-06 -8.614249e-06
000260 99 c4 e7 a9 2c ec 68 38 68 9a 59 38 ca 04 4e b8
       -1.0292565e-13 5.5533063e-05 5.1880634e-05 -4.9118687e-05
000270 68 53 2b 38 9e 09 9f b7 6c dd 1c b7 46 a4 2a b9
       4.0847255e-05 -1.8958755e-05 -9.349878e-06 -0.0001627366
000280 f3 d5 c4 37 88 dd 62 37 c1 8a cb 9d 28 0b c9 37
       2.3464649e-05 1.3522229e-05 -5.387712e-21 2.3966262e-05
000290 91 40 df 37 e9 cf da 37 de 72 9a 36 1b 06 1a a3
       2.6613738e-05 2.608444e-05 4.60293e-06 -8.34965e-18
0002a0 f0 f2 06 b7 90 62 23 37 7f 31 6b 38 7c 35 02 37
       -8.043586e-06 9.7385055e-06 5.6074463e-05 7.761057e-06
0002b0 14 85 30 a9 a6 89 88 b7 d8 7c cc b6 00 c6 89 37
       -3.9195277e-14 -1.6276561e-05 -6.0942075e-06 1.6423874e-05
0002c0 67 34 f6 36 76 ec 16 b5 17 e0 29 38 30 1f 9f 37
       7.3374717e-06 -5.622345e-07 4.050144e-05 1.89688e-05
0002d0 6b 73 30 38 50 90 4b b4 24 63 d3 8f dc 68 86 b6
       4.206916e-05 -1.8958349e-07 -2.0844394e-29 -4.0057184e-06
0002e0 aa 97 d9 36 9d e3 49 38 42 47 ab 35 27 86 18 27
       6.48476e-06 4.8134116e-05 1.2761232e-06 2.1166962e-15
0002f0 7b 96 99 37 48 73 40 37 b4 1a cb 36 bc e8 3b b7
       1.8309094e-05 1.1470933e-05 6.05298e-06 -1.1200256e-05
000300 5c 74 59 29 c4 20 c7 b7 4e 60 11 37 f9 9c 0e 38
       4.8284605e-14 -2.3737906e-05 8.665096e-06 3.400163e-05
000310 42 a7 43 b6 1e a5 be 28 f0 f2 ba 37 e0 ba 15 38
       -2.9154621e-06 2.1165846e-14 2.2286054e-05 3.569841e-05
000320 5b 92 66 b7 7a ff 9d 35 cb e6 3f 28 e8 b8 1b b6
       -1.3743144e-05 1.1771765e-06 1.0652675e-14 -2.320443e-06
000330 94 6a ba b7 7b a7 57 34 a3 4a f1 b6 ae 09 9d 26
       -2.2222557e-05 2.0084364e-07 -7.1910486e-06 1.0896687e-15
000340 79 55 d0 38 cf 6e bd 38 d5 25 57 37 06 a7 4c b7
       9.9341334e-05 9.032862e-05 1.2823807e-05 -1.2198236e-05
000350 ad 58 ea 24 66 62 84 b8 c7 78 3e b8 6d 25 6d b7
       1.01631546e-16 -6.3125786e-05 -4.5412013e-05 -1.4135015e-05
000360 4f 52 c6 b7 e5 43 4f aa 6d 7e 05 39 3e 92 e8 38
       -2.3641767e-05 -1.8408849e-13 0.00012730966 0.00011089862
000370 b4 4d ba b6 7d ec 04 b7 fe 6b da 2d 89 58 5c b8
       -5.552278e-06 -7.922875e-06 2.4831689e-11 -5.2534542e-05
000380 04 64 4d b8 03 51 49 b7 43 fd 92 b7 ae 74 45 32
       -4.8968956e-05 -1.1999396e-05 -1.752249e-05 1.1493439e-08
000390 cb 6e 10 39 81 af 00 39 4c e2 cd b6 de f1 13 37
       0.00013774184 0.00012272412 -6.1358205e-06 8.818197e-06
0003a0 c0 53 d1 29 0c 46 5a b8 21 55 3c b8 5c 3e 33 b8
       9.295993e-14 -5.2040486e-05 -4.4901975e-05 -4.2735002e-05
0003b0 92 ed 6c b7 1a 12 50 38 b1 23 4d 38 ac ef 36 3a
       -1.412201e-05 4.9607923e-05 4.890905e-05 0.0006978463
0003c0 10 a2 88 37 f8 57 50 b7 04 4a 90 9e b3 ad 01 b9
       1.628793e-05 -1.2418248e-05 -1.5277205e-20 -0.00012367107
0003d0 09 03 18 b9 96 50 e4 37 ba 21 29 b7 9a 51 ef a3
       -0.0001449698 2.7217244e-05 -1.00810375e-05 -2.5946992e-17
0003e0 d4 c6 8c b9 89 19 80 b9 0c a1 93 b8 73 e2 42 b7
       -0.0002685102 -0.00024433088 -7.0395035e-05 -1.1616025e-05
0003f0 4c cc 87 aa 3c cf 1a b9 ad 2f 2e b9 5e ac 61 38
       -2.4122577e-13 -0.00014763785 -0.00016611694 5.380471e-05

exp_avg_sq f4 [128, 80]
000000 33 19 57 31 f2 ab e3 31 e6 cd 6f 2d eb 5d 3f 33
       3.1300942e-09 6.6261174e-09 1.3631296e-11 4.455607e-08
000010 9f d0 4e 33 a2 11 49 31 7e 09 d3 31 5a ea e1 2a
       4.8152852e-08 2.9259373e-09 6.1419874e-09 4.0130643e-13
000020 8f 58 3c 33 ad 59 49 33 a9 13 18 31 6a 1a b8 31
       4.3852705e-08 4.688052e-08 2.2130087e-09 5.3581077e-09
000030 d8 ab 22 2c 26 68 44 33 d8 70 4e 33 d3 f5 28 31
       2.3116977e-12 4.572953e-08 4.8065743e-08 2.4586952e-09
000040 3c f3 c9 31 42 ce c4 2c 68 1e 41 33 b6 20 4b 33
       5.8775225e-09 5.5935543e-12 4.496397e-08 4.729437e-08
000050 0f 6d fa 30 3f 88 da 31 9d 36 84 2c c4 43 38 33
       1.822089e-09 6.3601244e-09 3.757729e-12 4.290247e-08
000060 c3 07 48 33 e1 ce 2c 31 31 10 c4 31 36 ae c6 2d
       4.6573188e-08 2.5146891e-09 5.7061915e-09 2.2587359e-11
000070 c9 d7 39 33 7b ca 47 33 15 4a 6c 31 17 a6 d9 31
       4.3269925e-08 4.6517453e-08 3.438463e-09 6.3344134e-09
000080 c9 30 02 2d b7 17 34 33 c3 92 41 33 5f 5b 38 31
       7.400477e-12 4.1931084e-08 4.5069793e-08 2.6827462e-09
000090 d9 e1 a0 31 75 cb 3b 30 84 f9 2c 33 9c d1 3a 33
       4.682289e-09 6.8319334e-10 4.0273804e-08 4.349714e-08
0000a0 22 f0 51 31 fa 7e fc 31 2e c7 ba 2b d7 d3 2e 33
       3.0550003e-09 7.348601e-09 1.3271378e-12 4.07052e-08
0000b0 09 5c 3d 33 a7 0f 36 31 d0 35 a3 31 76 d2 3a 30
       4.4088697e-08 2.6493383e-09 4.750042e-09 6.796549e-10
0000c0 6b 25 2a 33 45 da 34 33 73 25 31 31 56 8f d1 31
       3.961524e-08 4.210803e-08 2.5778177e-09 6.098996e-09
0000d0 15 7d de 2c 9f bc 34 33 11 bf 3d 33 be 66 1b 31
       6.3235064e-12 4.2081066e-08 4.4178766e-08 2.261387e-09
0000e0 18 40 ae 31 de 9b 3a 30 5a 1c 2b 33 51 7f 35 33
       5.071353e-09 6.7887906e-10 3.9839826e-08 4.225814e-08
0000f0 49 1f 25 31 5c 0b d8 31 e5 8b 18 2d ed 29 2c 33
       2.4028444e-09 6.287719e-09 8.6712625e-12 4.0085002e-08
000100 f1 9d 34 33 fc 4e 40 31 1e 86 ec 31 70 8e 52 30
       4.2053163e-08 2.7984575e-09 6.8837513e-09 7.659997e-10
000110 63 5a 11 33 f9 7a 1f 33 6a 83 59 31 48 7a bf 31
       3.384265e-08 3.7131915e-08 3.1652356e-09 5.5727334e-09
000120 d4 ad 0d 2b 4d a8 22 33 06 d5 2a 33 bc 21 3f 34
       5.03345e-13 3.7871633e-08 3.9774953e-08 1.7800534e-07
000130 a9 c1 2d 34 db 8f 1b 33 25 1a 7e 33 c3 1d af 38
       1.6182334e-07 3.6219586e-08 5.9162762e-08 8.350194e-05
000140 e9 a7 13 31 37 a6 78 31 cb 2e f6 2c 44 1a bd 32
       2.1486761e-09 3.6183232e-09 6.9969356e-12 2.201444e-08
000150 17 b6 cf 32 24 69 03 31 4e c8 63 31 4f 44 47 2c
       2.4180776e-08 1.9122774e-09 3.3146708e-09 2.831752e-12
000160 ac 19 c7 32 1f 20 d3 32 ab 95 a1 30 fd fa 34 31
       2.3178323e-08 2.457824e-08 1.175683e-09 2.6336118e-09
000170 a1 22 15 2b 2a 44 db 32 d3 52 e5 32 8d 78 08 31
       5.298349e-13 2.5525953e-08 2.6696773e-08 1.985913e-09
000180 51 f3 64 31 78 ed eb 2d ac ca ca 32 fd ca d7 32
       3.3316676e-09 2.6821864e-11 2.360806e-08 2.5121603e-08
000190 ca d7 7e 30 23 0c 4a 31 59 2b a6 2b 4c 22 d1 32
       9.2711316e-10 2.9401768e-09 1.1807041e-12 2.4346399e-08
0001a0 d6 dc de 32 9a 3e 18 31 ba 1e 87 31 69 75 44 2d
       2.5944626e-08 2.2154496e-09 3.9325103e-09 1.116738e-11
0001b0 6c a2 c4 32 7a a0 d6 32 5d 82 91 30 8f bf 44 31
       2.2891264e-08 2.4985855e-08 1.058719e-09 2.8630642e-09
0001c0 f5 14 eb 2b bb f2 d2 32 15 da e0 32 a1 8c 2d 31
       1.6703571e-12 2.4557599e-08 2.6176204e-08 2.5254752e-09
0001d0 6d 31 48 31 2b 18 e2 2d 7c 90 c1 32 70 f7 cf 32
       2.9131926e-09 2.5703958e-11 2.2533861e-08 2.4210493e-08
0001e0 13 ed cb 30 9e ce 55 31 45 39 b0 2a 42 cc d4 32
       1.4837575e-09 3.1113028e-09 3.130362e-13 2.4772934e-08
0001f0 70 d8 e4 32 16 4a 39 31 5b 0d 6c 31 ec b7 d2 2d
       2.6641118e-08 2.6963156e-09 3.4350112e-09 2.3955914e-11
000200 63 5f b1 32 c4 ff c0 32 e4 ac 82 30 09 3a 4b 31
       2.0648889e-08 2.246805e-08 9.507883e-10 2.9573377e-09
000210 37 28 43 2d 3e 93 ed 32 22 ee f6 32 cc e0 01 31
       1.1093396e-11 2.765739e-08 2.874646e-08 1.8899753e-09
000220 f8 00 67 31 a4 18 61 2e f0 b2 b1 32 a6 4a be 32
       3.3615475e-09 5.1180962e-11 2.0686883e-08 2.2152857e-08
000230 bb ed 7f 30 7c d1 73 31 3e fb 0f 2d d2 69 e2 32
       9.3106295e-10 3.5480232e-09 8.184396e-12 2.6357984e-08
000240 3c 54 ed 32 28 c9 fd 30 09 71 8b 31 d6 e3 7a 2e
       2.7628737e-08 1.8465345e-09 4.058283e-09 5.7045778e-11
000250 18 9c 9f 32 4d 40 ad 32 5f 71 79 30 b8 2b 62 31
       1.858102e-08 2.0169091e-08 9.074678e-10 3.291218e-09
000260 7d b6 c1 2b 61 16 e2 32 50 9c eb 32 b2 2e bf 33
       1.3764125e-12 2.632004e-08 2.7428683e-08 8.9026244e-08
000270 9c 39 a5 33 10 6b ca 32 dc fb 0e 33 10 80 2b 38
       7.69389e-08 2.3564581e-08 3.3291016e-08 4.0888845e-05
000280 1a 4d 2a 31 34 64 e1 30 9c 12 ff 2c eb e2 83 32
       2.4782083e-09 1.6399384e-09 7.249602e-12 1.5353598e-08
000290 4f 00 8e 32 17 47 0c 31 85 f6 be 30 6f 8e c9 2b
       1.6531116e-08 2.0413091e-09 1.3894385e-09 1.4321442e-12
0002a0 b1 a3 93 32 bf eb 9c 32 09 10 d8 30 d5 0a a1 30
       1.718749e-08 1.8267995e-08 1.5720626e-09 1.171737e-09
0002b0 53 38 0f 2b 5f 34 8c 32 2f 6a 92 32 4c 71 e6 30
       5.088197e-13 1.632196e-08 1.7044924e-08 1.6766903e-09
0002c0 1d c2 c3 30 57 20 a3 2c 00 9c a6 32 3e c0 ae 32
       1.4243288e-09 4.636329e-12 1.9395884e-08 2.0343688e-08
0002d0 73 f4 89 30 ab 3b e0 30 18 2a f4 2a 7f 89 75 32
       1.0037539e-09 1.6315104e-09 4.3372315e-13 1.429214e-08
0002e0 d6 cc 85 32 5d 07 04 31 fc 8a e2 30 71 72 01 2d
       1.5576386e-08 1.9212714e-09 1.6483166e-09 7.358212e-12
0002f0 e6 39 a8 32 1c 1a b6 32 f0 5b b6 30 94 55 f1 30
       1.9584103e-08 2.1199462e-08 1.3268373e-09 1.7559381e-09
000300 51 cb c9 2b 0d 2d 68 32 f3 1a 7e 32 66 3a fa 30
       1.4338341e-12 1.3514421e-08 1.4790873e-08 1.8206492e-09
000310 a8 19 83 30 40 e5 8d 2e 50 98 b6 32 a9 fc bc 32
       9.538796e-10 6.4526606e-11 2.1256852e-08 2.2000977e-08
000320 a0 bb ed 30 ab 4d f4 30 13 f5 c6 2a 62 8f 67 32
       1.7297346e-09 1.7775411e-09 3.534192e-13 1.3478571e-08
000330 56 1e 7a 32 0d 7f d9 30 2e dc a1 30 e0 2f 88 2e
       1.4558813e-08 1.5824938e-09 1.1776871e-09 6.193068e-11
000340 66 01 b0 32 0e 20 ba 32 c3 4d b6 30 64 97 e3 30
       2.0489733e-08 2.1667827e-08 1.3264344e-09 1.6559452e-09
000350 17 c1 87 2c eb be 7e 32 b6 69 84 32 34 16 88 30
       3.858368e-12 1.4828156e-08 1.5414894e-08 9.901613e-10
000360 04 5a a5 30 d7 c5 e3 2e 35 ff b1 32 01 65 b9 32
       1.2030914e-09 1.0357908e-10 2.0721567e-08 2.1582766e-08
000370 f4 6b a5 30 49 60 19 31 0a ce ba 2c ba 76 6a 32
       1.2036012e-09 2.2319162e-09 5.309313e-12 1.3647588e-08
000380 f0 f2 79 32 0b 2d 95 30 6e df 03 31 6b d6 c0 2e
       1.4548945e-08 1.0853979e-09 1.9190014e-09 8.7692374e-11
000390 36 a5 a4 32 98 9b ac 32 ac a2 b2 30 46 ef dd 30
       1.9167242e-08 2.0094191e-08 1.2997439e-09 1.6147872e-09
0003a0 5a 1f cc 2b eb b7 64 32 b7 cb 70 32 62 a5 30 33
       1.4503774e-12 1.3313165e-08 1.4016158e-08 4.1128608e-08
0003b0 ef b4 19 33 10 69 85 32 23 5d c4 32 43 8f 9e 37
       3.5787647e-08 1.5531015e-08 2.2859757e-08 1.890178e-05
0003c0 98 a9 96 32 8f fc b9 32 54 c7 dd 2d 60 31 32 34
       1.753942e-08 2.1651685e-08 2.521331e-11 1.6595504e-07
0003d0 68 ea 41 34 b7 e5 8f 32 3b 4d b5 32 c9 63 64 2d
       1.8059802e-07 1.6751853e-08 2.1106294e-08 1.2982456e-11
0003e0 82 05 33 34 9d 7e 3e 34 3a 41 2d 32 22 e2 a2 32
       1.6672678e-07 1.774119e-07 1.0084756e-08 1.8962115e-08
0003f0 aa 95 a8 2c d8 29 35 34 ed 49 3e 34 00 20 75 32
       4.7914632e-12 1.6872161e-07 1.7722023e-07 1.4268153e-08
